MLops_JAAA/models/lstm_model.pth (torch, 457570 bytes, 9 tensors)

lstm.weight_ih_l0 f4 [256, 247]
000000 38 ce b0 3d c5 cb 04 3d ec c4 bf 3d 6e d8 a2 bd
       0.08633083 0.032420892 0.09363732 -0.07951437
000010 b9 46 0b bd 71 4b b6 3d a4 91 70 3c b5 6d 34 3d
       -0.034002993 0.08901108 0.014683161 0.044049937
000020 fb f7 67 3d bb a8 b3 bc c9 c1 0b be 06 3a 5a bd
       0.056632977 -0.021931043 -0.13648142 -0.05327799
000030 78 67 b5 3d 28 87 d1 bc bc db 92 bd 1c 9b bd bd
       0.08857626 -0.025577143 -0.07170817 -0.092581004
000040 bd 68 8b 3d 83 1d 58 bd 95 a4 03 bd a8 0a 00 be
       0.068070866 -0.05276252 -0.03213938 -0.12504065
000050 8e d0 34 bc df a0 00 be 18 84 89 bd ec d1 60 bd
       -0.011036051 -0.12561367 -0.06714648 -0.054887697
000060 5f b9 53 bd 46 a9 ad 3d e5 a2 b8 3d 37 28 e9 bd
       -0.051690456 0.08479552 0.09015445 -0.113846235
000070 8c 40 50 bc 1e e4 ca 3d d2 be 15 bc 76 9e d5 bd
       -0.012710702 0.09906791 -0.009139733 -0.10430615
000080 09 4c df bd 59 b6 92 3d 5e 5a be 3d c0 65 80 3d
       -0.109031744 0.07163686 0.0929458 0.06269407
000090 54 e0 39 3d 35 05 2f 3d 21 8a 9b bc d6 b9 a2 bd
       0.04537995 0.042729575 -0.018986763 -0.07945602
0000a0 eb 2f f2 bd c1 9c e4 bd 83 1e 3f 3d 93 62 99 bd
       -0.11825546 -0.11162711 0.046659958 -0.07489505
0000b0 a3 1e e0 bd 39 52 65 3c 39 1a 11 be f7 60 39 bd
       -0.109433435 0.013996654 -0.1417016 -0.04525849
0000c0 64 47 c2 bc 73 1f 64 bc b8 5c 9a bd 56 b3 db bd
       -0.023715682 -0.013923514 -0.07537216 -0.10727565
0000d0 64 d2 8f bd ac 1e 82 3d 7d 53 79 3d 09 e7 cb 3c
       -0.07022551 0.063535064 0.060870636 0.02489044
0000e0 19 75 8c 3d a3 39 f0 bc ee 74 49 bd db 48 f3 bc
       0.06858272 -0.029324358 -0.04918378 -0.029697826
0000f0 ea 7b dd bd c7 67 f7 bc 14 0f ac bd 4a ba 3f 3d
       -0.1081465 -0.030200852 -0.084013134 0.04680852
000100 a5 e3 6c 3d 1a 48 43 bd 5f c9 c7 bd 8d 0c c9 bd
       0.057834286 -0.047676183 -0.09755205 -0.09816847
000110 ae 2a 10 be 1f d8 bd bd 40 fb ca bb bd 44 f7 bd
       -0.14078781 -0.092697375 -0.006194502 -0.12073658
000120 1a fb c3 bd 64 94 b3 bd 81 92 3a 3d 01 8c 14 be
       -0.09569378 -0.08768538 0.045549873 -0.14506532
000130 f7 1d 94 3d cb 7e a1 3d 96 48 ab 3c 2c ee a0 bc
       0.07232278 0.07885512 0.020908635 -0.01964482
000140 63 02 fb bc 2f 46 cb bd 94 55 38 bd a3 e5 67 3d
       -0.030640787 -0.09925496 -0.04500349 0.056615483
000150 94 ca 81 bd 58 de 82 bd ab f5 92 bc 3c 73 97 3d
       -0.06337467 -0.06390065 -0.01793941 0.07395026
000160 95 dc a3 3d db b1 f3 bd eb 09 05 be a5 d5 bf bd
       0.08001057 -0.118991576 -0.12992065 -0.09366921
000170 bc c2 13 bd 8d 0c c2 3d 23 ee 45 3c f6 a7 3c bd
       -0.036074385 0.0947505 0.012080702 -0.046058618
000180 54 bc 8e 3d e4 e5 c7 3d 1e 3b f8 bd 4b 1f 96 ba
       0.069695145 0.09760645 -0.12120651 -0.0011453418
000190 76 ee 7d 3d 06 55 c9 3d 99 54 46 bd 7c b4 17 3d
       0.061994992 0.0983067 -0.048420522 0.037037358
0001a0 2e 26 8c bd b0 a0 11 be 8e e2 5a 3c 70 3b 8f 3d
       -0.0684322 -0.14221454 0.013359679 0.06993759
0001b0 21 e0 54 3d dc bf c6 3d cf 52 9b bd f4 e7 19 bd
       0.05197156 0.09704563 -0.07584154 -0.037574723
0001c0 69 59 8c bc 77 fa db bd 10 fd 95 bd be 8d 98 3c
       -0.017132478 -0.10741132 -0.073236585 0.018622275
0001d0 20 33 09 be 84 36 89 3d a7 06 44 3d de 50 e8 bd
       -0.13398409 0.06699851 0.047857907 -0.11343549
0001e0 72 61 0e be b0 4d 3e bd 51 7a f3 bd df 5d f5 bd
       -0.1390436 -0.046460807 -0.118885644 -0.11980795
0001f0 2d d1 80 3c fe dc 9e 3d 39 80 26 3d 80 93 a4 bd
       0.015724743 0.07756995 0.040649626 -0.08035946
000200 96 81 df bd ca e0 1c 3d 42 cb bd bd 70 7c c6 bd
       -0.109133884 0.038300313 -0.09267284 -0.09691703
000210 54 bd 4b 3d 2c 11 21 bc 37 c4 b6 3c 8f 45 0b be
       0.049741104 -0.009830754 0.02231036 -0.13600753
000220 92 eb 45 bd bf a8 ae bc 0d 8c c7 3d 32 35 ab 3c
       -0.04832036 -0.021320699 0.097435094 0.020899389
000230 c3 62 3b bd 73 6a 94 bd a2 98 0f be 50 da c3 3d
       -0.045748483 -0.07246866 -0.14023069 0.09563124
000240 11 d7 b0 bd cf 69 b3 3d 99 00 99 bd d8 bc 90 3d
       -0.08634771 0.08760416 -0.07470817 0.07067269
000250 0d 13 92 bd ad 9f 8b 3d a6 8b 75 3d dc 5f f7 bd
       -0.0713254 0.06817565 0.059947632 -0.120788306
000260 ab 7d b0 3c 3d c1 4e bc 55 72 2f 3d 00 33 d2 bc
       0.021544298 -0.012619314 0.042833645 -0.025659084
000270 2d fc 2c 3d a9 5b ab 3d c6 48 04 3d 67 74 b4 3d
       0.04223268 0.08367092 0.032295965 0.088112645
000280 74 09 c5 3d 84 07 1e bd 05 67 02 bd f1 34 ec 3c
       0.09620944 -0.038581386 -0.03183653 0.028833838
000290 fa bb 18 3c 21 96 bd 3d 3b 51 a6 3d 79 30 ef bd
       0.009322161 0.092571504 0.08120962 -0.11679167
0002a0 f9 ed a0 3d ba 29 19 3d 9c 64 81 3d 2d bd ad bd
       0.0785789 0.03739331 0.06318018 -0.08483348
0002b0 23 26 01 3d 97 5b 9f bd bf fb b8 3c 56 c0 8a 3d
       0.03153051 -0.07781141 0.02258098 0.067749664
0002c0 a6 3e d1 3c 36 6e ac bd 58 00 a5 3b 6a 63 cd 3d
       0.025542568 -0.084194586 0.0050354414 0.10028727
0002d0 27 1e e6 bd 5e 68 1f 3d d0 84 a2 bc e8 15 75 3d
       -0.1123622 0.03891789 -0.01983872 0.059835345
0002e0 22 bb b0 3b 98 5c 11 3d 45 ef 15 bd 08 c5 b1 bd
       0.0053934017 0.035488695 -0.03660514 -0.08680159
0002f0 f7 01 b7 bc a0 c2 83 bd 33 ac e0 bd 46 22 f9 3c
       -0.022339804 -0.06433606 -0.109703444 0.03041185
000300 b1 71 44 bd 87 c3 04 bd d7 e9 c2 3d 0f 11 40 bd
       -0.047959987 -0.032413032 0.09517258 -0.04689127
000310 19 a5 a8 3d 10 6c a8 3c ac fd 95 3d 81 ec 58 bd
       0.08234615 0.02055934 0.07323775 -0.052959923
000320 f4 00 58 3d 4e ef da bd 67 0b a5 bd 74 b0 e5 3c
       0.052735284 -0.10690175 -0.080588154 0.028038241
000330 4f b1 02 be 9e 8d 7b bd 54 17 18 3d 95 b8 11 be
       -0.1276295 -0.061414354 0.037131622 -0.14230569
000340 3a df 72 bc 70 79 53 3c ea 24 ff bc a1 79 5f 3d
       -0.014823729 0.012907371 -0.031145532 0.054559354
000350 37 f3 0d bc 95 4e ec bd ac 5b 51 3c 8e 7e a2 3d
       -0.008663944 -0.11538426 0.012778204 0.07934295
000360 1b 20 b6 3d 39 e4 f6 bd 26 e6 c5 3c f0 04 94 bd
       0.088928424 -0.12055249 0.024157595 -0.07227504
000370 c0 ed 98 bd b6 15 86 bd ba c9 90 3c fa fb 80 bd
       -0.07467222 -0.0654711 0.017674316 -0.06298061
000380 1e 8f 36 3d 88 e8 fb 3c e1 60 f8 bd 21 20 de bd
       0.04457008 0.030750528 -0.12127853 -0.10845972
000390 b5 d0 af bd 4a f6 41 bd 56 b5 f9 bc 55 91 a9 3c
       -0.085847296 -0.04735402 -0.030481976 0.020699183
0003a0 b6 35 ec bd 9b 38 0c bc 0c 2b e3 3c 60 f4 e0 bd
       -0.11533682 -0.008558418 0.027730487 -0.10984111
0003b0 15 05 26 bc c9 26 b0 bd c0 52 b6 bd 79 10 06 be
       -0.010133048 -0.08601148 -0.08902502 -0.13092221
0003c0 2f 15 1f 3d 21 22 84 3d b6 e8 12 3d 5a b6 85 bd
       0.03883856 0.06451822 0.03586646 -0.065289214
0003d0 c6 03 5f bd 5e 06 96 bd ed 8d 16 bd cf 1e b4 bc
       -0.054446958 -0.07325433 -0.036756445 -0.021987347
0003e0 a4 5e 76 bd 5c 19 2f 3c 63 f3 f8 bd 4d bd af bc
       -0.06014885 0.0106871985 -0.12155797 -0.02145257
0003f0 df 4d f9 bc 23 51 97 bc da e4 8f 3c 48 59 11 bd
       -0.03043264 -0.018471306 0.01756518 -0.035485536

lstm.weight_hh_l0 f4 [256, 64]
000000 66 e5 5e bd 01 7d 01 3e a2 af c9 bd 52 56 b2 bd
       -0.05441799 0.12645341 -0.098479524 -0.087078705
000010 6e 97 37 bd 14 83 49 bd 4a 8f 14 3d bc 1b 1f bc
       -0.04482215 -0.04919727 0.036269464 -0.009711202
000020 14 c1 98 3b e0 cc eb bd ee 9f 8d 3b f1 b9 36 3d
       0.0046616886 -0.11513686 0.0043220436 0.04461092
000030 e3 67 d7 bd f6 0b 52 bd e4 81 81 bd 9b 08 d6 3d
       -0.10517862 -0.051280938 -0.06323603 0.1045086
000040 30 62 c0 bd cf af 5a 3d 5e bc b6 3c 0b 51 0e bc
       -0.09393728 0.05339032 0.022306617 -0.008686314
000050 19 10 ca bd 73 87 7b bd c6 79 68 bd 54 1b 32 3d
       -0.09866352 -0.06140847 -0.056756757 0.043483093
000060 da 03 98 bc f8 e7 a6 bc d4 dc 35 3d b4 88 e5 bd
       -0.018556524 -0.020374283 0.04440005 -0.11207715
000070 b7 17 2c bd f4 b9 a9 3d 1a 12 85 bd d3 99 d8 bd
       -0.042014804 0.08287421 -0.06497593 -0.10576215
000080 fb 52 1a bd 92 1b e0 bd 35 19 b0 bc e4 db 70 3d
       -0.037676793 -0.109427586 -0.021496395 0.058803454
000090 b7 1a 16 3d 7d 0e 7b 3d b4 5e 65 bc 58 c8 d3 bd
       0.03664657 0.061293114 -0.01399963 -0.10340947
0000a0 6e 8a a0 bd 14 0c ff bd 20 41 e6 bd 13 0a 30 3c
       -0.07838903 -0.124534756 -0.1124289 0.010744589
0000b0 04 28 8a 3c 06 29 25 3d ea 73 e1 3d be 4b 8e bc
       0.016864784 0.040322326 0.11008437 -0.017370101
0000c0 65 18 1c 3e 56 68 a4 bd 6f 3a f9 3d 51 8b d1 3d
       0.15243681 -0.08027713 0.121693484 0.102316506
0000d0 4c 21 f2 bd fb e0 d3 bd c1 56 d6 bd 6b c1 c9 3c
       -0.11822757 -0.10345646 -0.10465766 0.024628362
0000e0 ac 52 2b 3c bb 55 79 bc 77 28 78 bd 4f ea 3b 3d
       0.010456722 -0.015218194 -0.060585465 0.04587775
0000f0 e7 35 c6 39 19 93 f1 bd 99 ae b0 3d 62 ca 01 3d
       0.00037805663 -0.11795635 0.08627052 0.031687148
000100 24 94 02 bd 60 9f 6e bd 1d 4b 1e bd 08 03 c0 3d
       -0.03187956 -0.05825746 -0.038645852 0.09375578
000110 0e df e3 3d 33 fe c3 3d e4 4f f5 3d c3 ba 9d bd
       0.11126529 0.09569969 0.119781286 -0.077016376
000120 79 ef 41 bc cf 69 4c bd ce 1a aa 3d eb 7b c5 bb
       -0.01183688 -0.049905594 0.08305894 -0.006026735
000130 fc 24 93 bc 52 4d 78 3d 34 fa bd bd 8f bf d0 3d
       -0.017961971 0.060620613 -0.09276238 0.10192787
000140 09 76 20 3d f6 53 a6 bc 4b 9a 7b 3d 66 6d bb 3c
       0.039175067 -0.020303708 0.061426442 0.022879314
000150 bd 72 cb 3c 38 09 e9 3d c6 8a 89 bd 97 7a 92 bd
       0.024834985 0.113787115 -0.06715922 -0.071522884
000160 8f bd 60 bd 21 b1 dd bd d2 04 97 3c cd 64 66 bb
       -0.054868277 -0.108248 0.018434916 -0.0035155297
000170 25 1b f0 3d 00 07 f5 3d e1 85 a5 bd 16 04 cf 3d
       0.117239274 0.11964226 -0.08082176 0.10108201
000180 ba 09 af 3d e7 3e f4 bd 7f fe dc bd 1d fd cb bd
       0.08546777 -0.1192606 -0.10790729 -0.09960387
000190 58 26 f2 3d 3d 2d 53 bc fe 28 f4 bd 2f 70 b0 3b
       0.1182372 -0.012889204 -0.11921881 0.005384467
0001a0 d3 cb ad 3d cb b7 c0 3d 69 e4 c3 bb e4 fb c6 3d
       0.08486142 0.09410056 -0.0059781563 0.09716013
0001b0 03 25 42 bd e9 92 d7 3d da ef 5d 3d 94 f2 ae 3d
       -0.04739858 0.10526068 0.05418382 0.08542362
0001c0 49 1d c5 3d c0 fb d7 bd 4b 59 59 bc 8b 72 dd bc
       0.09624726 -0.105460644 -0.013265918 -0.027032157
0001d0 0d 3c 91 3d da 32 0d 3d 6b 48 ea bd 6f 70 03 be
       0.07091532 0.034472324 -0.11439594 -0.12835859
0001e0 66 df 8b bd 3a db 71 3d eb b2 f3 bd fc ec 7d 3d
       -0.06829719 0.05904696 -0.1189936 0.061993584
0001f0 fb f9 88 3c f4 5d 69 3b cf a4 a7 bd db 79 c7 bd
       0.016720762 0.003560898 -0.081857316 -0.09740039
000200 3c 81 ae 3d c2 2e 9f bc 09 1c e3 3d 42 71 ab 3d
       0.08520743 -0.019431476 0.11089332 0.083712116
000210 a9 ab d2 bc f9 d5 81 3d 37 2a d3 bd bf 46 93 3d
       -0.02571662 0.0633964 -0.10310786 0.07191228
000220 2b 47 fc 3d 30 a4 ed bc 78 82 35 3d 8c 6f da 3c
       0.12318262 -0.029008955 0.044313878 0.026664518
000230 1d be 9d bd 20 2d 84 bd 4c 0b f0 bc 2b 39 bc 3d
       -0.07702277 -0.064539194 -0.029302262 0.091905914
000240 c5 6b f0 bd c0 1d f0 bb 40 be db bd 35 3a 8c bd
       -0.117393054 -0.007327765 -0.10729647 -0.068470396
000250 1e a8 e7 bd 2c cb 82 3d 3a f8 51 bd ab ca dd 3d
       -0.11311363 0.06386408 -0.051262118 0.108296715
000260 de b9 ba bd f4 b6 6f bc b3 fe 28 3d e2 a5 f1 bc
       -0.091174826 -0.014631022 0.041258525 -0.029498044
000270 13 9f 55 bc b6 50 c5 bd a3 10 c6 bd 4f 7e 7e 3d
       -0.0130384145 -0.09634535 -0.09671142 0.062132176
000280 92 42 50 3d cc 39 15 3d 95 84 a8 bd 67 1c 70 3b
       0.050844736 0.036432073 -0.08228413 0.0036638023
000290 c2 bd 5f bd 63 d9 df 3d c5 08 9a bd 8a 20 d5 3d
       -0.054624327 0.10930135 -0.07521204 0.10406597
0002a0 09 3f bd bd af 66 f6 bd 8e 23 ad 3d f4 e9 25 3d
       -0.092405386 -0.12031304 0.08454047 0.04050632
0002b0 52 b2 e9 3d 65 0b 23 be 48 b7 ea 3c 83 90 de 3d
       0.11410965 -0.15922315 0.028651848 0.10867407
0002c0 70 8d d1 3d bf a9 47 3d 8d e9 e5 bc cf fe d3 bd
       0.10232055 0.048745867 -0.028065467 -0.10351335
0002d0 52 a1 a5 bd 39 9c 0b 3d 0b e3 b9 bd b8 20 2b bd
       -0.0808741 0.034084532 -0.09076508 -0.04177925
0002e0 4b a8 ed bd e5 18 12 3e d4 45 12 bc 7c 36 8e 3b
       -0.11604365 0.14267309 -0.008927781 0.004339991
0002f0 d3 32 cb bd d7 1a 84 bb d5 41 dc 3d b7 d5 89 3a
       -0.09921803 -0.00403152 0.10754744 0.0010515962
000300 e3 56 4a bd 6a f6 8b 3d 34 22 fd 3d 5e 91 62 bd
       -0.049399268 0.06834109 0.12360039 -0.055314414
000310 75 0b 63 bd 56 f0 17 3e ca 02 e1 3d 34 c8 2a 3d
       -0.05543085 0.14837775 0.1098686 0.041694835
000320 e8 5a 91 bc d8 52 7a 3c 9a f4 c4 bd ba a1 ec 3d
       -0.017743543 0.015278541 -0.096169665 0.115542844
000330 02 d4 68 3d 5d b0 e4 3c f3 18 b0 bc 86 46 e0 3d
       0.05684281 0.027916128 -0.021496272 0.10950951
000340 f0 de 84 3d dd 9a 90 3d 42 dc fa 3c 34 d4 be bd
       0.064878345 0.07060788 0.030622605 -0.09317818
000350 a1 68 ed 3d 8e 3b d3 bc f7 ef 0f bd 1f 3a 57 3d
       0.11592222 -0.025785234 -0.035140958 0.052545663
000360 c7 8a cb 3d 53 f4 de ba 5c 8f 16 3c cc 2b 4e 3d
       0.09938579 -0.001701007 0.009189453 0.050334737
000370 72 88 d0 bd f9 c0 62 bd 6c 34 0c bc 7d db c5 3c
       -0.10182275 -0.055359814 -0.00855742 0.024152512
000380 64 b9 b6 bd 09 19 a9 bc 23 dd d9 bd fb c8 5b 3d
       -0.08922079 -0.02064182 -0.106378816 0.053658467
000390 92 74 f4 bd cf a6 04 3d f0 78 c2 3d b6 bd 86 bd
       -0.119362965 0.032385644 0.09495723 -0.06579153
0003a0 73 7e ef 3d 8c 65 a2 bc 28 2e 74 bb 6f 1b 53 3d
       0.1169404 -0.019823812 -0.0037258957 0.051539835
0003b0 00 0d 95 3c d9 d6 97 3d 0d 62 a6 3b a7 a3 be 3d
       0.018194675 0.07414026 0.0050776065 0.09308558
0003c0 54 51 e6 3c 1d 92 e6 3d a6 9f bc 3d 1f 16 4f bd
       0.028114952 0.11258338 0.09210138 -0.050558206
0003d0 bd 39 6f 3b e4 3d 8c 3c 9a d5 f7 3d 51 f2 cf bb
       0.003650292 0.017119355 0.12101288 -0.006346025
0003e0 37 4b 17 bd 1b 67 4e 3d 42 a1 1a 3d fd a7 02 3e
       -0.036936965 0.050391298 0.037751444 0.12759395
0003f0 34 a3 89 3d a0 b4 00 3e 84 af f3 3c 69 8b af bd
       0.06720582 0.12568903 0.029746778 -0.08571512

lstm.bias_ih_l0 f4 [256]
000000 93 1b 1b 3d 17 95 a1 bd 2f 7d 08 bd 81 8b 25 3d
       0.037868094 -0.07889765 -0.03332251 0.040416244
000010 c7 53 b1 3d 8e 34 dc 3d 67 12 18 bd fa dc 7a 3d
       0.086585574 0.107522115 -0.037126925 0.061245896
000020 e0 ac f4 3d a5 cb 9a bd e8 ce 96 bc db 33 3a 3d
       0.11947036 -0.07558373 -0.018409207 0.04545961
000030 da 23 f7 bc d8 81 9c bd 53 bb 4c bc 17 2f 9e bd
       -0.030168463 -0.07641953 -0.012495833 -0.077238254
000040 ec 21 79 bd 29 f5 ab bd 36 8b b1 3d c4 73 d3 3d
       -0.060823366 -0.0839637 0.086691305 0.10324815
000050 20 7b b3 bc 2a 09 e5 3c 4e 65 3d 3c 57 36 db bc
       -0.021909297 0.027958471 0.011559797 -0.02675931
000060 f4 bf 1e 3d 03 c8 a4 3d 2a 21 27 3c ff a9 4d 3d
       0.03875728 0.08045962 0.010200778 0.05021095
000070 b5 4d be 3d 35 4d b2 3d 94 3a bd 3d 0e 26 2a 3d
       0.09292165 0.08706132 0.092396885 0.041540198
000080 74 c4 c9 bd bb d8 07 be 2d a6 47 bd 96 f8 88 bd
       -0.098519236 -0.1326627 -0.048742462 -0.06688039
000090 32 0d 17 bd 4b 27 16 3b 91 22 d5 3d 8f 6c 9a bd
       -0.03687782 0.0022911604 0.10406984 -0.07540237
0000a0 dd 29 dc bc 39 31 bb bd 6e 99 8f bd 98 37 b4 3d
       -0.02687543 -0.09140248 -0.07011686 0.08799666
0000b0 4d 50 bc bd 5c cc a3 39 8b 00 be 3d ef 6f e2 bc
       -0.09195004 0.00031242042 0.09277447 -0.027641265
0000c0 8a 33 ca 3b e2 1e c5 3d ec a8 bd 3d e0 22 ba bd
       0.0061706947 0.09625031 0.09260735 -0.09088683
0000d0 9e a4 bf bd 33 10 18 bd 42 10 e2 3d 26 65 07 be
       -0.0935757 -0.037124824 0.11038257 -0.13222179
0000e0 ff 0e aa bc 77 66 9a 3d e2 b3 c0 bb 6d 62 8c bd
       -0.020759104 0.07539075 -0.0058808187 -0.06854711
0000f0 bc fb 91 3d ed b5 5a bd 06 d3 6f bd 2c b6 10 bd
       0.07128093 -0.053396154 -0.058550857 -0.035329983
000100 32 3d ca 3d c9 41 47 3d 51 14 d8 3d 71 16 12 bd
       0.09874953 0.048646722 0.1055075 -0.035665933
000110 f1 11 f4 3c 96 03 5a 3d 2e b5 c8 3d cf c0 2d 3d
       0.029793711 0.053226076 0.09800182 0.042420205
000120 b1 23 df 3d 52 83 e1 bd 30 ca 28 3d fe 6b 87 3d
       0.108954795 -0.110113755 0.041208446 0.06612395
000130 7b fb cb 3d b7 b8 bf 3d 2d 1f 99 3d 4d 3a a5 bc
       0.099600755 0.093614034 0.074766494 -0.020169402
000140 c7 2c a1 bd 84 8c 10 bd 66 e5 eb bd cb 13 3a bd
       -0.07869869 -0.035290256 -0.11518364 -0.045429032
000150 03 58 51 3d d6 04 b3 bd 65 ef ee bd fa 57 0d 3d
       0.051109325 -0.08741157 -0.11666755 0.03450773
000160 18 6c b3 3a 0d 7f 56 3c 76 1f 49 bd 9c de f2 bd
       0.0013688831 0.013091815 -0.04910227 -0.118588656
000170 8f 50 67 3d 77 55 41 3d d2 1e 9c bd 8a 57 d6 3a
       0.05647331 0.047200646 -0.07623066 0.0016352993
000180 d7 4a e2 bd 8f 43 f8 bc 97 df 8e bc a2 8e b5 3d
       -0.11049431 -0.030305652 -0.0174406 0.08865096
000190 a5 bc b0 3d 91 53 13 be 5b 6c 60 3d 6f 47 53 bd
       0.08629731 -0.14387347 0.054790836 -0.051581796
0001a0 6f 2f 87 b9 67 2e b5 3d f3 a1 f6 bc 27 eb 0f be
       -0.00025784547 0.08846741 -0.03010652 -0.14054547
0001b0 9c 96 22 3c 6b fc ae 3c c1 ed 84 3c 63 02 98 bd
       0.009923603 0.021360597 0.016226651 -0.0742233
0001c0 7e c5 bc bd 2f e9 ae 3d 78 26 81 bc 01 9e a9 3d
       -0.09217356 0.0854057 -0.015765414 0.0828209
0001d0 ec 44 9b 3d 6a 0b f0 bd 18 ef fd 3d de 28 29 bb
       0.07581505 -0.11720927 0.12399119 -0.0025811712
0001e0 a2 31 11 be f9 53 82 bd b7 0e 10 be 57 26 5a 3b
       -0.1417909 -0.06363673 -0.14068113 0.0033287012
0001f0 ed ce ec 3d 3d 3c 59 bd b7 ba bc bd 5c 8b c6 3d
       0.115629055 -0.053035963 -0.092153005 0.096945494
000200 a5 98 bb 3d b3 37 cf bd 85 13 d1 bd db 83 6e bd
       0.09159974 -0.10118046 -0.10208801 -0.058231216
000210 ef 36 03 be 26 56 7a bd ed d3 ae 3c 7c 05 0e bd
       -0.12813924 -0.061117314 0.021341288 -0.0346732
000220 11 ee f2 3b 2d c1 91 bc 10 e7 75 3d e1 ab b2 bd
       0.0074136336 -0.017792309 0.06003481 -0.087241895
000230 1c 70 83 bd 7c 8e df bd 2f e8 85 3d a3 09 e4 bd
       -0.064178675 -0.109158486 0.06538426 -0.111346506
000240 d3 f8 d5 3d 1e fa 0e 3c 57 65 5e 3d 18 53 35 3d
       0.1044785 0.008726625 0.054295864 0.044268698
000250 4d 7c ac bd b3 ad c7 bd 6c 2a 18 bd 4c 22 d3 bd
       -0.08422146 -0.09749927 -0.03714983 -0.10309276
000260 fc 0c 4d bc 87 c4 be bc 58 83 c6 bd a8 17 bc bd
       -0.012515303 -0.02328707 -0.096930206 -0.091841996
000270 03 22 20 bd 66 ad db bd 90 86 8f ba 08 1f 07 bd
       -0.039094936 -0.107264325 -0.0010950137 -0.032988578
000280 fc c8 56 3c 24 d7 75 3d b9 36 c3 3d d8 34 c8 3d
       0.013109442 0.060019627 0.09531922 0.09775704
000290 a8 25 cb 3d 7e 6b 9a bc d3 c3 08 bd 51 14 ff 3d
       0.09919292 -0.018850084 -0.033389878 0.12455047
0002a0 b1 48 9a bb 53 3a a8 bc 1d 19 43 bd 26 5a 2e bd
       -0.0047083725 -0.020535624 -0.04763137 -0.04256644
0002b0 d8 ae cb 3b fb 48 ba bd 62 c6 d8 bd cd bd fc bd
       0.0062159114 -0.09095951 -0.105847135 -0.12340889
0002c0 4f f9 e1 3c 36 5a b6 bd db a8 66 3b a8 d0 e5 bd
       0.0275847 -0.08903925 0.003519586 -0.11221439
0002d0 f4 6d f2 bc 81 44 d5 bd d4 4e 07 3e f6 ba 94 bd
       -0.029593445 -0.10413457 0.13213664 -0.072622225
0002e0 13 1d 6b bd 6a 00 7a bd b6 fd 8f bd ca c5 0f bd
       -0.057400774 -0.06103555 -0.070308134 -0.035100736
0002f0 62 0b a2 3c 67 ee ca 3d 11 95 b4 bd 7a ea e9 3c
       0.019780818 0.09908753 -0.08817495 0.02855419
000300 d2 d5 6b bd c1 ba b8 3d cb b1 55 bd 8d 2f 47 bd
       -0.05757696 0.090199955 -0.05217151 -0.048629332
000310 3a a7 92 bb c0 34 c0 bd e8 41 76 3d 80 2b 97 bd
       -0.0044755014 -0.09385061 0.060121447 -0.07381344
000320 97 a2 d4 bc 55 54 9f 3d 71 34 81 bd 74 46 46 3d
       -0.025956435 0.07779757 -0.063088305 0.048407033
000330 ec 32 00 3d 16 9d e9 bc 5a 09 ca 3c 8a 0e c5 3c
       0.031298563 -0.028517287 0.024662662 0.024054784
000340 66 57 a5 3d 86 22 8c 3d 54 11 06 bd 81 2f f8 bc
       0.080733106 0.06842522 -0.03273137 -0.03029609
000350 44 99 bb bd 63 12 49 bd 6c e9 17 bd 51 79 74 3d
       -0.091600925 -0.0490898 -0.037087843 0.05968601
000360 8c b2 f9 bd e2 3b 98 3c ae 19 61 3c 55 71 d9 3d
       -0.12192258 0.018583242 0.013739033 0.106173195
000370 24 9b 4e bc e5 09 f0 3b cf 99 db bd d7 ad 5b 3d
       -0.012610231 0.0073253983 -0.10722696 0.053632583
000380 16 a0 1f 3d 0f ce 2e 3c b4 cb de bd e4 2a 82 3c
       0.03897103 0.010669245 -0.10878697 0.015889592
000390 8f 0d 3c bd 23 be ad bd 4b 5b 93 bd d7 32 ff bd
       -0.045911368 -0.08483531 -0.07195147 -0.12460869
0003a0 f4 d1 c6 bd 88 dd cd bd 4f 7b 6c bd 7a f2 b3 bd
       -0.09708014 -0.10052019 -0.057734784 -0.08786483
0003b0 7d 1d b3 bd a0 b4 bf 3d 20 a8 e9 bd d5 b5 a5 bd
       -0.08745859 0.09360623 -0.114090204 -0.08091322
0003c0 0c 84 b0 bd 62 31 ce 3d 66 8c a3 3c 96 6d a1 bd
       -0.08618936 0.10068013 0.019964408 -0.0788223
0003d0 dd a0 66 3d eb c4 99 3c a8 43 d5 bd 07 d7 ab 3d
       0.056305755 0.018770656 -0.10413295 0.083906226
0003e0 0a 2c b2 3c 2b 32 d1 bb fb c3 8a bd 6a f1 b4 bd
       0.021749515 -0.0063841543 -0.067756616 -0.088351086
0003f0 2e 85 f3 3d 9e 48 86 bd 9a fb 26 bb 28 12 3f bc
       0.118906364 -0.065568194 -0.0025479556 -0.011662044

lstm.bias_hh_l0 f4 [256]
000000 42 a9 63 3d fd 2e b9 3d fb 19 7b 3d 9a 1b 3e bd
       0.05558134 0.090421654 0.061304074 -0.04641304
000010 b7 6f 2e bd 7f f6 7d 3d 3c 2b 6a bd 46 6e 3a bd
       -0.04258701 0.062002655 -0.057170138 -0.04551532
000020 eb d9 78 3c c6 3e 3d bd e3 45 f2 bd f9 0e d1 3d
       0.015188674 -0.046202444 -0.11829736 0.10207934
000030 be 75 55 3d c8 82 1a be a1 78 22 3d f3 57 af 3d
       0.05211424 -0.15088952 0.039665822 0.08561697
000040 5d 90 e5 3c 7d 0f 7b bd f3 fe 15 3c b6 80 94 3d
       0.02802294 -0.061294068 0.009155023 0.07251112
000050 ca 82 9e bc 71 e5 15 3d 03 7b b5 bd 0a fd be 3d
       -0.019349474 0.036595766 -0.08861353 0.09325607
000060 5f 48 6b 3d b7 c8 d0 3d 09 5d 72 bd fa 84 d3 bd
       0.057442065 0.10194533 -0.059170756 -0.10328098
000070 8f 57 95 bd f0 d0 50 bd 5d ca 96 3d 89 5b 2a bc
       -0.07292091 -0.05098051 0.073628165 -0.0103978
000080 88 f2 00 be b0 bb 8e 3d 32 6d ea 3d 34 53 8b bd
       -0.12592518 0.06969392 0.114466086 -0.06802979
000090 64 79 80 bc ff f4 c6 3d 3b a4 4c bd 29 a2 b4 3d
       -0.015682884 0.09714698 -0.04996131 0.08819992
0000a0 ab 1a ce bd d6 ba 92 39 08 42 bb bd 93 77 25 3d
       -0.1006368 0.00027986494 -0.09143454 0.040397238
0000b0 6e 0d 10 bd dd ba 68 bd 01 82 0a be 96 49 0f bd
       -0.035169058 -0.05681883 -0.13526155 -0.034982286
0000c0 38 63 3c bd b8 56 b5 bc 55 7f 6d 3d 64 74 f7 3c
       -0.04599306 -0.022136077 0.05798276 0.030206867
0000d0 a7 55 fb bc 03 47 81 bd 5f 81 71 3d 66 76 81 bd
       -0.03068049 -0.063123725 0.05896127 -0.06321411
0000e0 ab f4 0d be 5e 8a 0c 3e 60 70 8c bd e3 89 28 3d
       -0.13862865 0.13724658 -0.06857371 0.041147124
0000f0 e3 f1 bf bd 00 26 b5 3d b4 1c ae 3c 76 ef 4c 3c
       -0.09372308 0.088451385 0.021253921 0.012508264
000100 05 0b 47 3d 49 fd 85 3d 5f 23 14 bd 02 d3 f2 3b
       0.048594493 0.06542451 -0.036166545 0.007410408
000110 d1 db a0 3d d4 f1 97 3d 6f 8c 70 bd 22 3d a9 bd
       0.07854427 0.07419172 -0.058727678 -0.08263613
000120 cf bd 01 3e c6 94 a5 bd 95 b4 8b bd 70 b3 a1 bd
       0.12670062 -0.08085017 -0.06821553 -0.07895553
000130 99 fe 9e 3d e7 a4 1e bc 70 53 ba 3d 29 fa cc 3d
       0.077634044 -0.0096828705 0.09097946 0.10008652
000140 05 8d ed bd 5d 65 9c bd 3b 80 66 bb 72 4d f4 bd
       -0.11599163 -0.07636521 -0.0035171646 -0.11928834
000150 fd 92 08 be a6 62 af bd 75 02 98 bd d2 f6 88 3c
       -0.13337322 -0.085637376 -0.07422344 0.016719256
000160 c9 9d 02 be 52 0d 6c bd e8 3f a6 3d 83 15 2e bd
       -0.12755503 -0.05762989 0.08117658 -0.042500984
000170 2d 16 b4 bd ad 46 03 3e 7a 33 b4 3d 67 c9 a3 bd
       -0.08793292 0.1281993 0.08798881 -0.07997399
000180 cd 7c 02 3d c0 f1 98 bd 40 0d e6 3b 9a 51 7e 3d
       0.0318573 -0.07467985 0.0070206225 0.06208954
000190 b1 3a 08 be 2e 2c 05 be b3 7d 8d 3d 01 32 47 3d
       -0.13303639 -0.13005134 0.06908741 0.04863167
0001a0 c6 0c 89 bd cd 2e bb 3d 0e 74 dc 3d 13 f1 a4 bd
       -0.066918895 0.09139786 0.10764323 -0.08053794
0001b0 a9 91 8f 3c 1f df ed 3d 78 13 52 bc 48 bf 85 bd
       0.01752551 0.116148226 -0.0128220245 -0.06530625
0001c0 18 e2 b4 bd d9 66 e3 bd c8 69 c4 bd d0 00 71 3c
       -0.088321865 -0.11103601 -0.09590489 0.014709666
0001d0 b0 cb c8 bd b2 8f 8b 3d 87 03 23 bc af 90 ab bb
       -0.09804475 0.06814517 -0.009949571 -0.0052357535
0001e0 78 24 e6 bd cf 55 8b bd 46 cd c2 bd a6 b3 05 3d
       -0.112374246 -0.06803476 -0.09511809 0.03264203
0001f0 50 83 19 3e 95 c5 0c 3e 25 cc 3f 3d 2c 1d 3d bd
       0.14991498 0.13747247 0.046825547 -0.0461704
000200 6b 91 c2 3d 97 96 ce 3d 1c 6e 60 bd 7c 4c 98 bd
       0.095003925 0.100873165 -0.05479251 -0.07436463
000210 79 7c c9 bd 30 cd e7 bd 4c 65 f2 3d 96 9d 0b be
       -0.098381944 -0.11318433 0.11835727 -0.13634333
000220 1d 9f 97 bd 37 fa 3a bd b6 d1 5e 3c d5 8d 86 3d
       -0.07403395 -0.04564878 0.013599804 0.06570021
000230 c2 54 fe 3c c8 0f a9 3d 64 71 f7 3d 57 a8 a2 3d
       0.031046275 0.08254963 0.120821744 0.079422645
000240 2d 28 92 bd c7 d6 83 3d 71 0e bc 3d 10 c3 13 bd
       -0.07136569 0.0643745 0.09182442 -0.036074698
000250 f6 03 88 bd 7f c4 21 bb c8 9d cb bd 3c 7d d3 bd
       -0.066413805 -0.0024683771 -0.09942204 -0.10326621
000260 5d e9 a8 3c 9a 12 9d 3d e4 9f 65 3d 8b aa 3f 3c
       0.020619089 0.076695636 0.056060687 0.011698375
000270 75 ab b7 3d d9 74 6f 3d 3f d3 d4 bd 73 2b e2 3d
       0.0896825 0.058461044 -0.103918545 0.110434435
000280 b8 a8 5f bd 34 17 bb 3d b7 6f ad 3d dc da 34 3b
       -0.054604262 0.09135285 0.084685735 0.002759627
000290 5a 08 8d 3d d3 2c 3a bd e4 ed c7 3d cf 81 ac 3d
       0.068863586 -0.045452904 0.09762171 0.084231965
0002a0 e6 9e d5 3d 85 ad ea 3d 25 c5 bc 3d 46 09 ca 3d
       0.10430698 0.114588775 0.0921729 0.0986505
0002b0 ab 88 1a 3d f8 1c 31 3c 0a ff c1 3d 66 c1 75 bd
       0.037727993 0.010810129 0.09472473 -0.059998892
0002c0 b8 62 52 3d ee cd c5 bd cc 9e d0 bd 2c aa e6 3d
       0.051363677 -0.096584186 -0.10186538 0.112629265
0002d0 c4 f2 5f 3d 5f f0 87 bd 42 a0 10 3c de d6 0d 3c
       0.05467488 -0.06637644 0.008827271 0.008657185
0002e0 df 35 38 bc 6c 1d 5c bd ea 99 35 bd 96 a9 5a 3d
       -0.011243313 -0.053738996 -0.044336237 0.053384386
0002f0 39 b7 b6 3d be 09 e6 bc 5b f5 c7 bd 28 5f de 3d
       0.08921666 -0.028080817 -0.09763595 0.10857993
000300 b8 41 a1 3c 83 dd 9e 3d ee e0 30 3c 24 d6 cd bc
       0.019684657 0.07757094 0.010795815 -0.025126524
000310 b5 3c 07 bb 61 af 2b bc 50 25 f8 3d 99 6a 1b 3d
       -0.002063555 -0.010478825 0.12116492 0.037943456
000320 86 5b 3e bd c1 39 8e 3d 1d 10 90 3d 9a 50 9b 3c
       -0.046474002 0.069446094 0.07034323 0.018959332
000330 7a 5f d9 3d 05 09 8b bd 66 eb 67 bd 5c 40 d4 bd
       0.10613914 -0.0678883 -0.056620978 -0.10363838
000340 bd 46 4b bc 02 b2 a5 3d 5b 89 10 be 4b d3 02 be
       -0.012407002 0.08090593 -0.14114897 -0.12775914
000350 1b 88 13 3d 58 d8 a0 3d 38 83 6e bd 1f af ec bd
       0.036018472 0.07853764 -0.05823061 -0.11556839
000360 a5 30 06 be 29 23 b7 3d cf b3 93 3c b6 4f 55 bd
       -0.13104494 0.08942253 0.018030075 -0.05207797
000370 fd 21 9a 3d ce 4a a4 3c 78 e4 91 bd 80 36 8f bd
       0.07526014 0.0200552 -0.07123655 -0.06992817
000380 6b 63 79 bc 0f e3 e1 bd c7 d3 65 b9 1b e2 19 be
       -0.015221457 -0.11029636 -0.00021918035 -0.15027659
000390 9c 04 8d bc ed 6e ab bd e0 8c e9 bd 86 1b 10 3c
       -0.017214112 -0.08370767 -0.11403823 0.008795625
0003a0 96 bb e3 3c 81 7e d4 bc 7e 0b 88 bd 3e a6 95 bd
       0.027799409 -0.025939228 -0.06642817 -0.07307099
0003b0 a5 a9 8b bd 08 f7 f7 bc 92 5c c0 bc 49 67 25 bd
       -0.068194665 -0.03026916 -0.023481641 -0.040381704
0003c0 68 bb 93 bd c1 e5 f9 3c 23 f7 d4 39 a2 af cd 3d
       -0.07213479 0.030505063 0.00040619922 0.10043265
0003d0 03 91 d9 3c 01 bd ee 3c bd 86 ec 3c 45 7b b3 3d
       0.026558405 0.029142858 0.028872842 0.08763746
0003e0 a5 3b 42 3d 1b fc 6a bd 99 86 a0 bc 13 b0 9f bc
       0.047420163 -0.057369333 -0.019595431 -0.019493138
0003f0 79 2c 1b bd b5 e9 6f bc 9e 98 c5 3c 2d fe ef bd
       -0.03788421 -0.014643122 0.024120625 -0.11718402

lstm.weight_ih_l1 f4 [256, 64]
000000 bc e0 a6 bd b6 53 48 bd 05 5c c9 bd 93 b2 70 bd
       -0.081483334 -0.048907958 -0.098320045 -0.05876405
000010 b1 c3 75 3d aa 91 ea 3d 75 3e 89 bd 66 84 c7 bb
       0.06000108 0.114535645 -0.06701366 -0.006088781
000020 93 3e 86 bd 77 92 54 3c 61 2a 58 bd 88 a7 9d bd
       -0.06554904 0.012974373 -0.05277479 -0.0769797
000030 52 0c b9 3d c3 c1 e5 3c e6 a6 01 bd 59 d7 aa 3d
       0.09035553 0.028046494 -0.031653307 0.083418556
000040 7e e2 f4 bd f3 bf 68 bd d8 dc b0 bd 3c 8d f9 3b
       -0.119572625 -0.056823682 -0.086358726 0.0076157134
000050 14 9a c5 bd 7f b6 ba 3d 49 5d 6f bc b4 f9 8f 3d
       -0.09648529 0.091168396 -0.014609643 0.07030049
000060 f9 84 b3 bc 9b 51 97 bd 7a 0c 94 3b 43 b8 d3 3c
       -0.021913992 -0.07388612 0.004518089 0.025844699
000070 4d 21 34 bd 16 50 b5 bd fc ee 3d 3d 98 dd f0 bd
       -0.04397707 -0.08853166 0.04637049 -0.11761016
000080 25 8d 06 be c8 52 c9 bd 76 d5 2a bd 56 8a c9 3d
       -0.1313978 -0.098302424 -0.04170748 0.098408386
000090 fe 28 b6 3d 34 1f a0 bd db a3 62 bd 9f 9d 07 bc
       0.088945374 -0.078184515 -0.055332046 -0.008277326
0000a0 84 10 27 3d eb a3 f6 3d 8a c4 6a 3d 21 24 89 3d
       0.040787235 0.120429836 0.05731634 0.06696344
0000b0 12 37 c8 bd b9 b9 20 be f6 06 59 3d 38 5e a8 bd
       -0.09776129 -0.15695848 0.052985154 -0.08221096
0000c0 20 07 51 3d 43 33 a3 bd 9f d3 a8 3d ed 9c 0f 3c
       0.051032186 -0.07968762 0.082434885 0.008765441
0000d0 88 9d 4b bc 06 ff 98 3d e4 9e f5 bd 86 4c f1 bc
       -0.012427695 0.07470517 -0.119931966 -0.029455435
0000e0 3a 60 ee 3d d8 d2 6e bd 80 80 c0 3d d9 00 f8 bc
       0.116394475 -0.058306545 0.093995094 -0.030273842
0000f0 59 1d bd bd 80 d2 bb bd 31 5a 4c 3d eb e4 d7 bd
       -0.09234113 -0.09171009 0.0498907 -0.105417095
000100 e4 70 22 bd 8c 72 da 3d b3 e9 34 3d 66 12 9f 3d
       -0.039658442 0.10666379 0.044168185 0.07767181
000110 9d 7b 64 3d 5f 55 99 3d 87 0a 8e bd a2 03 de bd
       0.05578195 0.07486986 -0.06935602 -0.10840537
000120 c2 57 db bd 04 00 7a 3d 1e 84 e1 3d 64 9a 4c bd
       -0.10710098 0.06103517 0.110115275 -0.049951926
000130 06 e2 95 bd 1c 84 9d bd b5 cf 03 bd c9 74 d6 3d
       -0.07318501 -0.076912135 -0.032180507 0.10471494
000140 b2 da 3e 3d dc e1 6e 3d 16 ec ba bd f1 ff c6 bc
       0.046595283 0.058320865 -0.09127061 -0.024291964
000150 83 3a 87 3c 77 15 d0 3b b3 1f f1 3d 69 ff 03 be
       0.016507393 0.006350215 0.11773624 -0.128904
000160 c9 45 a1 3d a8 92 93 3d 4a 33 c6 bd d6 90 04 3d
       0.078746386 0.07205707 -0.09677751 0.03236469
000170 35 01 f6 3d 66 72 c8 bd 25 60 5c 3d 12 8e 2a 3c
       0.12011949 -0.09787445 0.053802628 0.010409849
000180 a1 8d d7 3d 4c ab 64 bd d8 ff a9 3d 8d 9e 67 bb
       0.105250604 -0.055827424 0.083007514 -0.0035342306
000190 b5 89 cd bd c6 23 e4 bd 21 65 a6 bc 57 f5 b9 bd
       -0.10036031 -0.11139636 -0.020311894 -0.09079998
0001a0 3b bb 9d bd c2 32 68 3d 6e 07 a1 3c 73 11 73 ba
       -0.07701727 0.05668903 0.019656863 -0.00092723145
0001b0 90 0e dd bd 3d f6 d8 3b fb 34 ee 3d c2 48 1f bd
       -0.10793793 0.0066211508 0.11631199 -0.038887747
0001c0 e0 c1 1c 3d 05 78 e1 3d 2a 97 9a 3d df 16 b0 3d
       0.03827083 0.1100922 0.075483635 0.08598112
0001d0 95 e9 92 bd c0 05 a1 3b ed 05 49 3d 23 81 76 bd
       -0.071734585 0.0049140155 0.049077917 -0.060181748
0001e0 08 39 48 bd df 5a 82 bd b7 f9 0c 3a 26 3d f3 bc
       -0.048882514 -0.063649885 0.00053777866 -0.029692244
0001f0 3a a3 91 bc 1d 4c 7e bd 29 e9 af 3d 10 a1 be 3d
       -0.017778028 -0.062084306 0.08589394 0.09308064
000200 7b bd 8e bd 9e 77 9f 3d 94 c9 82 bd 17 d7 a1 3d
       -0.06969734 0.07786487 -0.06386104 0.07902353
000210 9e e8 6b 3d 47 41 90 3d 46 31 a7 bc 7d 72 b0 bd
       0.057594888 0.07043701 -0.020409238 -0.08615587
000220 c1 b8 44 3d 6b c9 77 3d 93 99 5c bd 29 ad 82 3c
       0.048027758 0.06049482 -0.053857397 0.01595171
000230 11 35 90 3c c9 6a d4 bd cf 8a ef 3d 59 cc e9 3d
       0.017603429 -0.1037193 0.116963975 0.11415929
000240 0c 89 c3 3d e1 ab bd 3d 8b 11 e4 3d 15 7e c7 3b
       0.09547624 0.09261299 0.111361586 0.006088028
000250 88 9a f2 bd 72 26 3f 3c 78 41 74 3d ec ee 6d 3c
       -0.11845881 0.011666881 0.05963275 0.014522295
000260 fc 0e 62 3d 79 8d 32 bd 26 b5 a6 bd 36 c1 9c bd
       0.05519007 -0.04359195 -0.0814002 -0.076540396
000270 8a 7d 1f 3d 6d 65 47 3c bd 88 92 3d d4 6a 45 3d
       0.038938083 0.012170178 0.07154987 0.048197582
000280 f7 3e 9d bd d4 17 ba bd 92 ee 06 be bb c0 9f 3d
       -0.07678025 -0.09086576 -0.13176945 0.07800432
000290 9a ba b4 bc b4 e3 b1 3d ef c2 02 3e 08 5f 1a 3d
       -0.022061635 0.08686009 0.12769674 0.037688285
0002a0 51 aa 92 bd e8 c6 0b 3d 17 38 ce bc 49 43 bf 3d
       -0.071613915 0.03412524 -0.02517323 0.093390055
0002b0 ca 69 c9 3c b9 4f a3 bd 9d ec d2 bd 09 89 b5 bc
       0.024586577 -0.0797419 -0.10299037 -0.02216007
0002c0 67 23 e3 bd 4f a3 de bd 51 3a b5 bd 8e ba 29 bd
       -0.11090737 -0.108709924 -0.088490136 -0.041437678
0002d0 43 82 08 be 03 1d 83 3c 36 af d2 3d b2 07 d7 3c
       -0.13330941 0.016005045 0.10287325 0.026248787
0002e0 fe 08 67 3d 49 80 23 3d 44 2a 7f 3d b6 66 77 bd
       0.05640506 0.039917264 0.062296167 -0.060400687
0002f0 fe 5e 76 3d c1 e2 ab 3b 23 7e dc 3d 32 88 04 be
       0.060149185 0.005245537 0.10766246 -0.1294258
000300 b4 8f e2 bd ce df a0 bd c0 9c b7 bd c2 9c b8 bd
       -0.110625654 -0.07855187 -0.089654446 -0.09014274
000310 31 4a c1 3d d7 3a b3 bd 5a b8 3d bd 31 c5 94 3d
       0.09437979 -0.08751457 -0.04631839 0.07264174
000320 10 94 83 bd 48 76 c2 ba 9c 73 12 bd 95 c6 77 bd
       -0.06424725 -0.0014836276 -0.035754785 -0.060492117
000330 16 48 bd 3c f6 89 e0 bd 2a f9 2f be 17 1b f6 3c
       0.023105662 -0.10963814 -0.17184892 0.030042214
000340 a1 fa 91 3d fb 57 38 bd fa 4d 63 bc 4a 90 01 be
       0.07127882 -0.04500578 -0.0138735715 -0.12652698
000350 a0 2f 8a bd 0c 63 e2 3d e4 08 b5 3c 4e a2 17 3d
       -0.06747365 0.11054048 0.022098966 0.03702002
000360 eb dd 6f bd 27 0c 5a bc b6 1b b8 bd 78 79 0e be
       -0.058561247 -0.013308561 -0.089896604 -0.13913524
000370 0d 53 8a 3d 37 81 19 3e 9d ad 51 bd e3 dd 93 bd
       0.06754122 0.14990698 -0.05119096 -0.07220056
000380 52 8d fe 3d d0 0d d1 3d 3c 53 96 3c 77 76 ae 3d
       0.124292985 0.10207713 0.018350236 0.08518689
000390 93 88 0c bd 10 44 01 3e ce 08 55 bd f7 5a fc bd
       -0.034309935 0.1262362 -0.05201035 -0.12322038
0003a0 d2 c0 9f 3d 7b 88 13 be 00 48 bb bd d6 28 db bd
       0.078004494 -0.14407532 -0.09144592 -0.10701148
0003b0 21 fc 2c be a1 c7 57 3d 0e ab 75 bc d8 43 9d 3d
       -0.16893055 0.052680615 -0.014994396 0.07678956
0003c0 c6 b2 60 bd 36 a1 14 3e 3f 07 c8 bd 05 79 96 bd
       -0.05485799 0.14514622 -0.09767007 -0.073473014
0003d0 ca c4 8c bd 6e f5 d2 bc f6 71 0b bd f2 c6 a1 bd
       -0.06873472 -0.025751796 -0.03404423 -0.07899274
0003e0 38 af 01 be 64 0e b9 3c f0 40 7b 3d 56 89 be bd
       -0.12664497 0.02258987 0.061341226 -0.093035385
0003f0 fa 31 ef bd f8 23 ff bd ee 25 d1 3d 3e 38 07 3e
       -0.11679454 -0.12458032 0.10212313 0.13205048

lstm.weight_hh_l1 f4 [256, 64]
000000 1d df b8 bd d1 09 76 3d f3 fb 00 3d bb 57 04 3d
       -0.090269305 0.060067955 0.031490277 0.03231023
000010 74 0b 84 3d ce d8 02 be ca bd 7e bd 94 dd b6 3c
       0.06447497 -0.12778017 -0.062192716 0.022322454
000020 b7 cc aa 3d ed 6b 76 3d a9 5a ca bd a3 d8 64 ba
       0.083398275 0.06016152 -0.09880573 -0.0008729791
000030 47 08 61 bd 7e a7 01 bc b7 c4 f9 bd 95 35 eb 3d
       -0.054939535 -0.007913468 -0.121957235 0.11484829
000040 91 e9 05 be c1 17 f1 3c 37 2c 06 3d 0b 8f db bc
       -0.1307738 0.029430272 0.03275701 -0.026801607
000050 2a 1b 11 3d c5 3f 64 3d 62 3c 80 bd 08 82 45 bd
       0.035426296 0.055724878 -0.06261517 -0.04821971
000060 6a ef c2 bd 0a cd 04 be 31 82 ae bd 30 2f d5 3d
       -0.09518321 -0.12968841 -0.08520926 0.10409391
000070 76 84 00 be 4c 92 cd 3d de 65 b2 bd 33 4e 5f bd
       -0.1255053 0.100376695 -0.08710836 -0.054517936
000080 56 96 28 be c9 c5 87 3d b1 78 fc bd 1f ed 12 3e
       -0.16463599 0.066295214 -0.123277076 0.14348267
000090 ef ac 9f bb 4d df 91 3d 6a 0d 85 3c 6b cc a4 3d
       -0.00487291 0.07122669 0.016241748 0.08046802
0000a0 ce cd 0f 3c 24 ba df bc e8 7a 0f bd 50 09 c4 3d
       0.008777095 -0.027310438 -0.035029322 0.09572089
0000b0 f4 77 c9 bd bc d2 f6 3c 92 ae 03 bd 63 41 e1 3d
       -0.09837332 0.030129783 -0.032148905 0.109988
0000c0 35 3c e0 3d 2e 2d 95 bc b8 27 8d bd 50 10 5d bd
       0.109489836 -0.01821002 -0.068923414 -0.053970635
0000d0 99 67 85 bd fc a5 39 3d fd 74 dc 3d 4f 52 f4 bd
       -0.065139 0.04532431 0.10764501 -0.119297616
0000e0 4a 69 0c bd 7c 5e dc bd e0 90 5e 3d d4 00 79 3d
       -0.0342801 -0.10760209 0.054337382 0.060791805
0000f0 4d 26 02 be f7 21 bf 3d ea a0 e5 bd 55 15 b8 bd
       -0.12709923 0.0933265 -0.112123325 -0.08988444
000100 a8 2b bd 3d f7 c0 89 3d da 5a 49 bc e3 5b f0 bd
       0.092368424 0.06726258 -0.012289727 -0.11736276
000110 10 18 f8 3b d1 f6 bd bd ba f5 2d 3d ad 6f fc 3d
       0.007571228 -0.09275592 0.04247067 0.12325988
000120 ea fc ea 3d c4 dd 98 b9 9a 80 ac 3d 57 55 11 3c
       0.11474021 -0.00029156927 0.08422966 0.008870444
000130 6c a5 7c bd 29 3c 6e 3c ef 2e d6 3d da 03 a1 3d
       -0.061681196 0.0145407105 0.104581706 0.07862063
000140 4f 83 d6 3d f1 63 2d bc 0d ba ca 3d a5 fe b0 3d
       0.10474264 -0.01058291 0.098987676 0.086423196
000150 b3 e8 b1 3a 25 57 9b 3d a6 b5 76 3d c4 9d 9f 3c
       0.0013573378 0.07584981 0.060231827 0.019484408
000160 54 b3 8a 3c ef e6 d0 bd a9 b5 bd 3c b7 3b d2 bc
       0.016931213 -0.10200297 0.023157911 -0.02566324
000170 f0 97 03 bd ac ee 20 3d 72 8d c8 3c 7b b0 c2 bc
       -0.03212732 0.039290115 0.024481509 -0.023765793
000180 8c fb 94 bd 73 e8 c3 3d d8 db d5 3c 1f d0 00 bd
       -0.07274541 0.095658205 0.026105806 -0.03144848
000190 b1 5a dd 3d d0 fc b8 bd 79 d3 0b bd 92 33 bb 3d
       0.10808314 -0.09032595 -0.034137223 0.09140696
0001a0 e8 c5 86 bd 83 ee 8d 3c 8e 75 f1 3d ea 18 6a bd
       -0.06580716 0.017325645 0.1179 -0.057152666
0001b0 b8 3a d8 bd f1 44 29 bd c4 e3 d1 3a fa 4f 78 bc
       -0.10558075 -0.041325513 0.0016013314 -0.015155787
0001c0 fe 79 bc 3d 05 f1 f2 bc 7e 99 50 bd a4 1c c2 3d
       0.09202956 -0.029655943 -0.05092763 0.09478119
0001d0 6f 34 21 3c 1b e6 cc bc 10 5d 44 3d 21 80 d6 bd
       0.009839161 -0.025012067 0.047940314 -0.104736574
0001e0 00 fd b7 3d 64 ac 05 bd 2b 1f ae 3d cc 04 6a 3a
       0.08983803 -0.032635108 0.085020386 0.00089271064
0001f0 b6 d5 90 bc 4c 7e 21 3d 34 28 bb bd 57 09 19 bd
       -0.01768003 0.039427087 -0.091385275 -0.037362423
000200 12 ee 84 3d 0f 44 94 3d f3 63 eb bd 15 cf c4 3d
       0.06490721 0.07239544 -0.11493673 0.0960981
000210 81 c7 14 3d 24 bb 7b bd 47 d7 cc bc b0 8f b6 3c
       0.036323074 -0.061457768 -0.025004996 0.022285312
000220 38 56 80 3c 8b 29 9f 3d 6c 38 f7 bc 60 86 5f 3d
       0.015666112 0.077715956 -0.030178271 0.05457151
000230 48 24 fc 3c 9e 34 d2 bd 4a b1 5b bd 56 38 07 3c
       0.030779019 -0.10263942 -0.053635873 0.008253178
000240 53 f6 fd 3d 88 19 ad 3d d7 56 de 3d 01 3d 1b bc
       0.12400498 0.08452135 0.10856407 -0.009474994
000250 4a 5c 29 bd a8 5f 88 bd 36 cb 1a bd 8c 95 e7 bc
       -0.04134778 -0.0665887 -0.037791453 -0.028269552
000260 ff aa 8e bd 50 47 fb bb e6 49 fc bd 04 7b 91 bc
       -0.06966209 -0.007668413 -0.123187825 -0.017758854
000270 2e a4 05 bd 13 a1 11 3b 0e 93 bc bd 80 79 da bd
       -0.032627277 0.0022221252 -0.09207736 -0.106677055
000280 de 92 a4 bd 3b 22 95 3d 18 28 44 3d 5f 65 4c bd
       -0.08035825 0.072819196 0.0478898 -0.049901363
000290 8d 0a c6 bd 4d 8d 54 bd a6 a9 e8 3c d9 72 d2 3d
       -0.09669981 -0.051892567 0.028401207 0.10275812
0002a0 06 b7 23 3c e5 4a ee bd ac db df bd 0c 4a da 3c
       0.009992367 -0.11635379 -0.10930571 0.026646636
0002b0 f8 83 e2 3c bc 83 a0 bd 7d 2b bb 3d 22 6b d9 3c
       0.027650818 -0.07837626 0.09139154 0.026540343
0002c0 1c a7 e1 bd d3 2b 30 3d 12 26 cf bd e7 f2 1d bd
       -0.11018202 0.043010544 -0.10114683 -0.038561728
0002d0 64 d4 d1 bc a7 92 2c 3a f8 c7 b8 3c c8 b6 22 bd
       -0.025613971 0.0006583132 0.02255629 -0.039725095
0002e0 b5 b6 e8 bd 05 40 70 3d 8c 71 1f be ac d2 76 3c
       -0.113629736 0.058654804 -0.15570658 0.0150648765
0002f0 18 c8 c8 3d de d5 99 3c 3c 6e 0c 3d 93 2f b1 3d
       0.0980379 0.018778738 0.034284815 0.08651652
000300 24 05 64 bc a3 ee c2 3d ba cf 23 3e 7c 76 d5 3b
       -0.013917241 0.095181726 0.1599721 0.0065143686
000310 c7 d0 63 3d f9 50 f5 bd e0 57 0f 3e f4 12 cb bd
       0.055619027 -0.11978335 0.13998365 -0.099157244
000320 3a c2 af bd 7a 20 c2 3d c5 d9 10 be 2e 5b 30 bb
       -0.08581968 0.09478851 -0.14145572 -0.0026909816
000330 62 07 0b 3d a7 ea 9b bc 87 7d 59 3c c4 52 fa bc
       0.033942588 -0.01903279 0.013274557 -0.030557044
000340 6a ea 3c 3d bf d9 d1 bd 5b 8a 62 bd f6 b4 7a 3d
       0.046121992 -0.1024661 -0.055307727 0.061207734
000350 6e 1b ae 3d 7b cc b2 bd 79 2a 85 3d 7a 34 bc bd
       0.085013255 -0.08730408 0.06502242 -0.091896966
000360 60 46 b9 3d fd de af 3c 4c 58 fb bc 08 d2 09 bd
       0.09046626 0.021468634 -0.030681752 -0.033647567
000370 fc d0 7e 3d 81 b2 bb bb 33 c4 9a 3d 0f 2b aa 3c
       0.06221102 -0.0057280664 0.07556953 0.020772485
000380 4e 2c e5 3d 4d 4b cd 3c 34 b7 cd bb 78 7e 0c 3e
       0.11190091 0.02506032 -0.006277943 0.13720119
000390 d3 02 e1 bd 16 7e 2a be fc 2c d1 3d a2 65 b9 bd
       -0.10986867 -0.1664966 0.10213658 -0.09052588
0003a0 d8 48 07 3e 9c 6d 8a 3d 9b b7 54 3d d9 4f 08 3e
       0.13211381 0.067591876 0.051932912 0.1331171
0003b0 ce f7 66 3d 1b f1 fc bd 39 56 15 3c 10 70 15 3e
       0.05638867 -0.12350675 0.009114795 0.1459353
0003c0 98 d8 31 3d ce cd 05 3c 45 30 07 bd 94 ce 45 ba
       0.04341945 0.008166743 -0.033005018 -0.0007545736
0003d0 22 a1 fa bd 8e 6b 20 3d e7 0c d0 3b 43 56 51 bd
       -0.12237765 0.039165072 0.0063491943 -0.051107656
0003e0 de 2f d8 bd c7 46 16 bb 44 97 4b 3d f3 6e 76 3b
       -0.10556005 -0.002293037 0.049704805 0.0037602752
0003f0 60 d0 dd 3d 10 2e bd bd c1 cb fc bd 6e e7 f1 3d
       0.1083076 -0.09237301 -0.123435505 0.1181172

lstm.bias_ih_l1 f4 [256]
000000 7f fe eb 3c 3a c6 48 bd f0 2f c8 3c 65 51 48 bc
       0.028807877 -0.04901717 0.02443692 -0.012226437
000010 d3 e4 02 be e7 a3 d1 3d 31 de 43 3d bb d7 b9 3d
       -0.12782602 0.1023634 0.04781932 0.090743504
000020 a9 f4 7f 3b 3a 3e eb 3d 05 8d 21 3d bf 6c a8 bd
       0.003905574 0.11486478 0.039441127 -0.08223867
000030 2d 3b 89 bd 23 17 22 bd f9 cb 24 3c 05 82 70 bd
       -0.0670074 -0.039572846 0.0100583965 -0.058717746
000040 70 73 6d 3c 69 84 6f bb 25 71 2a 3d c2 d5 00 be
       0.0144928545 -0.0036547428 0.04161181 -0.12581542
000050 9a 15 22 bd c5 a4 9e bd b6 f1 9f 3d 23 6a b0 bc
       -0.039571382 -0.07746271 0.078097746 -0.021534985
000060 c7 60 2d bd 9d da bd bc b1 15 06 ba 84 91 75 3d
       -0.042328622 -0.023175532 -0.00051149266 0.059953228
000070 77 42 39 bc ea 26 71 3d dc e5 af 3d 9c f4 31 3c
       -0.01130735 0.058875002 0.08588764 0.010861542
000080 4b 8e bb 3d 4f 87 b0 bd c7 e7 6d 39 5c ae 22 3d
       0.091579996 -0.08619558 0.00022688425 0.039717063
000090 d0 df ef 3d b2 2d a4 3d be d4 9f bd 78 85 e2 3d
       0.11712611 0.08016528 -0.07804249 0.110606134
0000a0 1f bc bd bd 3a 27 4f bd 20 3c 65 3d 5a 95 a5 bc
       -0.09264397 -0.05057452 0.055965543 -0.020212818
0000b0 4a 6c b7 bc 72 c9 5b 3d 8e 77 ab bd 27 27 02 be
       -0.022390503 0.05365891 -0.083724126 -0.12710248
0000c0 6f 8a b0 bb f7 79 ae 3d f5 f4 aa 3c 0f a9 f0 3d
       -0.0053875963 0.08519357 0.020868758 0.11750995
0000d0 20 90 16 3c 6a ec 2d 3d a7 ac e4 bd b1 dd 17 bd
       0.0091896355 0.04246179 -0.11165743 -0.037076656
0000e0 15 24 80 3d 0b 4f 8a 3c 8b b6 fb bc 64 20 03 3b
       0.06256882 0.016883394 -0.030726692 0.002000832
0000f0 8b 10 5a 3d d4 24 d2 3c b2 c0 a1 3d 2e 71 01 3e
       0.053238433 0.025652327 0.07898082 0.12640831
000100 37 2c fe bd ca 4e 26 bd 0f 90 d2 bc 81 b4 ba bd
       -0.12410777 -0.040602483 -0.025703458 -0.0911646
000110 a5 15 06 bd 58 f4 cd bd be 08 0e 3e d2 00 e1 3d
       -0.032735486 -0.100563705 0.13870522 0.109864846
000120 39 17 d2 bd 4b fa 91 3d 0a 16 84 3d e4 3c 05 3d
       -0.102583356 0.07127818 0.06449516 0.032528773
000130 e1 24 ca 3d ec ed bb 3c fd 77 bb bd 8b 0c ee bd
       0.09870315 0.022940598 -0.09153745 -0.11623486
000140 7e 3f a4 3c 50 37 91 3d 38 99 2e bd fd 95 86 3c
       0.020049807 0.07090628 -0.04262659 0.016428942
000150 48 bf 51 bd 05 4c bf 3d 03 4b 06 3c 69 8a 66 bd
       -0.05120781 0.093406714 0.008196595 -0.056284342
000160 11 df 6e 3d 03 33 58 bd 6b fb 0d bd 33 9b 9f bd
       0.0583182 -0.052783024 -0.0346636 -0.07793274
000170 ae 5e 87 bd c3 f8 14 bb 94 cc fe 3b 43 83 a0 bd
       -0.066098556 -0.0022731281 0.0077758525 -0.07837536
000180 37 c5 eb bc 8a ca af bd f3 f7 0a bd 79 96 52 3d
       -0.028780563 -0.08583553 -0.03392787 0.051413033
000190 6f 44 8b bd d6 3b f8 3d 92 69 61 bd 7f 6c 48 3d
       -0.06800162 0.12120788 -0.05503232 0.048931595
0001a0 76 65 48 bd 99 53 8e 3d ef b6 b2 3d a2 52 bc bd
       -0.048924886 0.06949539 0.08726298 -0.091954485
0001b0 38 ca d8 bd 4a 82 94 3d 11 a0 76 bc c1 a4 10 be
       -0.10585445 0.07251413 -0.015052811 -0.14125349
0001c0 ef 04 fe bd b1 35 c9 bd f1 08 b8 bd c7 df 2b bb
       -0.12403285 -0.09824694 -0.089860804 -0.002622591
0001d0 9b b7 a0 bd b8 d2 8e bd 0c c3 9d bd c0 bf a9 3c
       -0.0784752 -0.06973785 -0.07703218 0.020721316
0001e0 8e 20 5b bd 98 e7 d7 3d 31 c6 9a 3d 90 e2 ce 3a
       -0.053497843 0.1054222 0.07557333 0.0015784074
0001f0 e7 90 b9 3d ab 62 6a bd 36 13 da bd 00 77 fe 3d
       0.09060841 -0.057223003 -0.106481954 0.12425041
000200 83 39 bc 3d 32 e6 bc bd 5a 56 b6 bd b3 7d f5 bd
       0.09190657 -0.09223594 -0.08903189 -0.11986866
000210 84 62 a8 3d c5 93 8d bc bd 2f 1f bd aa 2f 14 bd
       0.08221915 -0.017282376 -0.038863886 -0.03617827
000220 af 9b f0 bd f1 c2 7a bc af e3 e2 3d 19 e9 c6 39
       -0.11748444 -0.015305267 0.110785834 0.00037939174
000230 01 03 ec bc 33 0b 91 bd 99 e3 93 3d 22 5e 5c bc
       -0.028810026 -0.07082214 0.07221145 -0.013450177
000240 c9 d6 3a bc 5d 72 0d 3d 39 77 9b bd 2a a4 cc 3d
       -0.011403748 0.034532893 -0.07591099 0.09992249
000250 bd 07 28 3d 62 16 aa bd c5 0a 95 3d df 83 6c 3b
       0.041023005 -0.083050504 0.07277445 0.0036089343
000260 01 f0 1c 3d 91 b3 82 bd cc 0b ca bd 89 a0 4d bd
       0.038314823 -0.06381906 -0.09865531 -0.050201926
000270 29 fb 9b bd 78 26 c2 3d 08 c5 64 bd fb 25 e1 3d
       -0.076162644 0.094799936 -0.055851966 0.10993572
000280 e7 ec 84 bc f0 21 53 bd b4 9e a9 bd 3a 99 c6 bd
       -0.016226245 -0.051546037 -0.08282223 -0.096971944
000290 67 88 3f bd 07 d3 02 3e 85 19 e6 bd da ce 31 3d
       -0.046760943 0.12775813 -0.11235336 0.04341016
0002a0 35 a2 5e bd cb d9 ba bd 09 63 39 3d 2b 64 67 bc
       -0.05435391 -0.09123572 0.045260463 -0.014123003
0002b0 57 cc 01 be ac fb f4 bc c8 72 47 3d ba 17 82 3a
       -0.12675606 -0.029905163 0.04869345 0.0009925284
0002c0 db 11 ab bd b3 3f a2 3d fb 0b aa bd 06 94 66 bd
       -0.08353015 0.07922306 -0.08303066 -0.05629351
0002d0 04 c9 ca 3c 68 f8 d4 3d 35 ee a2 bd 7a c0 a9 bd
       0.024754055 0.10398942 -0.07955591 -0.08288665
0002e0 30 94 4a 3d af b1 22 3d 05 96 c6 bd 09 3e 01 3e
       0.04945773 0.039720234 -0.09696583 0.12621321
0002f0 e4 8b 5f 3d 00 26 2a bd cc 62 26 bd e2 a9 b0 bd
       0.05457677 -0.041540146 -0.040621564 -0.086261526
000300 18 be f3 3d bb 33 29 bd 4e a7 59 3d 0b ec 43 3d
       0.11901492 -0.0413091 0.05313807 0.04783253
000310 ef ff 01 be 31 66 e4 bd 9b 13 90 bd 57 a8 fa bd
       -0.12695287 -0.11152304 -0.070349894 -0.122391395
000320 de 75 eb 3d 7d ec a4 bd 63 c3 ef 3d 57 09 e3 3c
       0.11497091 -0.08052919 0.11707189 0.027714415
000330 5d cb 11 bc c5 04 ce bd 0c 97 53 bd 9d 36 2a 3c
       -0.008898583 -0.100595035 -0.05165772 0.010388997
000340 2d fd d3 bc fe 93 a0 3c ec 53 c5 bd c2 b2 96 bd
       -0.02587756 0.019601818 -0.096351475 -0.07358314
000350 c3 a6 ac 3d df 6a 4a bc 53 8f d3 3d 25 54 fa bd
       0.08430245 -0.012354582 0.10330071 -0.122230805
000360 29 e4 9f bd ef c4 d5 3d cf cf 61 3d a0 ed b7 bd
       -0.0780719 0.10437953 0.055129822 -0.0898087
000370 08 7c ce 3d 3c 99 14 3c bd ec b3 3d 4b f4 6f bd
       0.10082251 0.009069737 0.087853886 -0.058582585
000380 98 9a 17 be d1 c4 85 3d 88 14 7d 3c b3 bd 55 bd
       -0.14805067 0.065316804 0.01544679 -0.052182864
000390 19 0c 82 3d fa d3 82 3d d2 6a a2 3d fc af 08 3d
       0.06349964 0.063880876 0.079305306 0.033370957
0003a0 0a d5 5d bd 88 62 06 be f0 11 e7 3c f8 48 c6 bc
       -0.054158248 -0.13123524 0.028206795 -0.024204716
0003b0 42 22 38 bc 19 15 1f 3d d7 38 ea bb 3b 27 f0 bd
       -0.011238636 0.03883848 -0.007147889 -0.117262326
0003c0 3c 37 fa 3d 1d a2 06 be 5e 1c a9 3d 35 b1 da bd
       0.12217566 -0.13147779 0.08257364 -0.10678331
0003d0 84 88 90 bd a2 8f 77 3d 2c e7 0b bd f3 46 91 bd
       -0.07057288 0.060439713 -0.03415601 -0.070936106
0003e0 c1 d2 f3 3d c7 18 9c bd cb 24 1f be 1e 0f e3 3d
       0.119054325 -0.076219134 -0.15541379 0.11086868
0003f0 7d 07 ca bd b4 10 17 3c ab 4a 54 bd d8 e4 89 3d
       -0.098647095 0.009220291 -0.05182902 0.067331016
