MLops_JAAA/models/lstm_model.pth (torch, 457570 bytes, 9 tensors)

lstm.weight_ih_l0 f4 [256, 247]
0	0xbdd1f1ec	-0.10251221
1	0xbd118f57	-0.03553709
2	0xbaa36909	-0.0012467216
3	0xbdddf2f6	-0.10837357
4	0x3dddeea1	0.108365305
5	0xbd5d567c	-0.054037556
6	0xbd95ffb6	-0.073241636
7	0x3d21f9c5	0.03954484
8	0xbd8a8976	-0.067645
9	0x3d30d662	0.0431732
10	0xbd0f027d	-0.034914482
11	0x3db9c8ce	0.090715036
12	0x3de6838c	0.11255559
13	0x3c1130d0	0.008861735
14	0x3d3c3fd0	0.045959294
15	0xbc5b59b0	-0.013388082
16	0xbbf6d93f	-0.007533222
17	0xbdd34b54	-0.10317102
18	0x3d9aa9d3	0.07551923
19	0xbd9d2044	-0.0767217
20	0xbdeb31e0	-0.11484122
21	0x3db7b733	0.08970489
22	0xbdc315cc	-0.09525642
23	0xbdd2c7c6	-0.1029201
24	0xbdf497a7	-0.11942988
25	0xbd36a9ae	-0.044595413
26	0xbdb60148	-0.08886963
27	0x3d86294d	0.06550846
28	0xbd92fe9f	-0.07177471
29	0x3dde2a61	0.10847927
30	0x3de6ff95	0.11279217
31	0x3d3ca1ec	0.04605286
32	0xbd76268b	-0.06009535
33	0xbda7466e	-0.0816773
34	0xbde51e46	-0.11187415
35	0x3d86f80c	0.0659028
36	0xbd0b214b	-0.033967298
37	0x3d9d1ca6	0.0767148
38	0xbde34f3c	-0.11099097
39	0xbd361f81	-0.04446364
40	0x3d980b17	0.0742399
41	0xbdb1cdaa	-0.086818054
42	0x3d7eda62	0.062219985
43	0xbd7783df	-0.060428496
44	0xbd84e914	-0.064897686
45	0xbdd15bf7	-0.10222619
46	0xbd5721c3	-0.052522432
47	0x3d0e280d	0.034706164
48	0x3dde1f93	0.10845866
49	0x3dac874e	0.08424245
50	0x3c4ea4e1	0.012612552
51	0xbc5ebf1d	-0.01359537
52	0xbdabd4c1	-0.08390189
53	0xbce67150	-0.028130203
54	0x3cdfeef1	0.027335616
55	0x3dbfe6bc	0.09370181
56	0x3d40e189	0.047090087
57	0x3dbc231d	0.09186385
58	0xbdeeb5f6	-0.116558
59	0xbce5f073	-0.028068757
60	0x3d2a109f	0.041519757
61	0xbdd77ccf	-0.10521852
62	0x3ded294c	0.115801424
63	0x3d9b4789	0.075820036
64	0x3da565fd	0.08076093
65	0xbd4c528a	-0.049883403
66	0xbdde8ac6	-0.10866313
67	0xbcfd82cc	-0.030946158
68	0x3d1b0801	0.03784943
69	0x3de273af	0.11057221
70	0xbd8d220b	-0.06891259
71	0x3dc50b64	0.09621313
72	0xbd92a7d2	-0.071609154
73	0xbd27c608	-0.04096034
74	0x3d8e01a4	0.06933907
75	0xbd8769ea	-0.066119984
76	0x3df8f36e	0.121558055
77	0x3c009f49	0.007850477
78	0x3cecf2a1	0.028924288
79	0x3dfbbe7b	0.12292191
80	0xbd567acc	-0.052363202
81	0xbd32f8ab	-0.04369418
82	0xbdfe05b6	-0.12403433
83	0xbc19485d	-0.009355632
84	0xbc566441	-0.013085426
85	0x3dbcc7db	0.09217807
86	0xbd7e4396	-0.062076174
87	0xbd85e485	-0.06537727
88	0xbde1ffd0	-0.110351205
89	0xbdd102ae	-0.10205589
90	0xbbbbb353	-0.005728164
91	0xbdd6f493	-0.104958676
92	0xbdac4f53	-0.084135674
93	0xbd8f9d4d	-0.070124246
94	0x3da54286	0.08069329
95	0x3c8933ea	0.016748387
96	0xbded7fab	-0.11596616
97	0x3dd0d278	0.10196394
98	0xbd296cb2	-0.041363426
99	0xbe0c0c92	-0.1367667
100	0x3cdb68c8	0.026783362
101	0xbccefaea	-0.02526613
102	0x3b58e025	0.0033092585
103	0xbcc7e6b2	-0.024401996
104	0x3cc6e8c3	0.024280911
105	0xbdc2dfc4	-0.09515336
106	0xbdc9e7b1	-0.09858645
107	0x3da325d2	0.07966198
108	0x3e0e03cf	0.1386864
109	0x3d9e86e2	0.077405706
110	0x3d80bdec	0.06286225
111	0x3d9eb53b	0.07749411
112	0x3dce76c3	0.10081246
113	0xbded03c8	-0.11572987
114	0x3be65dd5	0.0070302286
115	0x3dbc6d74	0.09200564
116	0x3dede828	0.11616546
117	0x3c3052a5	0.0107618915
118	0xbd1f99fc	-0.03896521
119	0xbd72035a	-0.059085228
120	0x3c8b7259	0.017022299
121	0xbd57e2b4	-0.052706435
122	0xbc872ac0	-0.016499877
123	0xbdbfc77f	-0.09364223
124	0x3c5d0544	0.013490025
125	0xbde5ac63	-0.11214521
126	0x3d09d44d	0.03364973
127	0x3e01edee	0.12688419
128	0x3d50dc08	0.05099109
129	0x3d87dc19	0.06633777
130	0xbdc5bbe7	-0.0965498
131	0x3db0bce5	0.08629779
132	0xbdc684ae	-0.096932754
133	0xbb377ff5	-0.0027999852
134	0x3b957227	0.004560727
135	0xbcedf7d2	-0.029048834
136	0x3cba3d65	0.022734353
137	0xbd283811	-0.041069094
138	0xbd9d5ce2	-0.076837316
139	0x3e0b83f1	0.1362455
140	0x3ddb34aa	0.10703404
141	0xbdc5b4f1	-0.096536525
142	0x3c719e33	0.01474719
143	0xbdaa3922	-0.083116785
144	0x3c06fa71	0.008238421
145	0x3daf0f57	0.08547848
146	0x3dc54082	0.096314445
147	0x3dd9607f	0.10614108
148	0x3d8c11de	0.068393454
149	0xbd868f90	-0.06570351
150	0xbcc6c56e	-0.024264064
151	0xbd6cfe68	-0.05785981
152	0xbd41da89	-0.047327552
153	0x3cd0061a	0.025393534
154	0x3dce1b37	0.100637846
155	0x3dc50670	0.096203685
156	0xba1dae5e	-0.00060150574
157	0xbda19db4	-0.078914076
158	0xbda9afa8	-0.08285457
159	0x3da36281	0.079777725
160	0x3d4d8c02	0.05018235
161	0x3d3b4481	0.045719627
162	0x3dad22f2	0.08453931
163	0xb7a9099c	-2.0150845e-05
164	0x3a80f9f4	0.0009840117
165	0xbdcc36f2	-0.099714175
166	0x3e099984	0.13437468
167	0x3dc3c375	0.09558765
168	0xbd6f8991	-0.058480803
169	0x3ddd0bf9	0.10793299
170	0x3d9c2bba	0.07625528
171	0x3afbf59b	0.0019222976
172	0x3d6bbf8a	0.057555713
173	0x3dc5e89b	0.096635066
174	0xbdc53b26	-0.09630422
175	0xbd0c2cee	-0.034222536
176	0x3d2335ee	0.039846353
177	0xbdcce742	-0.100050464
178	0xbdaf06fb	-0.08546253
179	0xbd7323bd	-0.059360255
180	0x3d997856	0.074936554
181	0x3daa301e	0.08309959
182	0xbda95f88	-0.08270174
183	0x3d1ab6c2	0.037771948
184	0xbcdbb2ed	-0.026818717
185	0x3d421074	0.047378972
186	0xbd52e93b	-0.051491957
187	0x3d0c91fb	0.034318905
188	0x3d4f79f6	0.05065342
189	0x3da188ab	0.078873955
190	0x3d43e5b3	0.04782648
191	0xbdb74041	-0.08947802
192	0xbdceba78	-0.1009416
193	0xbdda709f	-0.10666012
194	0xbcfa176b	-0.030528745
195	0xbc99ce66	-0.018775176
196	0xbcd50d12	-0.026007209
197	0xbbe7f10f	-0.007078297
198	0x3c2ec726	0.010667598
199	0x3dddec44	0.1083608
200	0x3d8aa87a	0.067704156
201	0xbdd44cab	-0.10366186
202	0xbda11cb3	-0.07866802
203	0x3dba4e84	0.09097007
204	0xbe014cdc	-0.12626976
205	0x3d99c1c3	0.0750766
206	0x3db0d629	0.08634598
207	0x3c86b608	0.016444221
208	0xbdbbac19	-0.091636844
209	0x3de6f06c	0.112763256
210	0xbcfeca37	-0.031102283
211	0xbdadd420	-0.08487725
212	0x3de1e8b5	0.110307135
213	0xbcc19f5c	-0.023635559
214	0xbdbc18ed	-0.09184442
215	0x3e074a71	0.13211991
216	0xbda5e57b	-0.081004106
217	0xbdb8e018	-0.090271175
218	0x3dbb4424	0.09143856
219	0x3ded3538	0.11582416
220	0xbdbd4023	-0.09240749
221	0xbc91fd8e	-0.0178211
222	0x3d80aa5e	0.06282495
223	0x3df40d02	0.119165435
224	0x3d66a106	0.056305908
225	0xbd0327b7	-0.032020297
226	0x3c7e7abd	0.015532193
227	0xbd46ea89	-0.048563514
228	0x3d808f64	0.062773496
229	0x3db73830	0.08946264
230	0x3dc7a123	0.09747531
231	0xbd8cd855	-0.068771996
232	0x3debf407	0.11521154
233	0x3d99dc23	0.07512691
234	0x3d04860b	0.032354396
235	0xbdae9527	-0.08524542
236	0x3dd5eb24	0.1044524
237	0x3d88e294	0.06683841
238	0xbc2f6364	-0.010704849
239	0x3de6bb8c	0.112662405
240	0xbc32ab26	-0.010905063
241	0x3d8dfc49	0.06932885
242	0x3cd8154d	0.026377345
243	0x3dffeded	0.124965526
244	0x3da8d98f	0.08244621
245	0x3ded16b0	0.11576593
246	0xbc160db1	-0.009158538
247	0x3de33096	0.110932514
248	0x3dc328eb	0.09529289
249	0x3dd9356d	0.10605893
250	0x3dd5b3fe	0.104347214
251	0xbc66a998	-0.01407852
252	0x3d0e88d1	0.034798447
253	0xbdacc1bf	-0.08435392
254	0xbd31545a	-0.043293335
255	0x39e58e78	0.0004378443

lstm.weight_hh_l0 f4 [256, 64]
0	0x3dc37fa2	0.095458284
1	0xbd3d00c5	-0.046143312
2	0x3c097666	0.008390045
3	0xbd3c79f7	-0.046014752
4	0x3dda0bb0	0.106467605
5	0x3da401c8	0.08008152
6	0x3db0fb53	0.08641686
7	0xbd5721ee	-0.052522592
8	0xbcf8dd70	-0.030379027
9	0x3db9a658	0.09064931
10	0xbda530d1	-0.080659516
11	0x3cf41b70	0.02979824
12	0x3dca78c8	0.098863184
13	0xbd1627e7	-0.036659148
14	0xbdaf38f0	-0.08555782
15	0x3c51b3fa	0.012799257
16	0x3c409b9f	0.011755853
17	0x3c9cf4f8	0.019159779
18	0x3e0a0605	0.13478859
19	0xbca01386	-0.01954056
20	0xbd939847	-0.07206779
21	0xbd8accce	-0.06777345
22	0x3dcd6c64	0.100304395
23	0x3d189058	0.037247032
24	0x3d3d7102	0.04625035
25	0x3dc6bdad	0.097041465
26	0xbc3e94c1	-0.011632145
27	0x3c2fad0a	0.010722408
28	0xbdd0fe36	-0.10204737
29	0xbc487f30	-0.012237355
30	0x3d44bbfd	0.048030842
31	0xbd29a979	-0.041421387
32	0xbd3a768b	-0.045523208
33	0x3d02e908	0.031960517
34	0xbd02e032	-0.03195209
35	0x3d04ebcb	0.032451432
36	0x3cac43b3	0.021028375
37	0xbd03df17	-0.032195177
38	0x3df1fa14	0.11815277
39	0x3cea8c55	0.028631369
40	0x3c762e6d	0.015025717
41	0x3da02a7e	0.07820605
42	0x3ca23466	0.019800376
43	0x3d9be4c8	0.07611996
44	0xbdf760bd	-0.12078998
45	0xbce09e7f	-0.027419327
46	0xbd5bb218	-0.05363664
47	0x3dd3114a	0.10306032
48	0x3c8e7499	0.017389582
49	0x3d1f15dd	0.03883921
50	0xbdb6e9b3	-0.08931293
51	0xba5782a6	-0.0008221067
52	0x3ce6d55a	0.028177906
53	0xbcd4a50b	-0.025957605
54	0x3d463b3f	0.048396345
55	0xbdf13ded	-0.117793895
56	0xbd4d0dc2	-0.05006195
57	0x3d3c7436	0.046009265
58	0x3d077caf	0.033077892
59	0x3dc39b7e	0.09551142
60	0xbd8b71b8	-0.068087995
61	0x3db550b9	0.08853287
62	0x3da61859	0.08110113
63	0xbdcd7974	-0.10032931
64	0x3d84431a	0.06458111
65	0x3dc169e2	0.09444024
66	0x3d124616	0.03571137
67	0x3ce66ee6	0.028129052
68	0xbdd1d6a5	-0.10246018
69	0xbd1ad1d5	-0.037797768
70	0xbdc84401	-0.09778596
71	0xbbb4c0ca	-0.0055161463
72	0xbe07d1ce	-0.13263628
73	0x3dc5d2b8	0.09659332
74	0x3c48fc8c	0.012267243
75	0x3d87d0aa	0.066315964
76	0x3d1a721b	0.037706476
77	0xbdcd3cec	-0.100213856
78	0xbd22037e	-0.03955411
79	0x3c194d45	0.009356801
80	0xbdffb57c	-0.12485787
81	0x3cf296b7	0.029612882
82	0x3dd70909	0.1049977
83	0x3dba5230	0.09097707
84	0x3d9d439b	0.0767891
85	0xbdaec085	-0.08532814
86	0xbd8359a2	-0.064135805
87	0x3cbbcc5f	0.0229246
88	0xbd2723ff	-0.040805813
89	0x3d911dd9	0.07085771
90	0x3be562ef	0.007000319
91	0xbd49c1fb	-0.04925726
92	0xbd459cc1	-0.048245195
93	0x3d4ba2e5	0.049715895
94	0x3d663a56	0.056207977
95	0xbdf656f9	-0.120283075
96	0xbd9a66b6	-0.07539122
97	0xbdc127b0	-0.09431398
98	0xbdcacc9c	-0.099023074
99	0xbdcde0fc	-0.10052678
100	0x3d15632a	0.036471523
101	0x3d239746	0.039939187
102	0x3c5de2dd	0.013542858
103	0x3e001779	0.12508954
104	0x3d73920f	0.059465464
105	0x3d4abc61	0.04949606
106	0xbe03366c	-0.12813729
107	0x3de25500	0.11051369
108	0x3d54daee	0.0519666
109	0xbc5c0957	-0.013429961
110	0x3ccf0332	0.025270078
111	0x3d6fc59e	0.05853807
112	0xbbda1dfd	-0.006656407
113	0xbdbd0592	-0.09229578
114	0x3deba6cf	0.115064256
115	0x3d9e3f07	0.07726865
116	0x3c6d5ec5	0.014487927
117	0x3b903d0f	0.00440181
118	0x3c933ef2	0.01797435
119	0xbdd238fb	-0.102647744
120	0x3db4c1ef	0.088260524
121	0x3c8e7736	0.017390829
122	0xbd981e07	-0.07427602
123	0xbbf77592	-0.0075518573
124	0xbda2ff58	-0.07958859
125	0x3d01e0e2	0.031708606
126	0x3df4f5ae	0.11960922
127	0xbca7c8a5	-0.020481417
128	0x3bde5be0	0.0067858547
129	0xbd3f7534	-0.046742633
130	0xbd937699	-0.07200355
131	0x3bc20197	0.0059205997
132	0x3d4dbff3	0.050231885
133	0x3bf7d8fd	0.007563709
134	0x3daebd1c	0.085321635
135	0xbd80bc3a	-0.06285901
136	0xbbd27f09	-0.006423835
137	0x3dd35b24	0.10320118
138	0x3b0d88c2	0.0021596407
139	0xbd4814da	-0.04884801
140	0xbd828ec7	-0.06374889
141	0x3d8651b0	0.065585494
142	0x3de3b782	0.11118986
143	0xbe081fdc	-0.13293403
144	0xbe028a61	-0.127481
145	0xbddcc618	-0.10779971
146	0xbcf89236	-0.030343156
147	0x3d8d0bea	0.06887038
148	0x3c5a0234	0.013306189
149	0x3dc3be17	0.09557741
150	0xbd3f8d4a	-0.046765603
151	0x3db32c59	0.08748693
152	0xbd827cd5	-0.06371466
153	0x3b3859cf	0.0028129702
154	0x3d6c46f6	0.05768486
155	0x3dbbaad1	0.0916344
156	0x3d885c69	0.06658251
157	0x3dd80fb7	0.10549872
158	0xbce41f83	-0.027847057
159	0xbbe6d245	-0.007044109
160	0xbcb87610	-0.022517234
161	0xbda5430d	-0.080694295
162	0x3d6942fd	0.05694865
163	0xbddd0acd	-0.10793076
164	0x3de68782	0.11256315
165	0x3ced9f84	0.029006727
166	0xbd7f6db0	-0.062360466
167	0xbdde11da	-0.10843249
168	0x3da4360f	0.08018123
169	0x3dab950a	0.08378036
170	0xbb15cbd4	-0.0022857087
171	0xbd97edcc	-0.07418403
172	0x3d31413a	0.043275096
173	0xbdede789	-0.116164275
174	0xbd999ba8	-0.07500392
175	0x3d7a89bf	0.06116652
176	0x3dd526e7	0.10407811
177	0x3d95e756	0.073195145
178	0x3b02f567	0.0019982697
179	0xbe057cc0	-0.1303587
180	0xbdd1ed3a	-0.102503255
181	0x3dd97220	0.10617471
182	0xbd486654	-0.048925713
183	0xbd8b5e9d	-0.068051554
184	0xbd9b749b	-0.075906
185	0xbdcfa924	-0.10139683
186	0x3da86180	0.08221722
187	0x3d695819	0.056968782
188	0x3da87d44	0.082270175
189	0x3ab6ae7b	0.0013937497
190	0xbd32548c	-0.04353766
191	0xbc5a3f0e	-0.0133206975
192	0x3d25dd00	0.040493965
193	0x3dd1ad86	0.10238175
194	0x3cb48aef	0.022038905
195	0x3d05a7e0	0.0326308
196	0x3d5b93dc	0.053607807
197	0xbbb07ada	-0.005385739
198	0x3c221d0b	0.00989462
199	0xbd2112e4	-0.039324656
200	0xbdcb1a67	-0.09917145
201	0xbb9b0684	-0.0047310013
202	0x3d16925f	0.036760684
203	0x3df5374b	0.11973437
204	0xbdece8cb	-0.11567839
205	0x3a8598b7	0.0010192607
206	0xbdf4b13b	-0.119478665
207	0xbe12aa42	-0.1432276
208	0x3dccbce5	0.09996966
209	0x3ccd02c4	0.025025733
210	0x3dd32008	0.10308844
211	0x3da49a7d	0.08037279
212	0xbd71efa6	-0.059066437
213	0xbdafd739	-0.08585972
214	0x3c272364	0.010201309
215	0xbd3cfd40	-0.046139956
216	0xbde18aa0	-0.11012769
217	0x3da1d4a1	0.07901884
218	0x3dfea9ee	0.12434755
219	0xbd3b8443	-0.04578043
220	0x3db791ff	0.089633934
221	0xbdeb833c	-0.1149964
222	0xbdfaf493	-0.1225368
223	0xbdb87eb6	-0.09008543
224	0xbc57d3a1	-0.013173015
225	0x3d2316a6	0.03981652
226	0xbdabc838	-0.08387798
227	0xbce8a623	-0.028399533
228	0x3dc16d6b	0.09444698
229	0xbddfa28e	-0.10919677
230	0xbc49fdec	-0.012328606
231	0x3d296ffa	0.041366555
232	0xbd82abfa	-0.06380458
233	0x3d8446ca	0.064588144
234	0x3d7fb1be	0.062425368
235	0x3dc618fc	0.09672734
236	0x3c86fb19	0.016477155
237	0xbddda800	-0.10823059
238	0x3e08355f	0.1330161
239	0xbbe2c1a8	-0.0069200583
240	0xbb01013d	-0.0019684576
241	0x3bb8bfd3	0.0056381016
242	0xbd972c2f	-0.07381474
243	0xbd5aac5e	-0.05338704
244	0xbcefa204	-0.02925206
245	0x3d6e5200	0.05818367
246	0x3dc8f49b	0.0981228
247	0x3dfc3dc4	0.12316468
248	0xbd903523	-0.07041385
249	0x3cdf0165	0.027222345
250	0xbcc2084d	-0.023685599
251	0xbdebd500	-0.11515236
252	0x3bd05d44	0.0063587744
253	0x3e07ad22	0.13249639
254	0xbdaec5d7	-0.08533829
255	0xbd887d0d	-0.066644765

lstm.bias_ih_l0 f4 [256]
0	0xbc1e6266	-0.009667015
1	0xbcaac0f7	-0.020843966
2	0xbdcf9536	-0.101358816
3	0x3e0a20d1	0.13489081
4	0xbdcb29d1	-0.09920085
5	0xbde0176b	-0.109419666
6	0x3dad7567	0.08469658
7	0x3d12f239	0.035875533
8	0xbdab0199	-0.08349914
9	0x3dc40d01	0.09572793
10	0xbd6e66e6	-0.0582036
11	0xbd5afbc3	-0.053462755
12	0x3c4c2d5d	0.012461987
13	0xbde6731a	-0.11252423
14	0x3d55ee97	0.05222949
15	0x3c95fd15	0.018309155
16	0xbc1738de	-0.009229867
17	0x3d87a59e	0.06623386
18	0xbe0f8665	-0.14016111
19	0xbd879c50	-0.06621611
20	0xbd08a4e7	-0.033360388
21	0xbd8ded9c	-0.06930086
22	0x3d8c1d4e	0.06841527
23	0x3c7681ae	0.0150455665
24	0x3c3040bf	0.010757624
25	0xbc2cbf0b	-0.010543595
26	0xbde1a529	-0.1101783
27	0xbdcf8778	-0.101332605
28	0xbe109fac	-0.1412341
29	0x3db5f655	0.08884875
30	0x3d96b6d8	0.073590934
31	0xbd7cb5c5	-0.061696786
32	0xbc07431b	-0.008255745
33	0x3deaa162	0.114565626
34	0xbd0f8e48	-0.0350478
35	0xbcaed363	-0.021341031
36	0x3d90ecac	0.070763916
37	0xbccecb05	-0.025243292
38	0xbd7ad6bb	-0.06123994
39	0x3d929d56	0.07158916
40	0x3d23fd16	0.040036283
41	0xbd8671db	-0.06564685
42	0xbdc925c5	-0.09821657
43	0x3d04784f	0.032341298
44	0x3ca6f2a7	0.020379378
45	0x3def1652	0.11674179
46	0x3d185ac5	0.03719594
47	0xbc8f33fa	-0.017480839
48	0xbe07a14c	-0.13245124
49	0x3dcd96fc	0.100385636
50	0x3dee14c5	0.11625055
51	0xbcf6dca0	-0.0301345
52	0xbdcf8063	-0.1013191
53	0xbc22df30	-0.009940907
54	0xbdd767cd	-0.10517845
55	0xbd18a43e	-0.03726601
56	0xbc3c75c3	-0.011502686
57	0xbd233d15	-0.039853174
58	0xbde31f3c	-0.11089942
59	0x3bef2bfa	0.0072989436
60	0xbdc354ca	-0.095376566
61	0x3db70288	0.0893603
62	0x3d8b291a	0.06794949
63	0xbddb7493	-0.10715594
64	0x3d3cb64d	0.046072293
65	0x3b27b324	0.0025588954
66	0x3d3b764f	0.045767125
67	0x3c77848d	0.015107286
68	0x3d8ad12a	0.06778176
69	0x3dc3bcff	0.095575325
70	0x3d86072d	0.065443374
71	0xbd9ede58	-0.077572525
72	0x3b24627a	0.002508311
73	0x3dae7892	0.08519091
74	0xbdf61e72	-0.12017526
75	0x3d6905c6	0.05689027
76	0x3d663ec2	0.056212194
77	0x3d51a1db	0.051179748
78	0xbd3aba24	-0.045587674
79	0x3d7cf816	0.06176003
80	0x3dc4c2b3	0.096074484
81	0x3d3cd252	0.046099015
82	0xbcef75f1	-0.029231044
83	0xbdd29d9c	-0.10283968
84	0x3c305a75	0.010763754
85	0x3da7eb2b	0.081991516
86	0x3da51456	0.080605194
87	0xbd8598fa	-0.065233186
88	0xbd2f7d2c	-0.042843983
89	0x3e0bfc13	0.13670377
90	0x3bcd5db5	0.0062672743
91	0xbd8ba5bf	-0.06818723
92	0xbd8aa816	-0.06770341
93	0x3d4a6c5c	0.049419746
94	0xbdd4841a	-0.10376759
95	0x3dbfa83a	0.093582585
96	0xbd7ce0d8	-0.061737865
97	0xbdc7e44e	-0.097603425
98	0x3de3d989	0.11125476
99	0x3dd5734e	0.10422383
100	0x3ca6565e	0.020304855
101	0xbd9d4aec	-0.07680306
102	0x3e0781e0	0.13233137
103	0x3dfc5cb1	0.12322367
104	0x3d06d2c0	0.03291583
105	0x3bb5e797	0.0055512893
106	0x3daae82c	0.083450645
107	0x3df3d4e2	0.119058385
108	0x3daea8c5	0.08528284
109	0x3d289f24	0.041167393
110	0x3dde5d77	0.10857671
111	0x3d68989b	0.05678616
112	0xbcad82eb	-0.02118059
113	0xbdbdade3	-0.09261682
114	0xbbd5a2b0	-0.006519638
115	0xbd26c380	-0.040713787
116	0x3d0306b2	0.031988807
117	0x3c6c1c68	0.014411069
118	0xbdb063b9	-0.086127706
119	0x3ca45220	0.020058692
120	0xbdc645d9	-0.09681291
121	0x3d6c9cb7	0.057766642
122	0xbcafefe5	-0.021476695
123	0xbda179e5	-0.07884578
124	0x3da12fa4	0.07870415
125	0xbc950c7d	-0.018194431
126	0xbc16684f	-0.009180143
127	0xbe0fbafa	-0.1403617
128	0x3de763a6	0.11298303
129	0xbc38d06f	-0.011280163
130	0xbb54dcd1	-0.003248025
131	0x3df326ae	0.11872612
132	0x3dcb80fc	0.09936711
133	0xbd12f6ae	-0.035879783
134	0x3cd2324f	0.025658755
135	0xbd547381	-0.051867966
136	0x3d6a7512	0.057240553
137	0xbdd57040	-0.104218006
138	0x3d5e8ef8	0.054335564
139	0x3dcbaa7c	0.09944627
140	0x3dd679e0	0.104724646
141	0xbd05afbe	-0.032638304
142	0x3da9d125	0.08291844
143	0x3d465ec2	0.04843021
144	0x3d31dc23	0.04342283
145	0xbd55b324	-0.052172795
146	0xbde7b2c2	-0.11313392
147	0x3d95e44f	0.07318937
148	0x3d6d3c11	0.057918612
149	0x3dad4ae5	0.084615506
150	0x3d837e93	0.064206265
151	0xbd413867	-0.04717293
152	0x3d231893	0.039818358
153	0x3cb05016	0.021522563
154	0x3d4555d4	0.048177555
155	0xbdd98ee4	-0.10622957
156	0xbd3eac46	-0.04655101
157	0xbdc87c40	-0.09789324
158	0x3d8ae82a	0.06782563
159	0x3dc4c438	0.09607738
160	0xba1212e4	-0.0005572273
161	0xbd783327	-0.060595658
162	0x3d9588ca	0.07301481
163	0xbc1ef0af	-0.009700938
164	0x3cefdc64	0.029279895
165	0xbd4cf406	-0.050037406
166	0x3c0569e4	0.008142922
167	0xbd5007c6	-0.050788663
168	0xbdabeb7a	-0.08394523
169	0x3d75ad45	0.059979696
170	0xbdc69d3a	-0.09697957
171	0x3c359c21	0.011084587
172	0x3d16e451	0.036838833
173	0xbd9de5ee	-0.07709871
174	0x3cd6927b	0.026192894
175	0xbcaf5b1d	-0.02140575
176	0x3c521a5a	0.0128236655
177	0x3dcb6d86	0.09932999
178	0x3d50237e	0.050815098
179	0x3d40cec6	0.047072195
180	0xbdbc9554	-0.092081696
181	0x3d321bde	0.043483607
182	0xbcb73a31	-0.022366615
183	0x3d675a18	0.056482404
184	0x3dd4ea95	0.103963055
185	0xbd89a565	-0.06721
186	0x3d26fd08	0.040768653
187	0xbde74958	-0.11293286
188	0xba422825	-0.00074064947
189	0x3debb4ab	0.11509069
190	0x3c7d4bf3	0.015460002
191	0xbc790bd8	-0.015200578
192	0x3c21ab6d	0.009867531
193	0xb8d1493d	-9.979538e-05
194	0xbd9f4c31	-0.07778204
195	0xbd109d08	-0.035306007
196	0x3d8f25ca	0.069896296
197	0x3cdaa136	0.0266882
198	0xbca2c106	-0.019867431
199	0xbdc3a28d	-0.095524885
200	0xbd54df30	-0.05197066
201	0x3e08dadc	0.13364738
202	0x3da6ae3c	0.08138701
203	0x3da13923	0.07872226
204	0x3d8f758c	0.07004842
205	0xbda3cd44	-0.07998136
206	0xbd7eea99	-0.06223545
207	0x3d96ecf2	0.073694125
208	0x3dca1dc6	0.0986896
209	0x3d181e01	0.03713799
210	0x3dc8540f	0.09781658
211	0x3c98a2bb	0.018632283
212	0x3d090552	0.03345234
213	0xbce247a0	-0.027622044
214	0x3d767736	0.060172282
215	0xbe002ace	-0.12516329
216	0x3c257646	0.010098999
217	0xbd66a69c	-0.056311235
218	0xbdac3c8c	-0.08409986
219	0x3d91b62d	0.071148254
220	0x3d5a3ca6	0.053280495
221	0x3de6cae0	0.11269164
222	0xbd065cb7	-0.032803264
223	0x3d88f558	0.066874206
224	0x3db898d8	0.09013528
225	0xbdb997a8	-0.09062129
226	0xbdd7f3c6	-0.10544543
227	0xbd4aeb40	-0.049540758
228	0xbe05f89e	-0.13083121
229	0xbc2c648e	-0.010522021
230	0x3de3e0b6	0.111268446
231	0xbdcd50eb	-0.100251995
232	0xbbb0153f	-0.0053736265
233	0xbdfd97bf	-0.12382459
234	0x3d98175a	0.07426329
235	0xbcdbd1a2	-0.02683336
236	0x3dcf4e46	0.10122351
237	0x3d8329c4	0.064044505
238	0x3df40bf9	0.11916346
239	0x3ddcbf00	0.10778618
240	0x3dab1d03	0.08355143
241	0xbe031fdf	-0.12805127
242	0x3df557a6	0.11979608
243	0xbd3c416b	-0.045960825
244	0xbdd994ee	-0.10624109
245	0x3dd86943	0.10566952
246	0xbe096ff5	-0.13421614
247	0x3d82c405	0.06385044
248	0x3dc90e8e	0.09817229
249	0x3d51be98	0.051207155
250	0x3d2202b0	0.039553344
251	0x3d822233	0.06354179
252	0x3cd93dab	0.026518663
253	0x3d40ab5e	0.04703843
254	0xbdb9bfa7	-0.09069758
255	0xbe09ee1a	-0.13469735

lstm.bias_hh_l0 f4 [256]
0	0x3d1f7572	0.038930364
1	0x3dbdff9c	0.09277269
2	0xbd8a01c7	-0.0673862
3	0x3d168e40	0.036756754
4	0xbd93c1ed	-0.07214723
5	0xbb57c835	-0.003292573
6	0x3db9c058	0.0906989
7	0xbce57fc2	-0.028015021
8	0x3d3361e3	0.043794524
9	0xbd5f32ce	-0.05449181
10	0x3d89952c	0.067179054
11	0x3dbcc7fc	0.092178315
12	0x3dc6fb07	0.097158484
13	0x3ce02e0a	0.027365703
14	0x3d134e5c	0.0359634
15	0x3c95dfd0	0.018295199
16	0xbd9a1c22	-0.07524897
17	0x3d836f09	0.06417663
18	0x3c2c7036	0.0105248
19	0x3ce6fbaa	0.028196175
20	0xbce0437e	-0.027375933
21	0x3d6c0d53	0.057629894
22	0xbe015d01	-0.12633134
23	0xbd504c9b	-0.050854307
24	0xbae122d5	-0.0017176518
25	0x3e073a08	0.13205731
26	0xbdbfb273	-0.09360208
27	0x3caca47a	0.021074522
28	0x3dc7d507	0.097574286
29	0xbd7be4b1	-0.061497394
30	0x3dd95bd6	0.106132194
31	0xbd06eb53	-0.032939266
32	0x3cb80628	0.022463873
33	0x3ddb4554	0.10706583
34	0xbddff62f	-0.10935628
35	0x3ca399bf	0.019970773
36	0xbcae490a	-0.021275062
37	0x3ddefbfc	0.10887906
38	0xbd85b74d	-0.065291025
39	0x3dac1f50	0.0840441
40	0x3d2bf1df	0.041978713
41	0x3bb200a0	0.0054322034
42	0x3d8d7016	0.06906144
43	0x3dda5d68	0.10662347
44	0xbbbdd201	-0.0057928567
45	0x3d94e3a0	0.072699785
46	0xbd375a2f	-0.04476374
47	0x3c948e5f	0.018134294
48	0x3b5656a6	0.0032705455
49	0xbd8bb392	-0.0682136
50	0xbd71c45d	-0.059025157
51	0x3c30a7e0	0.010782212
52	0x3b076cb4	0.0020664157
53	0xbde9da36	-0.114185736
54	0x3dd904c2	0.105966106
55	0xbd523646	-0.05132129
56	0xbc280372	-0.010254728
57	0xbcc6885c	-0.024234943
58	0x3d8a8c33	0.06765022
59	0xbd76101d	-0.06007396
60	0xbddf8cba	-0.10915513
61	0xbd714094	-0.058899477
62	0x3d6a7a70	0.05724567
63	0x3d15015a	0.036378242
64	0x3d86fdb2	0.06591357
65	0x3db9f135	0.0907921
66	0xbd19c2ef	-0.03753942
67	0xbd81693f	-0.06318902
68	0xbd9190bf	-0.07107686
69	0xbcf891fa	-0.030343045
70	0x3d82bc8d	0.063836195
71	0x3dd1df40	0.1024766
72	0x3dcf3a12	0.10118498
73	0x3e10eeca	0.14153591
74	0x3a0be896	0.0005337087
75	0x3da94b16	0.08266275
76	0xbda765b0	-0.08173692
77	0x3de421f7	0.11139291
78	0xbe024dd5	-0.12725003
79	0x3c033ad4	0.008009631
80	0xbe03a7ae	-0.12856933
81	0xbc3c937b	-0.011509771
82	0xbd9e563a	-0.0773129
83	0xbd9d0910	-0.07667744
84	0x3de07434	0.10959664
85	0x3d733c19	0.059383485
86	0x3cd85bdf	0.026410995
87	0xbd8d3db4	-0.068965346
88	0xbd45be1e	-0.048277013
89	0xbdb624e0	-0.08893752
90	0x3d9da9e0	0.07698417
91	0x3e0ded67	0.13860093
92	0x3c06b197	0.008221052
93	0x3ca69f17	0.020339532
94	0x3d9843d6	0.07434814
95	0xbddb1de6	-0.10699062
96	0x3d73c59d	0.05951463
97	0xbdc9d5ed	-0.09855256
98	0x3d91575e	0.07096742
99	0xbd6a478d	-0.057197142
100	0xbe039225	-0.12848718
101	0x3de90e89	0.113797255
102	0xbd0b052c	-0.03394048
103	0xbda638a3	-0.08116271
104	0xbd447034	-0.047958568
105	0x3de03d92	0.109492436
106	0x3d7417b7	0.05959293
107	0xbd5da073	-0.054108094
108	0xbd162aba	-0.03666184
109	0x3d3cd648	0.046102792
110	0x3db79876	0.089646265
111	0xbdbfac72	-0.09359063
112	0xbdf6662b	-0.12031206
113	0x3c730330	0.014832303
114	0x3dc9e93a	0.098589376
115	0xbdabea40	-0.08394289
116	0xbdbd47c8	-0.09242207
117	0xbcffdb2f	-0.031232445
118	0x3c7f73f5	0.015591611
119	0x3d662791	0.056190077
120	0xbdaae2e9	-0.08344061
121	0xbd925ee2	-0.07147004
122	0xbd8dc206	-0.06921773
123	0xbd5e4301	-0.05426312
124	0xbdf41b3a	-0.119192556
125	0x3dc42e94	0.095791966
126	0xbd8d3207	-0.068943076
127	0x3db71602	0.089397445
128	0xbde68bb9	-0.11257119
129	0xbdc9a544	-0.09845975
130	0x3cbe35f7	0.023219092
131	0xbdf22be1	-0.118247755
132	0xbda9369e	-0.082623705
133	0x3db879e6	0.09007625
134	0x3e0150b4	0.12628442
135	0xbdc7f81c	-0.0976412
136	0xbddf1879	-0.1089334
137	0xbdae2b39	-0.08504338
138	0x3dda5a6c	0.10661778
139	0x3df88a18	0.12135714
140	0x3d953da5	0.072871484
141	0x3ce2f3d9	0.027704166
142	0x3d8d041a	0.06885548
143	0x3b7493d7	0.0037319565
144	0x3dd0e69e	0.10200237
145	0xbd2f33f8	-0.04277417
146	0xbd6258cf	-0.055260476
147	0xbd551d06	-0.052029632
148	0x3d401e1f	0.046903726
149	0xbdc417d4	-0.09574857
150	0x3e01f0f2	0.1268957
151	0x3b3d8131	0.0028916115
152	0xbc32b9f3	-0.010908592
153	0x3dba850c	0.09107408
154	0x3d0e212f	0.034699615
155	0xbd7ebe73	-0.062193345
156	0x3d9a5500	0.07535744
157	0xbd9a758f	-0.07541954
158	0x3d8858c5	0.066575564
159	0xbdbfe730	-0.093702674
160	0x3ca71f1c	0.020400576
161	0x3a017ad6	0.00049392635
162	0xbd9cf184	-0.07663253
163	0x3d7b7c3b	0.061397772
164	0x3cf6dba5	0.030134032
165	0xbd9b02ae	-0.075688705
166	0x3d93b9a5	0.07213143
167	0x3dda7df7	0.10668557
168	0x3d336a71	0.043802682
169	0x3d96b1c9	0.073581286
170	0xbda32a40	-0.07967043
171	0x3dd4b720	0.10386491
172	0x3d8e4e8e	0.06948577
173	0xbd4f1f79	-0.050567124
174	0x3dbd1ba6	0.09233789
175	0x3dd5e709	0.10444457
176	0xbc9463c1	-0.018113973
177	0xbd813ec7	-0.06310802
178	0xbd8feb9a	-0.07027359
179	0xbd92ab7f	-0.071616165
180	0x3d993514	0.07480827
181	0x3d55b87b	0.052177887
182	0xbcc01b84	-0.02345062
183	0xbcb99e4b	-0.022658488
184	0x3c34cee0	0.011035651
185	0xbd26b871	-0.04070324
186	0x3dcd81b8	0.100345075
187	0x3d8982e0	0.067144156
188	0xbdf9edde	-0.12203573
189	0xbdd89bc7	-0.10576587
190	0xbd6f252f	-0.05838507
191	0x3c317df8	0.010833256
192	0xbd5a5d10	-0.053311408
193	0x3d0659ce	0.03280049
194	0x3d5f9674	0.054586843
195	0xbde00dad	-0.109401084
196	0x3cde74a9	0.027155237
197	0xbe03ee6c	-0.1288392
198	0xbbab0b9d	-0.0052198903
199	0xbd7b9824	-0.06142439
200	0x3ca5c449	0.020235198
201	0xbb6a8da4	-0.003578999
202	0x3c21dc6f	0.009879216
203	0xbdbfe5f5	-0.09370033
204	0x3c674fd1	0.014118151
205	0xbd2788a3	-0.04090179
206	0xbcbae924	-0.022816248
207	0x3d6e615b	0.058198314
208	0x3db48d40	0.08816004
209	0x3dad0661	0.08448482
210	0x3bf1e099	0.0073815105
211	0x3dc22a44	0.09480718
212	0x3dfa13a9	0.12210781
213	0x3d3d6050	0.04623443
214	0x3dcbf87c	0.09959504
215	0xbdfe98e3	-0.124315046
216	0xbde4929b	-0.11160775
217	0xbdc3a4a2	-0.095528856
218	0x3db42add	0.08797238
219	0x3b3f8d8f	0.0029228663
220	0x3d8f3a1f	0.069935076
221	0xbd41fc29	-0.04735962
222	0x3af2238a	0.0018473726
223	0x3db05a66	0.08610992
224	0xbb9f2af3	-0.004857415
225	0x3dca310a	0.09872635
226	0xbd878822	-0.06617762
227	0xbdad151b	-0.08451291
228	0xbcb83d46	-0.022490155
229	0x3cfbacf4	0.030722119
230	0x3d5f0856	0.05445131
231	0x3dc204cd	0.09473572
232	0xbd82d6d7	-0.06388634
233	0x3da4ec32	0.08052863
234	0xbd857993	-0.06517329
235	0x3d37dad5	0.04488643
236	0x3d4eb847	0.05046871
237	0x3dff3edb	0.124631606
238	0x3cd63720	0.026149333
239	0x3da9f066	0.082978055
240	0xbd961ae9	-0.073293515
241	0x3cc35a54	0.023846783
242	0x3dd7278c	0.1050559
243	0xbdba322f	-0.09091603
244	0xbd041d35	-0.032254416
245	0xbd5259c4	-0.05135514
246	0xbd5297c5	-0.05141427
247	0x3d45458e	0.048162036
248	0xbd642e73	-0.05570836
249	0xbdb6f8ae	-0.08934151
250	0xbd405602	-0.046957023
251	0x3db27662	0.08713986
252	0xbdf50f56	-0.11965816
253	0xbdbb08a3	-0.09132507
254	0xbe07bec9	-0.13256373
255	0x3dd8193e	0.105516896

lstm.weight_ih_l1 f4 [256, 64]
0	0x3ccef447	0.025262965
1	0x3dd4d11c	0.10391447
2	0x3d526968	0.051370054
3	0xbdf85e97	-0.121274166
4	0x3d7989a1	0.06092227
5	0x3db45132	0.08804549
6	0xbddcab47	-0.10774856
7	0xbca6572e	-0.020305242
8	0x3ca8489c	0.020542435
9	0x3ceca1e8	0.028885797
10	0x3d3d2e21	0.04618657
11	0x3e02cd33	0.1277359
12	0xbcf27c02	-0.029600147
13	0xbd909eb7	-0.070615225
14	0xbde13e9a	-0.109982684
15	0x3d96ad8e	0.07357322
16	0xbd2c4135	-0.042054374
17	0x3d1538f3	0.036431264
18	0x3dbc6966	0.09199791
19	0x3dbbb234	0.09164849
20	0xbd66e566	-0.056371115
21	0xbdac77de	-0.084213
22	0xbd29a849	-0.041420255
23	0xbd668591	-0.056279723
24	0x3d9e95b9	0.07743401
25	0xbc5202e7	-0.012818075
26	0xbddeec20	-0.10884881
27	0x3b6bd8d0	0.0035987385
28	0x3cadc844	0.021213658
29	0x3cd88535	0.026430706
30	0xbcc09d87	-0.023512615
31	0x3cca2050	0.02467361
32	0xbdfdf4dc	-0.12400219
33	0xbdc2beb5	-0.09509031
34	0xbd8eb520	-0.069681406
35	0xbd1bf188	-0.03807214
36	0xbc9c5d40	-0.019087434
37	0xbc34fbeb	-0.01104639
38	0xbdbb6f98	-0.09152144
39	0x3c80483b	0.015659442
40	0xbd4ac0cd	-0.049500275
41	0xbcc58b82	-0.024114374
42	0x3db0bae6	0.08629398
43	0xbdf85600	-0.12125778
44	0xbdea9ad4	-0.11455312
45	0xbd0b4a1b	-0.03400622
46	0xbd39458b	-0.045232337
47	0x3c59d735	0.013295938
48	0x3d415227	0.047197487
49	0x3d75b359	0.059985492
50	0x3d5eb479	0.05437133
51	0x3e199126	0.14996776
52	0x3dc39ae3	0.09551027
53	0x3dd3950e	0.10331164
54	0xbddcd91c	-0.10783598
55	0x3dc3c359	0.09558744
56	0xbda5c22c	-0.08093676
57	0xbcf4ca94	-0.029881753
58	0xbdeaa8dd	-0.11457989
59	0xbd92e765	-0.07173041
60	0x3db5a0cb	0.088685594
61	0xbd449906	-0.047997497
62	0x3cec1464	0.028818317
63	0xbddadc48	-0.106865466
64	0x3c8039bd	0.015652532
65	0xbd293353	-0.041308712
66	0xbdbd0674	-0.092297465
67	0x3dbfb541	0.09360743
68	0xbc2496e1	-0.010045738
69	0x3d3dcd34	0.046338275
70	0x3d490557	0.049077358
71	0xbe052560	-0.13002539
72	0xbd45bad8	-0.04827389
73	0x3d15ada0	0.036542535
74	0x3cb62b19	0.022237347
75	0x3e10b0d1	0.1412995
76	0xb8eabbcd	-0.0001119297
77	0x3d21d29f	0.039507505
78	0x3cd03cda	0.025419641
79	0x3db56f9a	0.08859177
80	0xbdbcd2de	-0.09219907
81	0xbd0ca769	-0.034339342
82	0x3d5bc0dd	0.053650726
83	0xbd4cf87e	-0.050041668
84	0x3d80c0a0	0.0628674
85	0x3db1e247	0.08685737
86	0xbb98c3cf	-0.004662014
87	0x3d61f3e0	0.055164218
88	0x3be5fcc0	0.0070186555
89	0xbd971dfe	-0.073787674
90	0x3dbdd7d9	0.09269685
91	0x3e14ba83	0.14524274
92	0x3db1ab45	0.08675245
93	0x3d3e3a39	0.046442244
94	0x3dcbb377	0.099463396
95	0x3da1585a	0.0787818
96	0x3d99155d	0.07474778
97	0xbcf2e653	-0.029650843
98	0xbd66fe58	-0.056394905
99	0x3df4623a	0.11932798
100	0x3d0c65f9	0.034276936
101	0xbd530819	-0.051521394
102	0x3db05e05	0.08611683
103	0x3d6e5d24	0.058194295
104	0x3cf77d08	0.030210987
105	0xbe0bbd44	-0.13646418
106	0xbe0147ff	-0.1262512
107	0xbe080a60	-0.13285208
108	0x3d967cbd	0.07348011
109	0xbd5e7915	-0.05431469
110	0xbd989c36	-0.0745167
111	0xbcf99467	-0.030466272
112	0x3da62bea	0.08113845
113	0x3e02d2a2	0.12775663
114	0xbd419670	-0.04726261
115	0xbb8b0e8e	-0.0042436784
116	0x3da54ebd	0.08071659
117	0x3deec4ab	0.11658605
118	0x3d6372e8	0.055529505
119	0xbd925b4f	-0.07146322
120	0xbd83b630	-0.06431234
121	0x3d69c694	0.057074144
122	0x3db1a8e8	0.086747944
123	0x3d8c3f0e	0.06847964
124	0x3c8a494e	0.016880658
125	0xbdff125b	-0.12454673
126	0xbca7cd7b	-0.020483723
127	0xbca687f3	-0.020328498
128	0x3d695168	0.0569624
129	0xbdf5f024	-0.12008694
130	0x3ddd0c49	0.10793359
131	0xbca726dd	-0.020404274
132	0xbdd91ef4	-0.10601607
133	0xbd915514	-0.070963055
134	0xbd72d36d	-0.059283663
135	0x3d079381	0.033099655
136	0x3d11db35	0.035609443
137	0x3d84fcfe	0.06493567
138	0x3e031472	0.12800768
139	0x3c5db8d3	0.013532835
140	0xbd6d994a	-0.058007516
141	0x3dcc1f31	0.09966887
142	0x3c9a2346	0.018815648
143	0x3d9da00e	0.07696544
144	0x3cfa0e77	0.030524475
145	0xbddf8894	-0.10914722
146	0x3deee6b8	0.116651
147	0xbc1505e6	-0.009095645
148	0x3dc32bb5	0.09529821
149	0xbc3a0643	-0.011354032
150	0x3c8891cf	0.01667109
151	0xbd606958	-0.054787964
152	0x3d80cafd	0.06288717
153	0x3dcb929d	0.09940074
154	0x3d30d3b7	0.043170657
155	0x3dcbdc82	0.09954168
156	0x3d4305e0	0.047613025
157	0xbdb6cf8d	-0.08926306
158	0xbb429f67	-0.0029697062
159	0xbddc1c57	-0.10747593
160	0x3d830b29	0.06398613
161	0xbd52ff6b	-0.051513117
162	0xbdee2385	-0.116278686
163	0xbdd68e19	-0.10476322
164	0x3c87c34b	0.016572615
165	0x3da3c474	0.07996455
166	0xbd13acbf	-0.036053415
167	0x3d57945f	0.052631732
168	0xbd070223	-0.032961022
169	0xbda644f0	-0.081186175
170	0xbc225e7a	-0.00991022
171	0x3c763f2c	0.01502971
172	0x3dfbb940	0.12291193
173	0x3dab46bb	0.083631
174	0xbddec952	-0.108782426
175	0x3c8db327	0.01729734
176	0x3de1623e	0.11005066
177	0x3d008d69	0.03138486
178	0x3c8ff286	0.017571699
179	0x3c8a40fe	0.016876694
180	0xbc9f196b	-0.0194213
181	0x3daae9e0	0.08345389
182	0x3b3e2baa	0.0029017725
183	0x3cb9d097	0.022682471
184	0x3d37fddd	0.044919837
185	0xbd5fff0a	-0.054686584
186	0x3deaf8c4	0.114732295
187	0xbddfed60	-0.109339476
188	0xbdad0b76	-0.084494516
189	0x3dcec55f	0.10096239
190	0xbd293e70	-0.04131931
191	0x3dc86be4	0.097862035
192	0x3df2b76a	0.1185139
193	0x3cd90155	0.026489893
194	0x3cf6e7b6	0.030139785
195	0x3ced8a2e	0.028996553
196	0xbdcaee40	-0.09908724
197	0xbbd94ec2	-0.006631703
198	0x3dfebfc0	0.12438917
199	0x3ddbb961	0.107287176
200	0x3d285be0	0.041103244
201	0x3ca57790	0.020198613
202	0x3db92473	0.09040155
203	0xbb4131b9	-0.00294791
204	0x3c8dd4e8	0.017313436
205	0xbcb1b46e	-0.02169248
206	0x3d617844	0.055046335
207	0x3cd82a29	0.026387291
208	0xbd20eecc	-0.039290234
209	0xbcfa7fd4	-0.030578531
210	0x3d4a180d	0.049339343
211	0xbbdc0986	-0.0067150025
212	0x3d4caf83	0.04997207
213	0xbdd3742d	-0.10324893
214	0x3da51c9c	0.080620974
215	0xbd9f2ad8	-0.07771844
216	0xbd631321	-0.055438165
217	0x3d4a7353	0.049426388
218	0xb9759d2e	-0.00023423575
219	0xbdb11fa2	-0.086486116
220	0x3d55e713	0.052222323
221	0x3c44072a	0.011964599
222	0xbd0afae0	-0.03393066
223	0xbdebace1	-0.115075834
224	0xbced5069	-0.028969007
225	0x3c699249	0.0142560685
226	0x3cb6a535	0.022295574
227	0x3bbbb9fa	0.0057289572
228	0x3de6e27f	0.112736695
229	0x3dd9d6df	0.106366865
230	0x3cfa643b	0.030565372
231	0x3e03d88b	0.12875573
232	0xbd9a5d94	-0.0753738
233	0xbc93ef67	-0.018058492
234	0xbd82327c	-0.063572854
235	0xbdbaf4c9	-0.0912872
236	0x3d320e15	0.04347046
237	0xbca39568	-0.019968703
238	0x3dc5702d	0.096405365
239	0x3d43cace	0.04780083
240	0xbcb25650	-0.021769673
241	0xbcd7ebfc	-0.026357643
242	0x3d7c39e8	0.06157866
243	0xbd1c6c23	-0.038189065
244	0xbd8a342a	-0.06748231
245	0xbd75047b	-0.059818726
246	0xbe00384f	-0.1252148
247	0x3decb59d	0.115580775
248	0x3cdb6df5	0.02678583
249	0xbc3326b6	-0.010934522
250	0x3d31e4bf	0.04343104
251	0x3d2d16e4	0.04225816
252	0x3d9bcb2f	0.076071136
253	0xbdc5c097	-0.09655874
254	0xbc147e63	-0.009063336
255	0x3df4be4e	0.1195036

lstm.weight_hh_l1 f4 [256, 64]
0	0x3ceb26e0	0.02870506
1	0x3c23a571	0.009988175
2	0x3a10e8c8	0.0005527851
3	0x3b8fb32c	0.0043853726
4	0x3ca3f93b	0.020016303
5	0xbab13722	-0.0013520459
6	0xbd95bcdf	-0.07311415
7	0x3dc710de	0.09720014
8	0xbca8d723	-0.020610398
9	0xbd9f255d	-0.07770798
10	0x3de2dbfa	0.110771134
11	0xbd389807	-0.04506686
12	0xbdbcdadb	-0.09221431
13	0xbdcbb31f	-0.09946274
14	0xbd40db20	-0.047083974
15	0x3c93b305	0.0180297
16	0xbdb8ff2d	-0.09033046
17	0x3dde56f5	0.108564295
18	0x3ddb9daf	0.10723435
19	0x3c9b032f	0.018922416
20	0x3d5f353e	0.054494135
21	0x3df247ab	0.11830076
22	0x3d9b45d2	0.075816765
23	0xbd9dd5ce	-0.07706796
24	0xbc82c055	-0.015960852
25	0x3ddd1253	0.10794511
26	0xbdba3918	-0.09092921
27	0x3dd866d9	0.10566492
28	0xbb29e4ab	-0.002592365
29	0xbce3c4f4	-0.027803876
30	0xbe029699	-0.12752761
31	0x3d02bafa	0.031916596
32	0x3de18da2	0.110133424
33	0x3daee9ab	0.085406624
34	0xbc64798b	-0.013944994
35	0x3de7ac8d	0.11312208
36	0xbb85b30a	-0.004080181
37	0x3d4812d0	0.048846066
38	0xbd99360b	-0.07481011
39	0x3d3b756e	0.045766287
40	0xbdd10d1f	-0.10207581
41	0xbd4595d0	-0.048238575
42	0xbdaae770	-0.083449244
43	0x3cef86be	0.029239055
44	0xbdc533d9	-0.0962903
45	0xbded65a2	-0.115916505
46	0xbdb4beb6	-0.08825438
47	0x3da0e2e5	0.07855777
48	0x3d36c530	0.044621646
49	0xbc8f6ecf	-0.017508892
50	0xbcda5e93	-0.026656425
51	0x3dc32717	0.0952894
52	0xbd2848e5	-0.041085143
53	0xbd88cc54	-0.066795975
54	0xbd9818ff	-0.074266426
55	0xbdbb675c	-0.091505736
56	0xbd21725a	-0.039415695
57	0x3e0e20cc	0.13879699
58	0xbe0f7377	-0.1400889
59	0xbdd54688	-0.104138434
60	0xbdd28ee6	-0.10281162
61	0x3decb3a0	0.11557698
62	0x3de8d780	0.11369228
63	0x3d94d315	0.07266823
64	0x3e04ae11	0.12957026
65	0xbdc7efec	-0.09762558
66	0x3de7fbbc	0.113273114
67	0x3d698530	0.057011783
68	0xbdbbfaaf	-0.091786735
69	0xbdb1bff9	-0.08679194
70	0xbd30be80	-0.043150425
71	0x3dd13cd3	0.102166794
72	0xbb7cc200	-0.0038567781
73	0xbd94796c	-0.07249722
74	0xbd75e00b	-0.060028117
75	0xbda51ba5	-0.080619134
76	0x3c97d8d2	0.018536005
77	0xbdf2db96	-0.11858289
78	0x3c03b9b0	0.008039877
79	0x3d3158a4	0.043297425
80	0x3dab149e	0.08353542
81	0x3cf408a1	0.02978927
82	0x3dbf63a2	0.09345175
83	0x3d3e7f5b	0.046508174
84	0xbd2833e9	-0.04106513
85	0x3d9f2487	0.07770639
86	0x3daf9cfa	0.08574863
87	0x3c2f12cc	0.010685634
88	0xbcdc3c3e	-0.026884194
89	0x3d6ddbe9	0.05807105
90	0x3dce4f1b	0.10073682
91	0xbdae9114	-0.08523765
92	0x3d194374	0.037417844
93	0x3cec0fa7	0.028816057
94	0x3d2fbf5e	0.04290711
95	0x3e0056d6	0.12533125
96	0xbda04f86	-0.07827668
97	0x3d707fe2	0.05871571
98	0xbda545ba	-0.0806994
99	0x3d40ed8b	0.04710154
100	0x3ca927a1	0.02064878
101	0x3d9ea549	0.077463694
102	0xbd936661	-0.071972616
103	0x3d1e3836	0.038627826
104	0x3acaa2f5	0.0015459942
105	0x3dde2375	0.10846607
106	0xbdcd306b	-0.100190006
107	0xbdfd5116	-0.123689815
108	0xbddc9e9b	-0.10772439
109	0x3c183164	0.009289119
110	0x3d182979	0.037148926
111	0x3d2d5979	0.042321656
112	0x3e06bc20	0.13157701
113	0x3da1a8cf	0.07893526
114	0x3d697809	0.05699924
115	0x3b0f4147	0.0021858977
116	0xbdfeb988	-0.12437731
117	0x3cc32071	0.02381918
118	0x3ca9113f	0.020638106
119	0x3d53f7cc	0.05174999
120	0xbd94a31f	-0.072576754
121	0xbc9db070	-0.019249171
122	0x3d8a6fa5	0.06759576
123	0x3e0435c5	0.12911136
124	0x3dc6e240	0.097111225
125	0x3dc89575	0.09794132
126	0x3d7c8fdd	0.061660636
127	0xbcfaafa3	-0.030601328
128	0xbd253900	-0.040337563
129	0x3d968e86	0.07351403
130	0x3dc9a76e	0.09846388
131	0x3d63e0e0	0.05563438
132	0xbc75c76e	-0.015001161
133	0xbcfc4c0d	-0.030797983
134	0xbc4b4740	-0.012407124
135	0x3cdc55e8	0.026896432
136	0xbd34aba9	-0.04410902
137	0x3dc3b35b	0.09555694
138	0xbdad1bef	-0.084525935
139	0x3d1b8b4d	0.037974644
140	0xbd56465d	-0.052313197
141	0xbc48c99e	-0.0122551005
142	0xbdaed108	-0.08535963
143	0x3da90b71	0.082541354
144	0xbd629a48	-0.055322915
145	0x3c2db7a2	0.0106028635
146	0xbc8cc02a	-0.017181475
147	0xbd0539ce	-0.03252583
148	0x3d64db23	0.055873048
149	0xbd7da393	-0.061923575
150	0xbd8e3934	-0.069445044
151	0xbda0a472	-0.078438655
152	0xbd142258	-0.036165565
153	0x3dc32915	0.0952932
154	0x3dafd03c	0.085846394
155	0xbda0efcc	-0.078582376
156	0xbc04b405	-0.008099561
157	0xbdde7f25	-0.10864095
158	0xbd60afad	-0.054855037
159	0x3dd60f5c	0.10452148
160	0xbdc5226c	-0.09625706
161	0x3c8bd4ad	0.017069185
162	0x3d3d653a	0.046239115
163	0xbda1a4d1	-0.07892764
164	0xbdc534bc	-0.09629199
165	0xbdb355db	-0.0875661
166	0xbd976de3	-0.07394006
167	0x3de871c6	0.113498256
168	0xbcfd0c49	-0.030889647
169	0xbd66b17a	-0.0563216
170	0xbdec3243	-0.11533024
171	0x3d8a83b5	0.067634024
172	0xbdeb5dcc	-0.114925
173	0xbde3d46b	-0.111245
174	0x3c9c34cd	0.019068146
175	0x3aac9153	0.0013165869
176	0xbd95dca3	-0.07317474
177	0xbd20e5ab	-0.03928153
178	0x3d2f5270	0.042803228
179	0x3ced5b97	0.028974338
180	0xbc580687	-0.01318515
181	0xbcf46b30	-0.029836267
182	0x3d969800	0.073532104
183	0xbd7aa5f8	-0.061193436
184	0xbd7e8296	-0.062136255
185	0x3cd3e941	0.02586806
186	0xbd12a66a	-0.035803236
187	0xbd8cb29c	-0.068700045
188	0xbba8cc74	-0.005151326
189	0xbdc5df59	-0.09661741
190	0xbd9e8286	-0.07739739
191	0xbb8d6ce8	-0.004315961
192	0x3cfa86b8	0.030581817
193	0xbce76a58	-0.02824895
194	0xbe00c3f0	-0.12574744
195	0x3be0f8db	0.0068656034
196	0x3da961ae	0.08270584
197	0xbd640c6c	-0.05567591
198	0xbdf082de	-0.11743711
199	0x3db1d368	0.08682901
200	0xbd910c4a	-0.07082422
201	0x3c8cd3d7	0.017190857
202	0xbcdb210a	-0.026749153
203	0x3c5069dc	0.012720551
204	0x3d177894	0.036980227
205	0x3d218f1c	0.03944312
206	0x3d8bab59	0.06819791
207	0xbd1501db	-0.036378723
208	0xbc853c51	-0.016264113
209	0xbdad9ece	-0.08477555
210	0x3dbc4359	0.09192533
211	0x3dae4741	0.08509684
212	0x3c8809ea	0.01660629
213	0xbd173d16	-0.03692349
214	0xbde91c7c	-0.11382386
215	0x3dc78663	0.09742429
216	0xbdc600de	-0.09668134
217	0xbdf8cda6	-0.12148599
218	0xbd0dd10c	-0.03462319
219	0xbcf023da	-0.02931397
220	0xbdd76beb	-0.105186306
221	0x3ba72c31	0.0051017036
222	0xbbf86407	-0.0075802836
223	0xbca8fbd6	-0.020627897
224	0xbd17ca52	-0.037058182
225	0xbc5f18e8	-0.013616778
226	0x3d5289e6	0.05140104
227	0xbdaba7ac	-0.0838159
228	0xbce84001	-0.028350832
229	0xbdc4e73f	-0.09614419
230	0xbd4a97a6	-0.04946103
231	0xbd30a3e3	-0.043125045
232	0x3d8d74da	0.06907053
233	0xbd6994bb	-0.057026606
234	0x3d917ac0	0.07103491
235	0xbcba8197	-0.022766871
236	0xbbeb1e28	-0.0071752258
237	0x3d79c0de	0.060974948
238	0xbd92a277	-0.07159894
239	0x3d53e9e9	0.051736746
240	0xbde5c2c3	-0.112187885
241	0xbda05102	-0.07827951
242	0x3dca6d24	0.09884098
243	0xbd25740a	-0.040393867
244	0x3da7cffe	0.08193968
245	0x3dbdf52c	0.092752784
246	0x3d91dff6	0.07122795
247	0xbd9b41cd	-0.0758091
248	0xbe03c7e5	-0.12869222
249	0xbd879bd8	-0.06621522
250	0x3cde3c81	0.02712846
251	0xbb8e98ba	-0.0043517025
252	0xbd2fbe1b	-0.042905908
253	0x3cabe03d	0.020980949
254	0xbd512a2d	-0.051065613
255	0x3d0c29be	0.034219496

lstm.bias_ih_l1 f4 [256]
0	0xbdbbcad7	-0.09169548
1	0xbd829849	-0.06376702
2	0xbd65c7e7	-0.056098845
3	0xbd1623b0	-0.036655128
4	0x3def357a	0.11680122
5	0xbb982db0	-0.0046441182
6	0x3d534390	0.051578104
7	0x3cbd8075	0.023132542
8	0x3df327b8	0.1187281
9	0x3d8487f3	0.06471243
10	0xbdfcb1df	-0.12338614
11	0xbe212c51	-0.15739562
12	0xbd096850	-0.033546746
13	0x3d9e76d1	0.07737506
14	0xbdefa5df	-0.11701559
15	0xbcd9f85b	-0.026607683
16	0x3de29adf	0.110646956
17	0xbdcd6369	-0.100287266
18	0xbdada965	-0.08479575
19	0xbd220c97	-0.039562788
20	0xbc72ee4a	-0.01482732
21	0xbdcf36e8	-0.101178944
22	0x3d176578	0.036962003
23	0xbd226fa7	-0.03965726
24	0xbcb7d66e	-0.022441115
25	0xbc72b079	-0.014812582
26	0x3d5e7fa6	0.054320954
27	0xbc9dd6bd	-0.019267434
28	0x3de2d77b	0.11076256
29	0xbd9c8485	-0.076424636
30	0xbdc11a27	-0.09428816
31	0x3daeaa98	0.08528632
32	0x3dc73083	0.0972605
33	0x3b027790	0.001990769
34	0xbdd96c64	-0.10616377
35	0x3de353df	0.110999815
36	0xbdfaa6d1	-0.12238849
37	0x3dad97f4	0.084762484
38	0x3dd47ef8	0.1037578
39	0xbdd158d6	-0.10222022
40	0x3dc93c92	0.09826006
41	0x3b345c87	0.002752097
42	0xbd8ca4ac	-0.06867346
43	0x3d9e5dc3	0.077327274
44	0xbda6b127	-0.08139258
45	0x3cac23fb	0.02101325
46	0xba1b0868	-0.00059140334
47	0x3c92e911	0.0179334
48	0x3cf15461	0.02945918
49	0xbd7bf7fd	-0.061515797
50	0x3dbae574	0.09125796
51	0xbdb692c6	-0.089147136
52	0x3d8b107c	0.067902535
53	0x3d959200	0.07303238
54	0xbcef858b	-0.029238483
55	0xbdeaa3f3	-0.11457052
56	0x3c0f8d50	0.008761719
57	0xbd831145	-0.06399778
58	0x3dbe443b	0.09290358
59	0xbdc3e81a	-0.09565754
60	0x3c35c810	0.011095062
61	0xbe007f8f	-0.1254866
62	0x3d6d73c1	0.05797172
63	0xbd895441	-0.06705523
64	0x3d2e3cd4	0.04253848
65	0xbde42f25	-0.111418046
66	0x3dc90f48	0.09817368
67	0xbda98378	-0.08277029
68	0xbddce106	-0.10785107
69	0x3d76befa	0.060240723
70	0xbc86d0fb	-0.016457072
71	0xbdc47f9b	-0.09594651
72	0x3d8ebd40	0.0696969
73	0xbd794b29	-0.060862694
74	0x3da35836	0.07975809
75	0x3d5af9d0	0.053460896
76	0xbdd94008	-0.10607916
77	0xbe0f32ea	-0.13984266
78	0x3d36ed47	0.04465988
79	0x3d8169d7	0.063190155
80	0xbd6c628d	-0.057711173
81	0xbafdc5c2	-0.0019361305
82	0xbe154ea8	-0.14580786
83	0xbdd455d9	-0.10367937
84	0x3d0f26ac	0.03494899
85	0x3d89bd0a	0.067255095
86	0xbdc8bf00	-0.09802055
87	0x3d374658	0.04474482
88	0x3c8d1510	0.017221957
89	0xbd62e7d7	-0.05539688
90	0xbd20f62b	-0.039297264
91	0x3cc69b31	0.024243923
92	0xbd09b5c3	-0.033620607
93	0x3c41cbbe	0.011828361
94	0x3da6f92c	0.081529945
95	0x3c1853d9	0.009297335
96	0xbd87a214	-0.06622711
97	0x3d5fef05	0.054671306
98	0x3d89b036	0.06723063
99	0x3d369ff2	0.04458613
100	0x3dbb3b75	0.091422
101	0x3dbe4d58	0.09292096
102	0xbdf27be5	-0.11840037
103	0xbdd94177	-0.106081896
104	0xbdd050bd	-0.101716496
105	0xbde11702	-0.109907165
106	0xbc8f0afb	-0.01746129
107	0x3d0f8fbc	0.035049185
108	0x3db802e8	0.08984929
109	0x3da2e6cb	0.079541765
110	0x3dd75798	0.10514754
111	0xbd915372	-0.07095994
112	0x3dd579fa	0.10423656
113	0xbcd4ed80	-0.025992155
114	0xbc37e726	-0.011224544
115	0x3d9238a8	0.071397126
116	0x3c86423a	0.016389001
117	0xbd4e3393	-0.050342154
118	0xbd357a74	-0.044306234
119	0x3d214e0e	0.03938108
120	0xbd9a58e5	-0.075364865
121	0x3c71b7ca	0.014753291
122	0x3c49bf4b	0.012313674
123	0x3e04cb4d	0.12968178
124	0xbd9ee759	-0.0775897
125	0x3d616abe	0.055033438
126	0xbab4f4f2	-0.001380591
127	0x3dd5f4d5	0.10447089
128	0x3de28f67	0.11062508
129	0xbd83e20e	-0.06439601
130	0xbd8443d5	-0.064582504
131	0xbda01624	-0.07816723
132	0x3d817ebc	0.06323001
133	0xbd0503bd	-0.03247427
134	0x3df94296	0.121709034
135	0xbce776e4	-0.028254934
136	0xbd84431a	-0.06458111
137	0x3db23542	0.08701564
138	0xbd8bae31	-0.06820334
139	0x3daffdf1	0.08593357
140	0xbdee13e6	-0.11624889
141	0xbdfcdeb7	-0.12347167
142	0x3dab7b93	0.08373179
143	0xbd8048d7	-0.06263893
144	0x3cdf4f77	0.027259571
145	0xbda393bf	-0.07987165
146	0x3d2ea35a	0.042636253
147	0xbcd99bce	-0.026563551
148	0x3d9e6e63	0.07735898
149	0xbd9e75d5	-0.077373184
150	0x3dba151e	0.09086059
151	0x3e00358c	0.12520427
152	0x3d99f5d0	0.07517588
153	0x3a1acacf	0.00059048546
154	0xbd195a9e	-0.037439935
155	0x3d22e201	0.039766315
156	0xbdbcb3e9	-0.09214003
157	0xbb2d3d0c	-0.0026434092
158	0xb95e60dc	-0.00021207653
159	0xbdfdd301	-0.123937614
160	0xbce32b52	-0.027730618
161	0xbe016050	-0.12634397
162	0x3d5daf51	0.054122273
163	0x3cef87c4	0.029239543
164	0x3d8e8f53	0.06960931
165	0x3ddd3ef8	0.10803026
166	0xbd906c6e	-0.07051931
167	0x3dcafeea	0.09911902
168	0xbd00f1f1	-0.031480733
169	0xbca13b47	-0.019681586
170	0xbdb8726f	-0.090062015
171	0xbd92cb40	-0.07167673
172	0x3d833921	0.06407381
173	0xbcb4dc34	-0.022077657
174	0xbdfff74d	-0.12498341
175	0xbdf84407	-0.1212235
176	0xbde1ea84	-0.110310584
177	0xbdb87926	-0.09007482
178	0x3d1159a0	0.035485864
179	0xbca499f9	-0.020092951
180	0x3db2a50d	0.08722887
181	0x3d7fb1af	0.06242531
182	0xbdb692b5	-0.08914701
183	0x3bbe41ae	0.0058061695
184	0x3c4a355e	0.012341825
185	0xbdb16ac0	-0.08662939
186	0x3d88026e	0.066410884
187	0xbd88829c	-0.06665537
188	0xbc06424f	-0.00819452
189	0x3d9fcc2a	0.07802613
190	0xbdba5347	-0.09097915
191	0x3ce642f4	0.028108098
192	0xbe0c00b1	-0.13672139
193	0x3db2e528	0.08735114
194	0xbd9e162f	-0.07719075
195	0x3d816753	0.06318536
196	0xbc30562e	-0.010762734
197	0xbc3f9325	-0.011692797
198	0x3d21dfc1	0.03952003
199	0x3d9b4a89	0.07582576
200	0xbc87147f	-0.016489265
201	0x3dd328dc	0.10310528
202	0x3ded0a34	0.11574212
203	0xbdaa3f0e	-0.08312808
204	0x3dd44a9c	0.10365793
205	0xbce1cb1a	-0.027562667
206	0xbc7786d6	-0.015107831
207	0xbd8d8d72	-0.06911744
208	0x3d3065e3	0.043065917
209	0xbe1506f0	-0.14553428
210	0xbda013ae	-0.078162536
211	0xbd9ef9b6	-0.07762472
212	0xbd764e70	-0.060133398
213	0xbdead892	-0.11467089
214	0x3b6e9724	0.0036406005
215	0xbd690836	-0.056892596
216	0xbc21cb98	-0.009875201
217	0x3cd381e2	0.025818769
218	0x3de1951d	0.11014769
219	0xbd00590a	-0.031334914
220	0x3df5a03f	0.11993455
221	0x3dcd7b34	0.10033265
222	0xbd0c4886	-0.03424885
223	0x3d4e5665	0.05037536
224	0xbdedd2af	-0.1161245
225	0x3cc16a80	0.023610353
226	0xba993973	-0.0011690095
227	0xbd507e68	-0.0509018
228	0x3d9f8427	0.07788878
229	0xbd824698	-0.06361121
230	0xbcac45de	-0.021029409
231	0xbd4b1d61	-0.049588565
232	0x3d7ed650	0.062216103
233	0x3c81eeab	0.015860876
234	0x3c8c7860	0.017147243
235	0xbd65032f	-0.05591124
236	0xbdd2a4c0	-0.1028533
237	0x3d9af4ed	0.07566247
238	0xbd9f79b9	-0.07786889
239	0x3dc1967e	0.09452532
240	0x3dac3d3b	0.08410116
241	0xbe0f19be	-0.13974664
242	0xbd65cd06	-0.05610373
243	0xbdee7254	-0.116429
244	0x3d010b73	0.03150506
245	0x3da45780	0.08024502
246	0xbd8e5f00	-0.069517136
247	0x3bc25ec5	0.0059317076
248	0xbe0a71dc	-0.13519996
249	0x3dd26ea0	0.10275006
250	0x3dd85f37	0.10565036
251	0x3da63509	0.081155844
252	0x3de3426e	0.11096655
253	0x3deeecd9	0.11666269
254	0x3c92f662	0.01793975
255	0xbdd65866	-0.104660794
