MLops_JAAA/models/lstm_model.pth (torch, 457570 bytes, 9 tensors)

lstm.weight_ih_l0 f4 [256, 247]
00000000: e923 33bd 965a febc 1534 6b3d 279d 5aba
00000010: a8a4 ad3d fc48 65bb 3ce0 c4bd 2e6a ab3c
00000020: 02ca a53d 6bd9 53bd 5337 e3bd bba0 13bd
00000030: 63b0 d43d e20c b23d 3146 56bc 9444 0cbd
00000040: f07c c8bd 3e3a b7bd c7b5 143d 124d 24bd
00000050: 6d74 e2bd c886 87bd ecf7 b8bd 01e5 e33c
00000060: c2d0 b33d 6c9d 003e acd4 e5bd 5f77 dbbd
00000070: f720 e4bd 6d00 d83b de4f cabd ad71 c4bd
00000080: 201d e43d 1525 a33d 8c62 25bc 0ca4 cfbd
00000090: 10f6 f43d 3f1a c03d 22c1 563d 4ecc 433d
000000a0: 7faf d1bd 2859 8cbd 40eb 8cbd 47c2 c1bd
000000b0: a705 273b 5c06 033e d8d5 eabd 2c4f 89bd
000000c0: 1c13 97bc 3142 39bc 92e8 58bd 804b 5f3d
000000d0: fcf6 913d e49e dfbd 7e03 bcbc cc5d ab3c
000000e0: 44c0 d7bd f47a ca3d daa6 a23d 0cf4 bdbd
000000f0: 6aca 9e3d 99e5 eb3d 1790 083e 4826 8f3d
00000100: 9048 38bd 07c0 8cbd 248a d63d be25 94bd
00000110: 23db 07bb 7b65 803d bc52 fdbc ff06 89bd
00000120: c95e 74bc 24ca c43d 1b5f 6dbd 088e e3bd
00000130: 9beb bebc 430e 313d 5fb3 303d b74c a7bd
00000140: 820e 4c3d f454 87bd 41dd 1b3d 7fae 063d
00000150: 57a1 063e ddd7 38bd 2c98 cc3c c481 823d
00000160: 846f debd ef38 b03d d071 b5bd 93d7 8a3d
00000170: 6b1d cd3d c961 b4bc ec62 9ebd 9708 ca3d
00000180: 7ff4 9f3d 3d9a 683d 1cdf eb3d 7141 b43c
00000190: 6ef8 0c3c 33b4 483d 8fb6 fabc 746a 563d
000001a0: 5426 85bd 90dc 9c3d e800 e23d e430 0d3e
000001b0: 9672 f43d 8eff 923c 28f0 393d 168e 823d
000001c0: 2ae5 153b bbb2 f23c f8eb 7dbd 4083 d0bd
000001d0: 0ea4 703c 3c1c b93d 0a8f 10bd 868e 023d
000001e0: 1021 95bc 820e 893b b351 bb3d 6cde b7bd
000001f0: 8f3b 633c 806a 143c a434 f9bc 2fb6 923d
00000200: 460a f53c 7a11 d0bd 677d 11bd 6c31 ddbd
00000210: ca79 4bbd f731 563d 3f88 fb38 5aae a83d
00000220: dc04 5dbd fd16 b63d 88fa afbd 01f0 0e3c
00000230: 56bb 68bd bbd7 953d f3ae 4d3c f269 573d
00000240: 5d40 d5bd 680d e3bb 9e64 6fbc a720 d83d
00000250: 8d80 183d 582f d3bc 9958 02bc 6b01 35bd
00000260: 30ad e53c 8fd0 b9bd 151b ccbd 181d babd
00000270: 677e da3d 5a58 423d 0696 f23b 0550 463d
00000280: f5e5 76bd a2c1 6fbc 4654 173e 8e23 01bd
00000290: 2ba2 93bd 1f72 883d b702 2cbd 732e e53d
000002a0: 8556 6ebd 065b 8a3b b3c8 e33d 0005 ba3d
000002b0: dcf2 7dbc 105e 993d e282 023d 9878 dfbd
000002c0: c5bf 3fbc 2a19 b43d f3b7 81bd 447b 993d
000002d0: 05c3 433d 4e50 f73d 2e1a 66bd 99ad 28bd
000002e0: 7f31 ecbd 0e5e 3c3d 1fc5 683b d075 743d
000002f0: b119 c7bd f3d9 803d 9b95 b33d 5648 f23b
00000300: 3069 c6bd 9a7a b4bd 00e5 e2bb baf2 3fbd
00000310: bcd6 8ebc 3752 833d e116 d1bd ae94 89bd
00000320: 2d8f 943d b6b4 bfbd 6aa8 7639 cf56 7fbd
00000330: c979 b9bd ef5d 233d c0ec 62bc 0a2a f23d
00000340: 9515 49bd 8c2d 07bd 8133 c53c b2d7 c4bd
00000350: 5f99 033d 1451 9b3d 5d92 603d c340 113e
00000360: c172 a7bd 98e1 afbd 80f4 093e dc17 94bd
00000370: 212c 073e a394 ccba 1198 9b3d 667e 7e3d
00000380: 25f5 0e3e 909c 1e3b b58d 6a3b 5305 183e
00000390: 9869 0d3e 053e 84bd 8b0e 9e3d d117 27ba
000003a0: d9af 1cbd a994 b8bb 6022 893d 486d 993d
000003b0: 1e34 603d fe39 53bd 9619 c43d f1fd 50bd
000003c0: 9cb5 56bd b1c4 b2bd cf4c ca3c 5e3c 3e3d
000003d0: d39a 1abc 16c6 e33c ea88 46bd e71a 03be
000003e0: e47a 18bc f86d 01be 3fc6 ec3d fe2d 4b3b
000003f0: c844 87bc 8e3a 833d 671b 823d dbc3 c0bc
-0.04373542 -0.031049054 0.057422716 -0.00083394576 0.08478671 -0.003498613 -0.09613082 0.020924654
0.080951706 -0.051721018 -0.11094537 -0.036041956 0.103852056 0.086938635 -0.013078258 -0.03424509
-0.09789455 -0.08946656 0.03630617 -0.040112562 -0.11057363 -0.06617504 -0.09031662 0.027819159
0.08780052 0.12560052 -0.112222046 -0.107161276 -0.111391 0.0065918476 -0.09878515 -0.095919944
0.11138368 0.07966057 -0.010094296 -0.10138711 0.11960995 0.09380006 0.05243028 0.047802262
-0.10238551 -0.06852943 -0.06880808 -0.094608836 0.0025485547 0.12795395 -0.11466569 -0.06704554
-0.01844173 -0.011307285 -0.05295617 0.05451536 0.07127187 -0.10918978 -0.022950884 0.02091875
-0.10534719 0.09886733 0.07941981 -0.09275064 0.07753451 0.11518402 0.13336216 0.069897234
-0.044991076 -0.06872564 0.10475567 -0.07233761 -0.002072998 0.06269356 -0.03092324 -0.066907875
-0.014915177 0.09608868 -0.057952028 -0.11111075 -0.023305705 0.04322649 0.04313981 -0.08168929
0.049818523 -0.066080004 0.0380528 0.032881256 0.13147484 -0.04512774 0.024974905 0.06372407
-0.10861114 0.08604609 -0.08859599 0.06779399 0.10015377 -0.022019284 -0.077337116 0.0986492
0.07810306 0.056787718 0.11517164 0.022003861 0.008604152 0.048999976 -0.030604629 0.052347615
-0.06501451 0.076592565 0.11035329 0.13788182 0.11935918 0.017944124 0.045395046 0.06374757
0.0022872188 0.029626241 -0.061992615 -0.10181284 0.014687551 0.090385884 -0.035292663 0.031874202
-0.018204242 0.0041826377 0.09146442 -0.089779705 0.01386918 0.009058595 -0.030420609 0.07163655
0.029912125 -0.101595834 -0.035519984 -0.10800442 -0.049676694 0.052293744 0.000119939905 0.0823638
-0.053959712 0.088911034 -0.08592707 0.008724214 -0.056819282 0.07316538 0.012553918 0.05259127
-0.10412667 -0.0069290884 -0.014611391 0.10553103 0.03723197 -0.025779411 -0.007955694 -0.044190805
0.028036684 -0.090729825 -0.09966103 -0.090875804 0.106686406 0.04744754 0.007403138 0.048416156
-0.060277898 -0.014633568 0.14778242 -0.03152805 -0.072086655 0.06662392 -0.041994777 0.111905
-0.05818798 0.0042222766 0.11122265 0.09082985 -0.015499797 0.07488644 0.0318631 -0.10911673
-0.011703436 0.08793862 -0.06333914 0.07494214 0.047793407 0.12075864 -0.05617731 -0.04118118
-0.11532878 0.045988135 0.0035517884 0.059682667 -0.09721697 0.062915705 0.08768769 0.007393877
-0.09688032 -0.08812447 -0.0069242716 -0.04686234 -0.017436378 0.064121656 -0.10209442 -0.067178115
0.07253871 -0.0936064 0.00023523127 -0.062338647 -0.09056432 0.039884504 -0.013850391 0.118244246
-0.049092848 -0.03300242 0.02407241 -0.09611453 0.032128688 0.07583824 0.054827083 0.14184861
-0.081761844 -0.085879505 0.13472176 -0.07231113 0.13200428 -0.0015608262 0.07597364 0.06213226
0.13960703 0.0024202205 0.003579003 0.14845781 0.13809812 -0.06457142 0.077176176 -0.00063740934
-0.03825364 -0.005632956 0.0669601 0.07491547 0.054737203 -0.051568978 0.09575193 -0.051023427
-0.05241929 -0.08728922 0.024694828 0.04644429 -0.009436327 0.027804416 -0.048470415 -0.12803231
-0.009306643 -0.12639606 0.1156125 0.0031002755 -0.01651229 0.06407653 0.06352883 -0.023530891

lstm.weight_hh_l0 f4 [256, 64]
00000000: 2867 083d fda2 c7bd 3d25 1a3d 3d45 c2bc
00000010: 6551 5cbd 3f36 00bc 1bd2 86bb 46eb 3ebc
00000020: ca9c 003e 4f1a c33b 69cb ddbd 8574 c1bd
00000030: a13c 563d 422c e53d cee2 83bc f44e e13d
00000040: de88 bf3d c2ce ffbd ff43 953d 58a3 07bd
00000050: ed0f 003e 3070 d0bd c796 1abd f03e a03d
00000060: b758 d83d 3767 c93d b5cf aabd bb6a e43d
00000070: 313f 19bd 726b b0bd 2a5a 803d 5d02 2abe
00000080: e30c 0d3c f86b e93d 9617 8dbd 3be8 eb3d
00000090: 48fc 073d b976 a53d 3bac f0bc 5c4a da3c
000000a0: c6ed acbd d0cd cabd 305c 713d 916e afbd
000000b0: baf7 93bd 8ce7 063b c986 b8bd 68eb 50bd
000000c0: d08b 083e 709f 03be 92f6 6d3d 5dae 223d
000000d0: aa66 af3d 94aa afbd 76ce 56bd 4e33 d23d
000000e0: 9596 c0bd 9edf 89bd efe7 69bd 4750 23bd
000000f0: 3f75 c9bd c86d 67bd eab0 873d e004 303d
00000100: 5282 e63c ae97 dbbd 1f64 0ebb fd5f 0cbc
00000110: d94a 9e3d 001c 893d 48db 9ebd 7af8 96bd
00000120: d001 e2bd d38d 26bc 7b9e 353c c3ef bb3d
00000130: 60eb 64bd e7aa e43d 11f4 1e3c d5b3 d23d
00000140: 798a 02be 64a3 ff3d efc6 9ebd 6e2e 59bc
00000150: 9e56 48bd 309f adbd 19e5 09bd d747 12bd
00000160: fbe4 59bd b1ad 01bd ebd8 953d 1af7 7b3d
00000170: 4f69 c43d 00a1 d2bc bc72 49bd ecdb d0bd
00000180: e301 073c f7df 803d 1f98 973b 0ca5 98bd
00000190: 0e40 933d 83bc fbbd 5524 a6bd 73ca a33b
000001a0: 7028 973b 4aab c0bc 4aa1 e3bd eec9 1a3d
000001b0: 0878 89bd 5156 adbd ec98 6bbd a702 acbd
000001c0: d549 d63d 0baf fe3d 991e 48bd b758 c23d
000001d0: 37e0 033e 6b43 973c ccfe c53d 8339 95bd
000001e0: 4263 abbd 84c5 4d3d eb1f 733d c4f8 b3bd
000001f0: 5230 623c 4fbe 653d a603 9cbd 550d dcbd
00000200: 0163 6abd 55b3 9dbd c239 7abd 9de0 a1bc
00000210: 1bdb c9bd 8efb 05be c0a7 c4bc 0a03 30bd
00000220: 1f85 b83d c65f 983b 712d 2d3d 5c60 cc3d
00000230: 1d90 623d 2158 e3bd eb17 c8bd e4a5 d2bd
00000240: 2a11 0d3d 1d37 e73d cbc2 2e3c e9cd babd
00000250: 05c4 4b3d 0b71 f7bd fcfc 5d3d 0cc8 89bc
00000260: e9eb cc3d d1f2 dd3d c4cb f3bd 4f67 bfbd
00000270: 8ebc a83d 8f85 c13d 14bf a7bd f7cf 2a3d
00000280: a9c8 d43d a93f 02be 29e5 933d b432 8b3d
00000290: 5ba5 acbb 211f a63c 520b 903d 08a6 bbbd
000002a0: 039e ad3d 6d0c f5bd b630 7ebd d9cf 45bd
000002b0: b18e 36bd c2c5 c8bd 7619 5dbd 399b 5d3d
000002c0: c886 0cbd 783f a73d fd45 aa3d 5536 a6bd
000002d0: 4eb5 1f3d 6d0c 10bd bdb4 89bd ddd4 b13d
000002e0: ebda 85bd 7b2b 923d 6826 ecbd d466 9b3d
000002f0: 358f 69bd 5a51 ccbc 1c6c 903d fd5b ff3d
00000300: c63d 0bbd fe1c a9bc 0879 27bd c21f 1abd
00000310: 6aa0 703d fd70 593d 6efb a43d 0958 e6bd
00000320: 7c74 71bc 9c17 823d 86b1 b9bd 0966 9cbd
00000330: 7863 f3bd a8e3 c8bd f424 5fbd 4eef ffbd
00000340: 7236 a03c 8b88 e83d d462 0f3d 3374 e3bc
00000350: 9563 73bc 8134 01bd 0e7a 963d 4649 413d
00000360: 8025 d53d 7ce2 d2bd 826c 223d 6e37 343c
00000370: 9cb2 89bd a273 68bb eca3 9e3d 0c7d b03d
00000380: 134d 43bd 7bf4 c9bd 67a8 9a3d 7638 803d
00000390: 8795 933d 6985 9abd 4316 b13d 39a7 1ebd
000003a0: 706f 583d ea44 03bc 0b1f 9dbd 048e 7c3c
000003b0: af59 11bd f80d ddbd d44c 7c3c 5063 0fbc
000003c0: 2645 293d ed6b 48bd 4a05 6dbd a275 febc
000003d0: c774 a93b cf5a 91bb f4e3 09bd 3b32 053c
000003e0: 05ac fd3d 65d1 893d 6ab8 c8bd b5ae ca3c
000003f0: 987a 4b3c 2a79 d43d d456 a5bd 0698 afbd
0.033301502 -0.097478844 0.03763317 -0.023714656 -0.05378856 -0.007825433 -0.004114402 -0.011652773
0.1255981 0.005954064 -0.10829813 -0.094460525 0.052303914 0.11190082 -0.01609936 0.11001387
0.09352277 -0.12490608 0.0728836 -0.03311476 0.12506075 -0.10177648 -0.03774145 0.078245044
0.10563796 0.0983414 -0.08340398 0.1115317 -0.03741378 -0.086142436 0.062671974 -0.16602464
0.008609029 0.113975465 -0.06889264 0.11518904 0.03319958 0.08079285 -0.029379 0.026646785
-0.08443789 -0.09902537 0.058925807 -0.08566011 -0.072249845 0.002058479 -0.09010083 -0.05100575
0.13334584 -0.1285379 0.058096476 0.039717067 0.085645035 -0.08577457 -0.05244299 0.10263692
-0.09403721 -0.06732105 -0.057105955 -0.03987148 -0.09836816 -0.05650118 0.066255406 0.0429734
0.028138313 -0.1072229 -0.0021727157 -0.008567807 0.0772912 0.06694794 -0.07756668 -0.07371612
-0.11035502 -0.0101656495 0.011085148 0.0917659 -0.055888534 0.111654095 0.009701745 0.102882065
-0.12748136 0.12482336 -0.07752787 -0.013255699 -0.04891073 -0.08477628 -0.03366575 -0.035713043
-0.05319689 -0.031659786 0.073167644 0.06151495 0.095903985 -0.025711536 -0.049181685 -0.10198197
0.008240196 0.06292718 0.0046262885 -0.07453355 0.07189952 -0.12291815 -0.081123985 0.004998499
0.004612975 -0.023519177 -0.11114748 0.03779023 -0.06712347 -0.08463729 -0.057518885 -0.083989434
0.10463301 0.124357305 -0.048857305 0.09489577 0.128785 0.018464765 0.09667739 -0.0728636
-0.08368541 0.050237194 0.05935661 -0.08787683 0.013805466 0.056089696 -0.076178834 -0.107447304
-0.057223324 -0.077002205 -0.06109024 -0.019760424 -0.09856244 -0.13084242 -0.02400577 -0.04297165
0.09009766 0.004650089 0.042279664 0.099793166 0.05531322 -0.11100794 -0.09770187 -0.102855474
0.034440197 0.11289809 0.010666559 -0.091213055 0.049747486 -0.12082108 0.054196343 -0.016819023
0.10005934 0.10837329 -0.119040996 -0.093458764 0.08239089 0.094493024 -0.08190742 0.041702237
0.103898354 -0.12719597 0.07221443 0.0679678 -0.0052687353 0.020278515 0.07033409 -0.09162527
0.08477404 -0.11965261 -0.062058173 -0.048293922 -0.044569675 -0.09803344 -0.05397936 0.05410311
-0.034308225 0.081664026 0.083141305 -0.08115832 0.038991265 -0.0351681 -0.06723926 0.086831786
-0.06535896 0.071371995 -0.11530763 0.07587972 -0.05702134 -0.024941135 0.0705187 0.12468717
-0.03399446 -0.020643707 -0.04088691 -0.037627943 0.058746733 0.05308627 0.08055769 -0.1124726
-0.014737245 0.063521594 -0.09067063 -0.07636649 -0.118842065 -0.09809047 -0.0544786 -0.124968156
0.019557212 0.113541685 0.03500636 -0.027765369 -0.014855285 -0.031544212 0.07347499 0.04718902
0.10407543 -0.10297105 0.039654262 0.010999544 -0.0672352 -0.0035469313 0.07746109 0.08617601
-0.047680926 -0.09861084 0.075516514 0.06260769 0.072062545 -0.07544977 0.08646824 -0.038733695
0.05284065 -0.008012036 -0.076719366 0.015414719 -0.03548592 -0.1079368 0.015399177 -0.008751705
0.04132571 -0.04893105 -0.057866372 -0.031061951 0.0051713916 -0.004435874 -0.03366466 0.008129652
0.12386326 0.06729392 -0.09800799 0.02474151 0.012419365 0.10374673 -0.08073202 -0.08573918

lstm.bias_ih_l0 f4 [256]
00000000: efe8 d23d c1c6 1c3d 8a0c 9b3d f9e9 8dbd
00000010: 8e04 173d 5a66 c93d ede8 bb3b a517 e8bd
00000020: 5a80 823d 8246 763d b4e9 e9bd 5c92 97bd
00000030: 2579 153d 2304 31bd b208 96bd 962d 95bd
00000040: 8084 a2bc ac80 e1bd 99aa 173d 1373 f73d
00000050: ba41 a83c be76 29bd 32bb d6bd 2594 d73d
00000060: b120 96bd 3434 97bd 3ec1 aebd b588 cabd
00000070: fc4d d7bd 72f6 adbd 42c6 7a3d 905a 4c3d
00000080: 938a 7abd 6f43 413d b08f 9c3d ef15 b33d
00000090: e44a e03d d005 073e 43bb af3d d809 80bd
000000a0: ffdd 8abd b2e0 2c3d ce88 503d 2df0 d2bd
000000b0: 4c4e afbd b793 b4bd 3bdf febc 1ebe c8bd
000000c0: 233e 823d c0fa 333d 61c6 e93d f63e 93bc
000000d0: 14f4 fa3d 398b 763c 6854 fb3d 3e68 d7bd
000000e0: 5d24 653c c4f6 a8bd 7323 073c 200c 7f3d
000000f0: 7443 ea3c 2fb4 c9bc 65db 593d 10af 0e3d
00000100: 13b8 853d 7d3b b53d 8620 1c3d e210 883d
00000110: d0d0 d9bd 0b73 2fbd 0331 f43b 871d d53d
00000120: d243 a23d 7feb e1bd ee38 433d 3fe8 843d
00000130: 46b3 1dbb 0b29 b23b 94b4 9ebd f8cf 98bd
00000140: a11e 593d 37f8 47bd c594 503c dfa1 9a3b
00000150: 21ac 89bd 7ecd 893c 8385 edbc 20d4 5cbd
00000160: 0f07 783d 024c c5bd 2bba f7bc 1724 5b3d
00000170: 7946 03bd 8749 31bd 2180 0a3e 9bec a7bc
00000180: 44e5 f5bd 2cb4 cabb 0a62 1e3d 866f 683d
00000190: 967f 903d 40ed 7c3d 1574 893d ce75 b8bc
000001a0: 49a1 003d 0dbb 06bc 2ffb 31bd 501b cfbd
000001b0: 277c 75bd 915d d4bc f7ea 3dbd 1555 67bd
000001c0: 35d8 80bd 80ff d83d 52dd ac3d fb98 7b3d
000001d0: 2d21 923d 055f 6a3d f4a8 7dbd ea9b 923d
000001e0: 211d ee3d 9064 353d ccf4 4d3d 39ba 723d
000001f0: 58fd 2c3d 0c7d 423d 4cca 13bd 110b ee3d
00000200: 124f 3abd 2cbd 693d b057 0a3e cd67 863d
00000210: a85b c2bd 0169 373c dd9c dbbc 5fde 05be
00000220: 1914 51bc 4dab c7bc 443d 153d 7b0f 5b3d
00000230: f276 cabd 1059 683d 3ce7 3bbd 4583 c23d
00000240: d992 7b3c 7f7d 883d cb27 2ebc 309a b73d
00000250: 1c55 763d 7cb3 62bd 2f6e e23d b4d6 0ebd
00000260: 9d3c e9bc 3d9a 54bd 72d9 d2bc 25a1 023d
00000270: c6c1 80bb 18e9 a33d 564f 5d3c c4e7 28bd
00000280: 160b 133d 501e 24bd 950d e03d 3f73 813c
00000290: 9960 79bd 95c6 c43d 92d0 d63d d43c 3bbd
000002a0: 8ce7 c73d 5a81 e23c c630 d9b8 3d39 603c
000002b0: 3185 f33c 2eac 1b3d d572 c73d 3294 cf3d
000002c0: db06 de3d 797e c0bd c338 fc3d 6761 7a3d
000002d0: e2da 523d b4be bf3d 2335 633d 0085 17bd
000002e0: f5a5 e0bd 3bdc 8a3d 49e1 38bd 5778 1a3d
000002f0: 7e7f 9e3b aea2 1ebd 8ac6 bbbd 90bb 673b
00000300: 495c a73d 0319 e53d b3f4 033d 3b27 043d
00000310: b941 50bd 571f fbbd f4cd cf3d ad15 c83d
00000320: 0d4c 7dbd 07db 8b3d d545 06bc 0391 d23c
00000330: 7996 e1bc ce17 fb3c 800e 9fbd 8186 b73d
00000340: 19cf 123c cd72 89bc f4ed 24ba 0535 913c
00000350: 5efd b1bc a72c c7bd e804 90bd bfb8 58bd
00000360: 13f5 f83c 0ef1 b2bd 6876 ccbd d599 b33d
00000370: bc0f 18bb 7f60 babd 3669 a8bd 9af1 ab3d
00000380: 77a1 f33d 89be 8a3c 849f 8c3d 52f5 be3d
00000390: 6c89 93bc 5ff3 39bd 9224 55bd 87e0 393d
000003a0: 275b c93d 8307 f63c 07eb b5bd ea79 3d3d
000003b0: 78aa d5bd b609 d4bd 8e7b af3d 24f8 6ebd
000003c0: 627c 94bd 6928 8fbd f684 51bd 3c13 b63d
000003d0: 5a9e 94bd b363 a53d a189 0cbe 3543 98bd
000003e0: f916 7e3d 0dc1 193d 07ce c1bc b6f4 913c
000003f0: 67ca d43d 8316 ba3c 774b 543d 5eaf cd3c
0.10298335 0.038275484 0.07570751 -0.06929392 0.036869578 0.09833975 0.005734554 -0.11332635
0.06372137 0.060125835 -0.114215285 -0.07400963 0.036492486 -0.043216836 -0.07325877 -0.072840855
-0.019838572 -0.1101087 0.03702793 0.120824955 0.020539153 -0.041373007 -0.104849234 0.10526303
-0.07330454 -0.07383004 -0.08532952 -0.09889356 -0.10512921 -0.08494271 0.06122423 0.049891055
-0.06116731 0.04718345 0.07644594 0.08744418 0.10951784 0.13185811 0.08580639 -0.062518775
-0.06780624 0.042206474 0.050911717 -0.10299716 -0.08559856 -0.08817237 -0.031112304 -0.09801887
0.06359508 0.043940306 0.11414791 -0.017974358 0.122535855 0.015047842 0.122719586 -0.105179295
0.01398572 -0.08250192 0.008248198 0.062267423 0.028596617 -0.024622051 0.053187747 0.03483492
0.0652925 0.08849237 0.038116954 0.06643845 -0.10635531 -0.042834323 0.0074521317 0.104060225
0.07923092 -0.110312454 0.047661714 0.0648961 -0.0024063154 0.0054370216 -0.07749286 -0.07461542
0.053007726 -0.0488207 0.012730782 0.0047190036 -0.06722284 0.01682162 -0.028994327 -0.053913236
0.060553607 -0.09633638 -0.030240139 0.053501215 -0.03204963 -0.04328301 0.1352544 -0.020498564
-0.120066196 -0.006186029 0.038667716 0.056746982 0.07055585 0.061749697 0.06711594 -0.022517111
0.031403814 -0.008223307 -0.043452438 -0.10112631 -0.059932854 -0.025923522 -0.046366658 -0.056477625
-0.06291238 0.10595608 0.08440651 0.06142519 0.07135234 0.057219524 -0.061928704 0.071586445
0.1162665 0.044285357 0.050282285 0.059259627 0.042233795 0.047482535 -0.036081597 0.116232045
-0.045485564 0.057065174 0.13510013 0.06562767 -0.09490138 0.0111944685 -0.026808197 -0.13073109
-0.012761139 -0.024373675 0.03643538 0.05348156 -0.09885968 0.05672556 -0.04587482 0.09497694
0.015354835 0.066645615 -0.010629605 0.08964956 0.06013976 -0.05534695 0.11056172 -0.034872726
-0.028471285 -0.051904906 -0.025738452 0.03189196 -0.0039293496 0.080034435 0.013507685 -0.041236654
0.035899244 -0.04006797 0.109400906 0.015802024 -0.06088314 0.09608189 0.104890004 -0.045712307
0.09760961 0.02764957 -0.00010356451 0.013685522 0.029726597 0.038006 0.09738699 0.10135688
0.10841151 -0.09399123 0.12315514 0.061128046 0.051478274 0.093625456 0.055470597 -0.036992073
-0.10969154 0.06780287 -0.045136724 0.03771242 0.0048369756 -0.038729362 -0.09168728 0.0035359599
0.08171899 0.11186411 0.032215785 0.032263976 -0.050843928 -0.12261837 0.10146704 0.09769759
-0.061840106 0.068288855 -0.00819536 0.025703913 -0.027537571 0.030651 -0.077664375 0.089612015
0.008960509 -0.016778374 -0.00062915613 0.017725477 -0.02172726 -0.09725314 -0.07032186 -0.052910563
0.030390298 -0.08737384 -0.09983522 0.087695755 -0.0023202738 -0.091004364 -0.082231924 0.08395691
0.11896031 0.016936557 0.06866363 0.09324135 -0.018009864 -0.045398112 -0.05203683 0.04538014
0.09831839 0.030032879 -0.088827185 0.046258844 -0.10432905 -0.10353415 0.08568488 -0.058342114
-0.07250287 -0.069901295 -0.051152192 0.088903874 -0.07256766 0.08075657 -0.13724376 -0.07434694
0.062033627 0.037537623 -0.023657812 0.017816883 0.10390168 0.022715813 0.05182978 0.025108036

lstm.bias_hh_l0 f4 [256]
00000000: 55fd 1f3c afef e43c 5fed 233d 625d 893c
00000010: 7c51 b2bd 18f2 76bd 577e c6bd 01cb eebd
00000020: 345d 8f3c d68c 763d 9c80 b33d 39f8 7cbd
00000030: a72f 1abd ca0c 53bd 3239 963c 874e 35bd
00000040: a845 dbbd 0f0f 1dbd 28e6 a2bd d83d 123d
00000050: baab 86bd d124 e53d 10b6 6b3c df8e 8b3d
00000060: d656 57bc ee33 9fbb 75e4 62bc a44d 1a3d
00000070: 3197 74bd b6f2 d63d 2929 913d 7245 46bd
00000080: 0ef5 fb3b 9aec 93bd 46c6 9c3d 0fd8 963d
00000090: 4397 2cbc 696c f2bc dbca 98bd ac17 133d
000000a0: 1a6e acbd fffd cdbd fa19 fa3d 5095 143d
000000b0: f835 ce3c 0932 7f3d bbb7 b2bd e90b 66bd
000000c0: 0468 4e3d 9e25 76bd a78d d83b 5891 aabd
000000d0: dc64 86bd 4bbf 3dbd b4b0 86bd b4c1 7dbd
000000e0: 318b cf3c 98c6 963d 764b de3d 47ba 7dbd
000000f0: 5c89 d5bd f113 95bc fc26 92bd 9270 a0bd
00000100: 724d 983d 63d2 c3bd 6190 e23d 7eed c73d
00000110: 4af1 b03b 498b 573d bf2c 91bd 195b 08be
00000120: e24a dcbc 838f 423d 2fc5 673d a53a bd3c
00000130: 9ec9 2ebd 6d4e 0fbd 5e6a 1bbc fd1d c03a
00000140: 52ed 023e 282e 6f3c 3ee5 ad3d f788 123d
00000150: 0c1f 3abb e478 98bd dad1 f2bc 245a 00be
00000160: 228b 1ebb 8c1b cbbd cb5c d5bd fdc7 8dbd
00000170: fa04 e9bd 5396 78bc d97c 97bd 2c58 063b
00000180: 5961 96bd 1d58 2ebd ac90 88bd ea0f dbbd
00000190: ac51 f53d 2f16 923d 8171 a13d 54e0 343d
000001a0: f0f4 333d d14b ad3c 57c3 adbd b485 833d
000001b0: 0605 253d 911b adbc aee2 61bc af4a 0f3d
000001c0: e81f a2bd 2c88 993c 2b62 403c 358c 7e3d
000001d0: 4d81 923d 510d d73d 3884 243d 374c 59bd
000001e0: 06af bb3c 6021 453d 226d 653d 8649 e8bb
000001f0: e33e b73d 3edc 613c 4986 053d 1799 ef3d
00000200: b2ee b63d d22f bb3c e860 0c3e 413b 9bbd
00000210: 9234 8dbd d5ba 5c3d 0ed5 9cbd 845a 1e3d
00000220: 398f 0fbc cebf 7bbd cd83 893d 2be3 9bbc
00000230: f8d2 4dbc c6dd 8d3d 8382 1a3d fc50 7dbc
00000240: a2e3 0e3e ac1d 0cbc bfdb 1abd 8418 96bd
00000250: 780f 97b9 d401 083b cf28 843d 5039 963d
00000260: 2a4c 08bc e183 dd3d 5db7 02be fe80 c5bd
00000270: 952c 473c 4a1c d1bd f02c 4ebd 37ad f3bb
00000280: fd09 b93d 62b2 053d 995b 94bd c178 b03d
00000290: e255 c5bd 8dc7 a0bd dbf4 01be 607e 79bd
000002a0: 517a 6e3d 10c8 01be 2dd7 bc3d 05a2 f03b
000002b0: 9288 d53d c6c4 8fbd ee35 38bd 0b59 3cbd
000002c0: 8293 0c3d 3f89 9a3d 4296 1cbd e17e 0ebc
000002d0: 2e9c 3e3d c5a7 58bd a689 323d bf5a 8d3d
000002e0: 9b04 293d c7b4 27bc 123c 6c39 809e b4bc
000002f0: d4e5 56bc c82a 223d bab1 37bd 880b 0bbe
00000300: eb96 60bc e7f0 e5bd bc8e babd 5376 3c3d
00000310: c5e0 3ebd 7a67 503d 4417 343d 5ca6 02bb
00000320: ba10 e23d 3d55 453d dafb 9abd f397 78bd
00000330: d14f 30bc 7eb1 55bd 8e09 69bd 9838 e7bc
00000340: 0982 22bd 76a3 a1bc 7c28 703b 5f82 b9bd
00000350: c977 a43c 5b1d 4c3c 3bad 283d 58af a6bc
00000360: a40e a6bd e809 b83d 3838 b9bd b53e 483d
00000370: 69e5 8bbd 3914 863d d875 de3d b6d1 753d
00000380: a002 bbbd 3068 b73d 9816 e4bd 8c31 65bd
00000390: 4243 eabd da20 88bc 66d2 4f3d 46da a1bd
000003a0: a522 ad3d 2acd f5bb af5c c4bd 726b 3cbd
000003b0: 43c7 b13a ef0f 88bd 979d 433d 3917 f2bd
000003c0: 59eb 013d c363 e53d 2bb1 853d e481 e03d
000003d0: 0a27 053e 9b84 cfbd 610d 9b3d af19 803d
000003e0: 59e0 b5bd 0ce3 af3d a8b7 793d 3b9e 403c
000003f0: e70f 89bd f7fc 32bd e291 943d 81ae 9c3d
0.009764989 0.027946321 0.040021297 0.016768161 -0.08706948 -0.060289472 -0.09692066 -0.11659814
0.017500497 0.060192905 0.08764765 -0.06176016 -0.0376431 -0.05152587 0.01833782 -0.044264343
-0.10706645 -0.03834444 -0.07954055 0.03570351 -0.06575723 0.11188663 0.014386669 0.0681436
-0.013143262 -0.0048584854 -0.013848414 0.0376717 -0.0597145 0.10495512 0.07087929 -0.048406072
0.007689125 -0.072228625 0.07655005 0.07365429 -0.0105341105 -0.02959271 -0.074605666 0.035911247
-0.08419438 -0.100582115 0.12211986 0.036275208 0.025172219 0.062303577 -0.0872645 -0.056163702
0.050392166 -0.06009447 0.006608683 -0.08328503 -0.06562206 -0.04632501 -0.06576672 -0.061952308
0.025334926 0.073620975 0.10854237 -0.061945226 -0.1042659 -0.018197985 -0.07136342 -0.07833971
0.074366465 -0.095616125 0.11062694 0.09762095 0.0053998576 0.052623067 -0.07088613 -0.13316001
-0.026891176 0.047500145 0.056584533 0.023099253 -0.042672746 -0.034986902 -0.009485809 0.0014657375
0.12785843 0.014598407 0.0849099 0.03577515 -0.0028399853 -0.07444933 -0.02964108 -0.12534386
-0.0024191816 -0.099173635 -0.104180895 -0.0692291 -0.11377902 -0.015172559 -0.0739686 0.0020499332
-0.07342786 -0.0425645 -0.06668219 -0.10696395 0.11978468 0.071331374 0.07882977 0.04415925
0.043934762 0.021154316 -0.08484524 0.06421986 0.040287994 -0.021131309 -0.013786955 0.034983333
-0.07916242 0.01874169 0.011742155 0.06214543 0.071535684 0.10500587 0.040165156 -0.0530512
0.022910606 0.048127532 0.05601228 -0.007088843 0.089475416 0.01378542 0.032598767 0.116991214
0.08932246 0.022849951 0.13708842 -0.07579661 -0.068947926 0.053889114 -0.076578245 0.03866054
-0.008762174 -0.061462216 0.06714592 -0.01902922 -0.012562506 0.069270656 0.037722122 -0.015461203
0.13954023 -0.008551996 -0.037807222 -0.07328895 -0.0002881249 0.0020753043 0.06453096 0.0733515
-0.00831894 0.108161695 -0.1276526 -0.09643744 0.012156625 -0.10210474 -0.050335824 -0.0074364203
0.09035108 0.032640822 -0.07244033 0.08616782 -0.096355215 -0.07850561 -0.12691061 -0.060911536
0.05822212 -0.12673974 0.09220729 0.007343533 0.10426439 -0.070199534 -0.044973306 -0.045983355
0.034320362 0.07545709 -0.038229235 -0.0086972425 0.046535663 -0.052894372 0.043588303 0.06902074
0.041264158 -0.010235972 0.00022529092 -0.022048235 -0.013116319 0.03959158 -0.044847228 -0.13578618
-0.013707857 -0.11227589 -0.09109256 0.04601128 -0.046601076 0.050879933 0.0439675 -0.0019935584
0.110383466 0.048176993 -0.07567568 -0.060691785 -0.010761217 -0.052171223 -0.056893878 -0.028225228
-0.039674792 -0.019731265 0.0036645224 -0.090580694 0.02007665 0.012458171 0.04118083 -0.020347282
-0.08108261 0.089862645 -0.09043926 0.048887927 -0.06830866 0.06546826 0.10862321 0.06001445
-0.0913136 0.08955419 -0.11137122 -0.055955455 -0.1143861 -0.016617227 0.05073776 -0.079029605
0.084538735 -0.007501264 -0.095879905 -0.046000905 0.0013563413 -0.06643664 0.04775771 -0.118208356
0.031718586 0.11200669 0.06527933 0.10962275 0.13003173 -0.10132714 0.07570911 0.06254899
-0.088806815 0.08588228 0.060966164 0.011756475 -0.06692486 -0.043698277 0.072543874 0.076504715

lstm.weight_ih_l1 f4 [256, 64]
00000000: 76c7 343d 7da9 12bd 521e e63d d964 cdbd
00000010: 50d7 c23d a816 0b3d 7040 dc3c 98a2 9a3d
00000020: 8ca0 85bd b21a cf3d 27b4 7d3d 7a98 9b3d
00000030: 2167 cabc b25d 4ebc 7527 87bd 65f5 dd3d
00000040: 9359 efbd 9f7d 8a3d 619a 4f3d b2b3 043e
00000050: a331 143b 63be 0ebd 3096 dd3d 2531 3b3a
00000060: aa5d dc3d b08d 073e 5eb9 a23d c262 1cbd
00000070: c16e c8bd ff2b 833d a5ef 84bd f3b7 0a3d
00000080: 93e8 8d3d 999a 883d 0f73 6f3d fec6 c03d
00000090: 99bc 5c3d 2042 d2bd 3ce9 963d 69d3 10be
000000a0: 3d88 8f3d 4934 ccb9 21dc fa3c 0e49 a23d
000000b0: cb5d 34bd 3210 bfbc 6aa5 fbbb d322 b13d
000000c0: 4b49 e73d f297 8dbd de2d ff3d 7a41 eb3d
000000d0: be2d 35bc 7a44 383c 3e96 5b3d 420c 173b
000000e0: 5245 f73b e266 ecbd dde3 eb3d c325 0bbd
000000f0: 89c1 413d 06b0 c63c 9660 753d 2eba ae3b
00000100: 1777 87bd ba97 813d daa7 2e3c 48b9 aabc
00000110: 3485 e33c fa4b 88bc 216e 06be a936 cdbd
00000120: 0c76 00be 71a6 fa3b abac 4fbd f52a a33d
00000130: 4ff0 173d e66d ce3d 4b0b dc3d 045e c3bd
00000140: e7e0 2a3d 7ad4 e93d 7d7a a2bd adee 35bd
00000150: 58d9 ccbd bee5 a23d 7317 953d 9bc0 ecbd
00000160: 662e 2c3d 25ab dcbc eb0e 36bd ceee bc3d
00000170: a9b4 003e 3838 273d c8aa c7bd b9e8 8f3d
00000180: 7730 09be 71e7 87bd 5109 d63d ce68 e2bc
00000190: 717c 00be 9338 5e3d 4c44 89bd ceee be3d
000001a0: ea68 113c e35d 8fbd 1f70 82bd c2b7 ba3c
000001b0: f3e2 953c f219 073e e7ea b23c 7b69 853d
000001c0: c617 ba3d f6e7 5bbd acfe d43d c97e 83bc
000001d0: 189d 1b3b 5f4e 23bd eeb5 71bd a34c 0e3e
000001e0: c461 053e a4e5 cb3c fa7e fd3d f4f1 1cbd
000001f0: 8d6f d13c 7cc2 59bd 3df6 a83c a4da 983d
00000200: 1ef9 d5bd 6e4c bdbc 9845 683d 13bc 55bd
00000210: 94c9 e13d 4ed7 a4bb cc40 8dbc 00f2 52bd
00000220: 039a 5d3c 97c8 88bb b9b5 a13d 8d85 fbbd
00000230: 9bf4 9eb9 fbec 953d 0b99 d43d 8efa 05bc
00000240: de90 ac3d e4e6 813d 6943 bebd 449a 68bd
00000250: ba88 10bd 83a4 273b fd15 b8bd 7d2c b2bd
00000260: c6d2 cebd 5be3 1e3d 59d0 54bd 3f1e d7bd
00000270: 9555 503d d491 8f3d 312d cd3c c29b 7a3d
00000280: 9b56 34bc ca2d 17bb 7e79 ee3d 933e af3d
00000290: 83bf a9bb 1d07 31bd cd56 ffbd d32f b93c
000002a0: 156e de3d 59ac f5bd 07b1 b23c 6ecb 22bc
000002b0: 286b a4bd 00d8 f6bd 94ef e1bd 096f 42bc
000002c0: 84df d73d 4bd7 e4bd bc80 05bd 5c24 8bbd
000002d0: 078e ae3d 2dec 8a3c c17f 57bd d830 423d
000002e0: 49ed b03c 2fc2 923d 8219 0fbd 3100 c93c
000002f0: 5f54 9dbd e461 833c 5297 783d 8d50 9f3d
00000300: 9e67 d0bd ab47 ea3d 5178 b2bc 4a02 633d
00000310: bbd5 c13d c71a c5bd 43f1 a73d a927 eb3d
00000320: b071 c3bd eded 4c3c ebe6 dfbd e10c a03d
00000330: 6faa edbd dfa1 8b3d a695 e5bd 131e 6fbd
00000340: f907 a93d dfe4 98bc d200 de3d 8d3e ae3c
00000350: 5ed1 96bd 13ea e0bd 436c f53d ceea 983d
00000360: ce45 fd3c c3c1 c73d 1894 12bd 7ee1 d0bd
00000370: 9413 183d 7ad8 86bd 91e1 ddbd 1757 08bd
00000380: b4b1 9fbd fdf1 ef3c be57 4abd adb7 c73d
00000390: 59f5 b0bd c9b7 3dbd ceff b73d bd2b d33c
000003a0: 47c1 bdbd 66b6 12bb a57d c5bd f87c 563d
000003b0: 396d 38bd 8278 153d 2e83 8bbc f9e3 373a
000003c0: fdd7 50bd 2e79 0bbc 1c56 ffbd ccea 02be
000003d0: d559 f43d 5f6c d73d 2997 aebd ae81 973d
000003e0: 2fcf c43c fe27 c0bd ec6b 8f3d f349 113c
000003f0: e97a e0bd fd10 8fbd f3e2 643d aa2a debd
0.044135533 -0.035806168 0.11236252 -0.10029001 0.09513724 0.033957154 0.026886195 0.075505435
-0.065247625 0.101125136 0.061939385 0.07597442 -0.024707379 -0.012595581 -0.06599323 0.10837821
-0.11687007 0.067622416 0.050684337 0.12959173 0.0022612594 -0.034849536 0.108196616 0.0007140807
0.107600525 0.13237643 0.07945512 -0.03818012 -0.0978675 0.06404876 -0.06491021 0.033866834
0.06929126 0.06670112 0.058459338 0.09412955 0.0538908 -0.102665186 0.07368705 -0.14143147
0.07008407 -0.00038948868 0.030622544 0.0792409 -0.04403476 -0.023323152 -0.007679631 0.0864922
0.112932764 -0.06913747 0.1245992 0.11487098 -0.011058269 0.011246795 0.05361008 0.0023048078
0.0075461054 -0.11543061 0.11518071 -0.03397156 0.04730371 0.024253856 0.059906565 0.005332253
-0.066145115 0.06327768 0.010660136 -0.020840302 0.027773477 -0.016637791 -0.13127948 -0.10020191
-0.12545031 0.007649236 -0.05070178 0.07967178 0.03709441 0.10079555 0.107443415 -0.095394164
0.04171839 0.1141748 -0.07933519 -0.044417072 -0.100023925 0.07953976 0.07279863 -0.11560174
0.042036436 -0.026937077 -0.04444782 0.09225236 0.12568916 0.0408251 -0.09749371 0.0702681
-0.13397394 -0.06635941 0.10450996 -0.027637865 -0.1254747 0.054253172 -0.0670248 0.09322892
0.008875111 -0.07000329 -0.06369042 0.0227927 0.018296694 0.13193491 0.021840526 0.065142594
0.09086566 -0.053688012 0.10400137 -0.016051667 0.0023744758 -0.039869662 -0.059011392 0.13896422
0.13025576 0.024889775 0.123777345 -0.038316682 0.025565887 -0.05316399 0.020625228 0.074635774
-0.10447906 -0.023107734 0.056706995 -0.052181315 0.11024776 -0.005030549 -0.017242812 -0.05150032
0.013525489 -0.004174303 0.07895989 -0.12281332 -0.00030318354 0.07320591 0.10380753 -0.008177413
0.08426069 0.06342867 -0.09290201 -0.056787744 -0.035286643 0.0025580234 -0.08988569 -0.08699892
-0.100987956 0.03879104 -0.05195651 -0.10503816 0.050862867 0.070102364 0.025045963 0.0611837
-0.0110069765 -0.0023068064 0.116442665 0.08556857 -0.0051803007 -0.043219674 -0.12467728 0.022605812
0.1086084 -0.11995763 0.021812929 -0.009936197 -0.08028251 -0.120529175 -0.11032024 -0.011867293
0.10540679 -0.111738764 -0.032593474 -0.067940444 0.08523183 0.01695832 -0.05261207 0.047409862
0.021597521 0.07165944 -0.034936436 0.024536224 -0.07682108 0.016037889 0.060691185 0.07779036
-0.101760134 0.11439451 -0.021785887 0.055422105 0.09464594 -0.09624248 0.08200314 0.11482174
-0.095431685 0.012507898 -0.10932716 0.078149565 -0.11604773 0.06817984 -0.11210184 -0.05837829
0.08253474 -0.018663822 0.1084 0.02127006 -0.07364152 -0.10982146 0.1198354 0.074666604
0.030917075 0.09753754 -0.035785764 -0.10199259 0.037128046 -0.065842584 -0.10834039 -0.03328618
-0.07797566 0.029290194 -0.049400084 0.0975183 -0.08640546 -0.04631785 0.08984338 0.025777692
-0.0926538 -0.002238655 -0.096431054 0.052365273 -0.045026038 0.03649188 -0.017030325 0.00070148666
-0.050987232 -0.008512778 -0.12467596 -0.1278488 0.119311966 0.10518717 -0.08524925 0.07397781
0.024024574 -0.09382628 0.07003006 0.0088677285 -0.10960943 -0.06985662 0.0558805 -0.10847981

lstm.weight_hh_l1 f4 [256, 64]
00000000: 5c60 803c 9841 dcbd 3638 633d b23b 943d
00000010: 074e c7bd 3e3a e9bd f054 9c3c 94d9 a3bd
00000020: d770 5e3d 0032 5abd af14 87bd d5e3 5d3d
00000030: cce5 fd3d 779a 77bd a4a4 f0bc bd12 a0bd
00000040: 4c1b 6a3d e820 b8bc f194 81bd 412f d3bd
00000050: 71a8 c3bd 10d3 89bd 5387 bebd 0967 8f3d
00000060: 9a69 dc3d ce85 cd3d 2af0 d9bd 2c27 623d
00000070: c211 853d 0b03 cebc 5b79 d7bd ea19 90bd
00000080: 5df9 63bd f0a0 1b3d 8c62 a03c 89f6 babd
00000090: 82e1 1f3d ef23 babb e324 b4bd 48bb 153d
000000a0: b9bc 3cbd 64c3 df3d 6a17 edbc dab1 fc3d
000000b0: 43bc 743d 84e9 a53d 373e c3bd 09a9 d7bd
000000c0: 6c42 823c 796d cdbd 31f1 d3bd e5e8 533d
000000d0: d22b 803c 498e f23c d68a a6bd aa3b e03d
000000e0: 05d9 933d ed37 a93d c1b1 7cbd 5b86 ccbd
000000f0: f53a ee3d 0647 c9bd 8967 f0bc 4982 fabd
00000100: 7369 bfbd d396 0bbe a606 4b3d d65e 973d
00000110: c034 11be a837 e0bc 6a78 8d3d d1e8 d53d
00000120: 2fbf 06be 2136 cb3d 0acd dfbc cafa 9c3d
00000130: 2fb1 223d f6c4 043e b0e1 82bd 9a13 973d
00000140: e035 00be 47e1 153e 9465 f3bd 5c00 603d
00000150: f7bc 3b3d b9c3 13bc 6932 91bd abd1 9dbc
00000160: b9e0 843d 6fdc 693d bdc9 2abc a112 01be
00000170: 9cfb 5fbd 17c8 ae3d a0e8 fd3d d107 323d
00000180: c259 6fbb b0b2 c23d d4dc c73c 8ccd ae3d
00000190: 2345 823d dd70 b93c 3737 2c3d a856 9e3b
000001a0: 294f 02be 1532 adbd 9cb9 0fbe 2f77 b43d
000001b0: 54c7 b3bb a20e 9339 a957 e9bd a08b 1a3c
000001c0: f886 d5bd 218f e7bd d5fb d33d 48f3 5f3c
000001d0: c09f 56bd b8a7 753d 320b f13d 8c40 eabd
000001e0: 07a8 c4bc 8da9 b3bd d34b a13d cd42 ef3b
000001f0: f346 883b 9ba1 ae3d 7514 f23d ae42 b93d
00000200: 73b1 503c db3c 21bd 8483 bf3c d839 583d
00000210: 9a2a 71bd 8d90 8a3c 5085 78bd 21a8 91bd
00000220: 8a3e fbbd 4db2 d3bd 2a49 47bd f555 643d
00000230: df32 19bc f379 aa3c d8fa 92bb cb6d 683d
00000240: 7866 a33d ce7b aebd 6a9b c1bd 2435 9f3d
00000250: 984a c33d 2b8e 85bc cae2 9e3d 3cf3 ca3d
00000260: 9e13 82bd da00 79bd c1c9 7b3b 605c c4bd
00000270: 571f ae3d a1c9 943d 2e6f 05bd 99b1 e9bd
00000280: 8061 57bc 8df3 d6bb 4df1 ffbc 8944 bf3d
00000290: 1e46 673d 1275 6b3d b7cf b7bd 7eb0 c0bb
000002a0: 0406 113d 7115 42bd 2119 9f3d ab28 c4bd
000002b0: ab0c 75bd 5bff 5d3d bf3a 14bd 0edf 963c
000002c0: 66bb 553d 51b8 803d 0904 1dbd a89c b3bd
000002d0: dfb4 363d 5e67 d0bd 85fd bdbc d332 a6bc
000002e0: e407 173d 18f5 4d3d 99f3 e3bd 3ebb b23c
000002f0: 3ef2 cdbd 2595 853d e69c ad3d ec8a cdbd
00000300: 8ff9 db3d 0d19 e8bc 3390 7fbd 4183 8a3d
00000310: b2f1 b93d 7586 8abd 62e6 483d e0b1 cb3d
00000320: d6e2 fb3c 6565 163d 9c6d 083d 19fa 5a3d
00000330: 3890 44bd b52e ec3d 43ea 9cbc f672 cfbd
00000340: 4e30 30ba 8e4a c1bd a4aa e9bc d62e db3c
00000350: 5992 d73d 3afa cb3d 2d09 69bd e88d 013e
00000360: 6041 d8bb 94e5 973d 9d1e 13bd fdb0 c7bd
00000370: 9253 9e3d 15d5 733d f8d6 40bd 1526 8c3c
00000380: e832 57bc e185 b0bd 3d2f ad3c e76d 3ebc
00000390: 408f 823d f55f a53d 4674 dabd 920e e2bc
000003a0: 07ec 27bd d58d fbbd e2de 923d 5896 cf3d
000003b0: 8c2b cc3c 8b5a 92bc ceaa a93d 2408 9cbd
000003c0: 18d4 8fbd d201 adbd 4e76 6e3d 950c a4bd
000003d0: c793 ccbc 7191 cabd 035a c8bc 668e 9abd
000003e0: b630 c0bd 693e b23d e791 df3d 6374 833d
000003f0: 7124 9ebd c8a7 d1bb edaf cbbd 8eb1 e83d
0.015670948 -0.107546985 0.05547353 0.072379485 -0.097316794 -0.11388062 0.01908347 -0.08000484
0.05430683 -0.05327034 -0.06595742 0.054172356 0.12397346 -0.060450044 -0.029375382 -0.07816074
0.05715494 -0.022476628 -0.063272364 -0.10311747 -0.09553612 -0.0672971 -0.09303155 0.07002074
0.107623294 0.10035287 -0.10641511 0.05521314 0.06497528 -0.025147935 -0.105211936 -0.07036193
-0.055657733 0.03799528 0.01957824 -0.09129054 0.03903342 -0.005680553 -0.08796098 0.03655556
-0.046078417 0.1092594 -0.028941829 0.1233861 0.059749853 0.0810118 -0.09533351 -0.10530288
0.015900813 -0.10030646 -0.10348738 0.051735777 0.015645895 0.029608862 -0.081319496 0.1094888
0.072191276 0.0826262 -0.061692957 -0.09986564 0.11632339 -0.09828 -0.029346244 -0.12231881
-0.09346285 -0.13631754 0.049566887 0.073911354 -0.14180279 -0.027370289 0.06907733 0.10444797
-0.13158868 0.09922434 -0.02731945 0.07665022 0.039719757 0.1296576 -0.06390703 0.073767856
-0.12520552 0.14636718 -0.11884609 0.054687843 0.045834508 -0.009018832 -0.07089693 -0.019265017
0.06488175 0.057094987 -0.010424075 -0.12604763 -0.054683313 0.08534258 0.12397885 0.043464486
-0.0036522006 0.09506738 0.024397291 0.08535299 0.06360843 0.022636825 0.042044844 0.0048321076
-0.1272551 -0.08456818 -0.14035648 0.08811795 -0.0054864082 0.00028048927 -0.11393673 0.009432703
-0.10426134 -0.113065965 0.103507675 0.013668843 -0.052398443 0.059974402 0.117697135 -0.114380926
-0.024005903 -0.087725736 0.078757904 0.0073016644 0.0041588484 0.085269175 0.11820308 0.09045921
0.01273762 -0.039364677 0.023378141 0.05278954 -0.05887852 0.01691463 -0.06067401 -0.07112146
-0.12267788 -0.103367426 -0.04865376 0.055746038 -0.0093505075 0.020810103 -0.0044854693 0.05674533
0.07978529 -0.085197076 -0.09453471 0.07773808 0.09535712 -0.016303143 0.077581 0.099096745
-0.06351398 -0.060791828 0.0038419815 -0.09587932 0.08502071 0.0726502 -0.032576732 -0.11410827
-0.013145804 -0.0065597952 -0.03124299 0.09339244 0.056463353 0.057484694 -0.08975165 -0.0058804145
0.035406128 -0.04738373 0.07768465 -0.09578069 -0.059826534 0.054198604 -0.036188837 0.018416908
0.05218067 0.062851556 -0.038333926 -0.08770114 0.044606086 -0.10175966 -0.023192177 -0.020287907
0.03687276 0.050282568 -0.11130447 0.0218178 -0.1005597 0.06522588 0.084771916 -0.10036263
0.10740959 -0.028332258 -0.06239338 0.06763316 0.09079303 -0.06763927 0.049047835 0.09946036
0.030747812 0.03671779 0.033307657 0.053461168 -0.0479891 0.11532346 -0.019154673 -0.10129349
-0.0006721065 -0.09438048 -0.02852375 0.026755732 0.105259605 0.09959836 -0.056893516 0.12651789
-0.00659959 0.074168354 -0.035917867 -0.09750555 0.077307835 0.059529383 -0.04708001 0.017108003
-0.013134696 -0.086192854 0.021140689 -0.011622882 0.06374979 0.08074943 -0.10666709 -0.027594838
-0.040996578 -0.12282912 0.07171418 0.10136098 0.024923109 -0.01786544 0.082845315 -0.0761874
-0.070228755 -0.08447613 0.058218293 -0.08010212 -0.02497281 -0.09891022 -0.024456983 -0.075466916
-0.09384291 0.0870331 0.109165005 0.064186834 -0.077217944 -0.006398175 -0.099456646 0.11361991

lstm.bias_ih_l1 f4 [256]
00000000: b8c0 a83d ee73 523d a624 e3bd 1ccf 823c
00000010: c464 dc3d 8455 6ebd 6afa 06bc bd2b a23d
00000020: 43d5 99bb c4e5 3a3d f6e0 25bd eb3a 373c
00000030: b1b1 743d 4cd2 203d 59fb e7bd 9ce9 e03d
00000040: adb0 143c f78e f93c 594a 1ebd 517e 203d
00000050: 05df 233d 4a80 24bb dfc0 9dbc eab5 6fbd
00000060: fd1d 5fbd d0ae 043d b3d5 b0bc 52fe ebbd
00000070: b3ff ad3d 828b c9bd cad5 0f3d 1672 c3bd
00000080: 59ac 5cbd 4fbb afbd c12b 513d 379b 8b3d
00000090: 99b0 02be e9c5 2abd fd9e d53d 4c11 f53c
000000a0: 7f9e a0bd 31fb 183c 914d b3bd fcda f33d
000000b0: a590 fabd 9a4b f937 2968 05be fa6d b3bd
000000c0: 079c 10bd b3fe 4ebd c1cb 973d 4b6d db3d
000000d0: d9c4 e0bd 005c 0abd 636e a2bc b149 dfbc
000000e0: 826c 163d 43d2 73bd 29ea d3bd 6652 f53d
000000f0: ad25 213d e821 e43d 90c0 af3d ea6c 543d
00000100: a3c0 a43d f206 01be 3908 d3bd ca37 973b
00000110: e230 f3bd 6d6b ffbc 7bfb 943d 833e 31bd
00000120: 3ae4 dd3d eaeb cb3d 43dc e73c e80f a53d
00000130: 3336 ad3b 5a7a e33d de72 0cbe f704 9abc
00000140: 1aa6 36bd 1ea1 24bc a01d a3bd f5f6 70bd
00000150: 500d 6abd 693d 07be 5c5e d2bd 42c0 953c
00000160: dddc 80bd 6d4b 963d 3f3d d0bd a305 933d
00000170: c92b a6bd ec2b dabd 2493 af3d 37c8 3bbd
00000180: 48c9 9c3d f298 9dbd a1dc b63d 7fc2 08bd
00000190: f53e 74bc 1558 d33d 6af8 583d 6517 90bd
000001a0: f137 b33d ac97 5b3d bff8 2fbd 5048 553d
000001b0: cac6 eabd c34e ddbc 36e2 183d f68c 6fbd
000001c0: 9914 e0bd c7d4 2bbd bb35 79bd 9d06 d9bd
000001d0: 7af6 d4bd a3a0 ec3d 0b79 bf3c 7679 5f3d
000001e0: 594c f2bd 841c 2e3d 4f06 143d e5ce ce3d
000001f0: 3d0a 7dbc e837 783d 8a5d 44bd 2683 2d3a
00000200: 1b7a b63d ca4d fc3c df53 813d 39c8 bfbd
00000210: c5e0 5b3d 2bdd c1bc 01e1 4cbc 7a8c e0bd
00000220: 3338 9b3d e924 ec3d 7992 adbd 4a15 b5bd
00000230: 600f 3bbd 537d fdbd 33d0 2f3d 0550 003d
00000240: 65aa ae3c 3964 8ebc 07d3 c43d 56f6 bf3c
00000250: 088c 813c 46ff b73d 6d70 48bb cc4b b3bc
00000260: 4bb8 bc3d 7024 acbd e961 4b3d f9d0 c83d
00000270: f58f 83bd b105 49bd b95a c23d c377 d6bd
00000280: 974b 48bb d342 edbc e714 a4bd 369e 233d
00000290: 1117 de3c f9c1 383d a5de 63bd 52f6 863d
000002a0: 65ca 16bc a192 813d bb9c b93d 53e3 debd
000002b0: 0cc7 163d df25 90bc 8a04 a33d 272b a23d
000002c0: a254 c7bc 4d9e de3d 1242 94bd 7b66 c93b
000002d0: c283 0cbd 405a f83d d9c6 c5bd 2d43 933d
000002e0: eeeb 9ebd afa3 d3bc 51fc 933d c872 bbbd
000002f0: fb1e a1bd 7683 c9bc c26e 0c3d e57e 533d
00000300: 8bf7 bbbd d9c8 13be 61af 07bd 5393 fabd
00000310: 46d5 e33d 6a89 e6bd b6e6 be3c 577c f2bd
00000320: 03b6 13bc 2f69 e43d f0bc bbb9 0f67 123d
00000330: 97ae 97bd 455f d73c 83d7 c83d 22eb 5abd
00000340: 822e 3f3d fb25 8f3c 8897 303c 3119 47bd
00000350: f9f7 793c f0b4 4c3d 2c35 a03d 7086 8a3d
00000360: bd81 6abd cc96 82bd 19f4 5dbd 77bb dbbc
00000370: a440 9fbc 50fc a4bc 3d0a a2bd 6fe2 8fbd
00000380: 9cce a13d 3904 80bd 389d 51bd eac4 ac3d
00000390: 5083 02be 6b4c 1dbc 8b16 d43d fbae e1bd
000003a0: 0c94 cfbd 7f89 793d 1d98 87bd 17d0 c5bc
000003b0: 301b cd3d 42c1 d0bd 0c90 cb3d cf8a 423c
000003c0: 42c3 f1bd 47e8 dd3d 3224 cd3d c1a5 833c
000003d0: 4b69 783d 39ec 2d3d adf1 2c3c 3b84 ae3d
000003e0: e8c9 e63d 6cfb 0dbd 5641 58bd bc2a b7bd
000003f0: 28a5 c1bd 0e6c ba3d 8f50 60bd f51b 97bd
0.08239883 0.05138009 -0.110909745 0.015967898 0.10761407 -0.058187023 -0.008238414 0.07918499
-0.004694612 0.045629278 -0.040497743 0.011183481 0.059739772 0.039263055 -0.11327238 0.109820575
0.009075326 0.030463679 -0.038645122 0.039182965 0.04000761 -0.002510088 -0.019257007 -0.058523096
-0.05447196 0.032393277 -0.021586275 -0.11523117 0.084960364 -0.09841062 0.035115995 -0.095432445
-0.0538753 -0.08580648 0.051067118 0.06816714 -0.12762679 -0.041692648 0.10430715 0.029915474
-0.07842731 0.009337232 -0.08755029 0.11907002 -0.1223462 2.9718318e-05 -0.13028015 -0.08761211
-0.03530505 -0.05053587 0.0741191 0.10714205 -0.10975046 -0.033779144 -0.019828027 -0.027256818
0.036724575 -0.059526693 -0.10347397 0.11978607 0.03934257 0.111392796 0.0858165 0.05186168
0.08044555 -0.12600306 -0.10304303 0.004614805 -0.11874558 -0.031179154 0.072745286 -0.043272506
0.108345464 0.099571064 0.028303271 0.080596745 0.005286002 0.11107321 -0.13715693 -0.018801196
-0.044592 -0.010048179 -0.07964635 -0.058829267 -0.057141602 -0.1320702 -0.10271904 0.018280152
-0.06292126 0.07338605 -0.10167932 0.071788095 -0.0811382 -0.10652909 0.08572987 -0.045845237
0.07655579 -0.07695188 0.089288004 -0.03338861 -0.014907588 0.10319535 0.05297128 -0.07035712
0.08750904 0.053611442 -0.042961832 0.052070916 -0.11463697 -0.027015096 0.037325107 -0.05848404
-0.10941429 -0.041950967 -0.060842257 -0.105969645 -0.10398574 0.115540765 0.023373147 0.054559194
-0.118309684 0.042507663 0.03613883 0.10098056 -0.0154443355 0.06060019 -0.04794077 0.0006618969
0.089100085 0.030798811 0.06314825 -0.09364361 0.053681154 -0.023665031 -0.012504817 -0.10964294
0.075790785 0.115304776 -0.08475203 -0.08841951 -0.04566896 -0.12377419 0.042923164 0.031326313
0.021321485 -0.017381774 0.09610563 0.023432892 0.015813842 0.089842364 -0.003058459 -0.021886729
0.092148386 -0.084053874 0.04965392 0.09805483 -0.06423942 -0.049077693 0.0948996 -0.104720615
-0.0030562633 -0.028962528 -0.08011799 0.039945804 0.027110608 0.04510686 -0.055632252 0.065899506
-0.009203528 0.06326795 0.09063097 -0.108832024 0.03681092 -0.017596183 0.0795985 0.07918387
-0.024332348 0.10870037 -0.072391644 0.00614625 -0.03430534 0.12126589 -0.09657068 0.07190547
-0.07759844 -0.025834886 0.0722586 -0.09152752 -0.07867237 -0.024598818 0.034285314 0.051634688
-0.091780744 -0.14432086 -0.03312624 -0.12235131 0.11124663 -0.112566784 0.02330337 -0.11840122
-0.009015563 0.11152875 -0.0003580819 0.035742816 -0.07406347 0.026290545 0.098067306 -0.053446896
0.046675213 0.017474165 0.010778315 -0.04860801 0.015256875 0.049977243 0.07822642 0.06763923
-0.057252634 -0.063764185 -0.054187868 -0.026822789 -0.019440003 -0.020139843 -0.07912109 -0.07025611
0.07900736 -0.062508054 -0.051175326 0.08435996 -0.12745404 -0.009600739 0.10355862 -0.11019703
-0.101356596 0.060922142 -0.0662081 -0.024147077 0.10014951 -0.10193111 0.09939584 0.011873915
-0.118048206 0.10835319 0.10016669 0.016070249 0.06064729 0.042461608 0.010555667 0.08521315
0.11268979 -0.034663603 -0.052796684 -0.08943698 -0.09455329 0.09102641 -0.054764327 -0.07378379
