MLops_JAAA/models/model.pth (torch, 434046 bytes, 15 tensors)

fc1.weight f4 [256, 247]
-0.016374063 -0.03461842 -0.048185114 -0.049998753 -0.020583166 -0.033910234 0.019307924 -0.05763198
-0.056800786 -0.03911352 -0.029414006 -0.02379153 0.0075578783 -0.05393151 -0.011634876 -0.0428055
-0.051788077 0.0063154334 0.0068159807 -0.015713166 0.033479333 0.011516687 -0.021018377 -0.06396201
-0.028296476 -0.0113735255 0.017164495 0.021951532 0.004596057 -0.03862931 0.003965631 0.034089126
0.013581378 -0.05728771 -0.045534894 -0.0218247 0.023848437 0.060435943 0.025129056 -0.05047642
-0.0150302835 -0.049886867 0.034817126 0.0024896562 -0.027108653 0.05109484 0.023899304 0.058846086
0.028486665 -0.06631015 0.057529178 -0.02286807 0.047071617 -0.008057992 0.036318537 0.055327315
-0.008923985 -0.047459595 0.06006268 -0.043950025 -0.011463673 -0.039883137 0.032244906 0.0011978734
-0.002229674 0.04960961 -0.0027249542 -0.0016905862 0.038653117 -0.059661895 0.033786666 0.027013324
0.012611275 -0.06037988 0.017408453 -0.04816497 0.043913275 0.014262478 -0.059449423 -0.014708679
0.030594263 0.05549836 -0.030260658 0.0047010495 -0.029266581 -0.030810026 -0.014518994 0.02570624
0.046998564 0.0072463118 0.051814016 0.010283036 -0.044547796 0.03779227 0.04012973 -0.055481594
0.009235044 -0.042016592 0.007112171 -0.029935071 0.020486956 0.000326352 -0.06222077 0.03885179
-0.04333592 0.003724502 0.022317678 -0.03816811 0.0043232203 -0.065570824 0.054184996 0.036621463
0.006879537 0.010960962 0.028563078 -0.0047256933 -0.014199255 -0.0075983345 -0.0048227534 0.044993993
0.039804004 5.9367544e-06 0.014563809 0.031368654 -0.061663385 -0.0050759953 0.0034116944 0.009478677
-0.03390612 0.00088388077 -0.06624302 -0.0176482 0.010483419 -0.050884966 0.02952752 -0.035067666
-0.001953323 -0.009755863 -0.04725186 -0.025060164 -0.02124703 0.024995496 0.008069651 -0.03334837
0.012714154 -0.012580532 -0.058477636 -0.014394011 -0.003729342 -0.039601125 -0.00011925176 0.057395797
-0.032172445 -0.04176956 0.03385936 -0.06641038 -0.0022138837 -0.0044349823 -0.03722652 0.055916127
-0.018824205 -0.03852883 0.02714417 -0.047482103 0.04925188 0.034053136 0.046195637 0.01731615
0.049260855 -0.023618083 -0.058432683 0.03574349 0.012841762 -0.05372348 0.028199146 0.03230468
0.026179256 0.050846953 0.03263613 0.005351465 -0.018533329 -0.06711393 -0.061879035 0.029524924
-0.04236285 0.050925307 0.01857916 -0.030196672 -0.04348986 -0.03568871 -0.055258557 0.013436475
-0.023620563 0.05951112 -0.056500327 -0.040338196 0.008302653 0.026175657 0.000561029 -0.024069643
0.032896366 -0.045117915 0.056147974 -0.040442094 -0.007317741 0.007479 0.0046281377 0.02518234
-0.031006498 -0.014515294 0.023596538 0.027259007 0.0007243987 -0.020585982 -0.0016534883 0.018744325
-0.053069085 -0.031227475 -0.014964887 0.051596917 0.009334361 -0.01953602 -0.0009654915 -0.046156984
-0.03743043 0.018659297 0.0144274775 0.005533319 -0.049352136 0.042011354 -0.047205433 -0.038959764
0.049596168 0.014034478 0.0004400786 0.0006550611 0.02850611 -0.018741746 0.047920093 0.056950763
0.018417863 -0.025266105 0.0067819133 -0.060073756 0.028178127 -0.022496011 -0.060343307 -0.02781153
0.007436837 -0.03748082 -0.014675056 0.0020712581 -0.011814023 -0.004862389 -0.05125927 0.03380067
00000000: e622 86bc 0bcc 0dbd c15d 45bd 7ecb 4cbd
00000010: 079e a8bc 75e5 0abd a72b 9e3c 830f 6cbd
00000020: f1a7 68bd 8035 20bd a4f5 f0bc 74e6 c2bc
00000030: 14a8 f73b 49e7 5cbd 35a0 3ebc d254 2fbd
00000040: bc1f 54bd b2f1 ce3b 9758 df3b e6b8 80bc
00000050: a021 093d 7db0 3c3c bb2e acbc 84fe 82bd
00000060: 03ce e7bc 0658 3abc 8e9c 8c3c b3d3 b33c
00000070: 859a 963b c439 1ebd 20f2 813b 0aa1 0b3d
00000080: 6e84 5e3c 85a6 6abd cc82 3abd b7c9 b2bc
00000090: cc5d c33c ae8b 773d 73db cd3c 5dc0 4ebd
000000a0: 9441 76bc 2c56 4cbd 679c 0e3d 8029 233b
000000b0: f712 debc d348 513d 79c8 c33c 9808 713d
000000c0: de5c e93c 9ecd 87bd b7a3 6b3d d255 bbbc
000000d0: 2bce 403d ab05 04bc bfc2 143d e59e 623d
000000e0: e835 12bc fe64 42bd 4904 763d f104 34bd
000000f0: 21d2 3bbc 805c 23bd 3c13 043d f601 9d3a
00000100: b91f 12bb 7233 4b3d 2595 32bb a996 ddba
00000110: bb52 1e3d 0860 74bd e363 0a3d 0c4b dd3c
00000120: 859f 4e3c e550 77bd 2c9c 8e3c a248 45bd
00000130: 68de 333d 2bad 693c 3d81 73bd acfc 70bc
00000140: d2a0 fa3c 4052 633d 33e5 f7bc 430b 9a3b
00000150: 78c0 efbc 4f65 fcbc 13e1 6dbc e595 d23c
00000160: 9181 403d 7872 ed3b ef3a 543d 2e7a 283c
00000170: c077 36bd 11cc 1a3d 125f 243d ab40 63bd
00000180: 954e 173c 9719 2cbd 370d e93b 653a f5bc
00000190: 43d4 a73c 391a ab39 35db 7ebd 0e23 1f3d
000001a0: 0181 31bd c616 743b 90d3 b63c 2a56 1cbd
000001b0: cda9 8d3b ff49 86bd 16f1 5d3d 6300 163d
000001c0: bd6d e13b 9b95 333c 1efd e93c fdd9 9abb
000001d0: fea3 68bc 73fb f8bb 3008 9ebb 9f4b 383d
000001e0: 8609 233d 5534 c736 0b9d 6e3c 6b7c 003d
000001f0: bf92 7cbd 8954 a6bb bc96 5f3b 744c 1b3c
00000200: 25e1 0abd 3cb4 673a 6caa 87bd f592 90bc
00000210: a5c2 2b3c c16c 50bd b3e3 f13c 1da3 0fbd
00000220: 5203 00bb 0ed7 1fbc 2b8b 41bd f94a cdbc
00000230: 400e aebc 5bc3 cc3c 9236 043c 4d98 08bd
00000240: 074f 503c 931e 4ebc 3f86 6fbd dcd4 6bbc
00000250: fa67 74bb ca34 22bd cd16 fab8 db17 6b3d
00000260: 41c7 03bd 8f16 2bbd 1db0 0a3d 2a02 88bd
00000270: ce16 11bb 5453 91bb d67a 18bd 4f08 653d
00000280: 3835 9abc 68d0 1dbd 735d de3c 987c 42bd
00000290: 57bc 493d 4d7b 0b3d a337 3d3d 99da 8d3c
000002a0: c0c5 493d b67a c1bc 1c57 6fbd c467 123d
000002b0: 4166 523c 270d 5cbd e501 e73c ea51 043d
000002c0: e175 d63c e544 503d 76ad 053d 585b af3b
000002d0: 35d3 97bc 0773 89bd df74 7dbd 41de f13c
000002e0: ab84 2dbd 0e97 503d 5333 983c 035f f7bc
000002f0: 6c22 32bd 532e 12bd cc56 62bd a924 5c3c
00000300: e97f c1bc efc1 733d e36c 67bd aa39 25bd
00000310: da07 083c 556e d63c 0512 133a b32d c5bc
00000320: 57be 063d 90cd 38bd 6bfb 653d 9ca6 25bd
00000330: a9c9 efbb 6612 f53b a2a7 973b 324b ce3c
00000340: 5701 febc 8ed1 6dbc 874d c13c 484e df3c
00000350: 93e5 3d3a efa3 a8bc dcb9 d8ba b38d 993c
00000360: f85e 59bd c3d0 ffbc 492f 75bc 4a57 533d
00000370: 26ef 183c 010a a0bc 0a19 7dba 1b0f 3dbd
00000380: a750 19bd 62db 983c 3a61 6c3c d850 b53b
00000390: 7725 4abd 1914 2c3d 7c5a 41bd 4694 1fbd
000003a0: 5a25 4b3d def0 653c 5aba e639 68b8 2b3a
000003b0: a585 e93c 4a88 99bc dc47 443d 3445 693d
000003c0: 0fe1 963c ddfa cebc d03a de3b e60f 76bd
000003d0: d1d5 e63c 8e49 b8bc 8b2a 77bd 01d5 e3bc
000003e0: b6b0 f33b 7d85 19bd a56f 70bc f2bd 073b
000003f0: 9b8f 41bc ad54 9fbb 3ef5 51bd 9272 0a3d

fc1.bias f4 [256]
0.050740086 0.010175873 -0.0271183 -0.04429119 0.016806941 0.023855586 0.05557091 0.0056923
0.05543366 -0.04907059 0.04318932 0.0026550363 0.0017265447 0.04384168 -0.051005628 0.020921739
0.04199201 -0.048530675 -0.055043116 0.0018957607 0.031837665 0.04946713 0.033799678 0.051439736
0.017876806 -0.04991315 0.049131483 0.004119535 0.0074687926 0.01209233 -0.04352991 -0.0380158
0.02253788 -0.061596557 0.05012944 0.047893796 -0.015870618 0.026271174 -0.009035559 -0.0032397155
-0.029289534 0.005016762 0.01891329 -0.05732002 -0.05105527 0.0063173 -0.051574446 0.05950881
-0.03963388 0.027734388 -0.03568088 0.008452507 -0.049800422 -0.04960307 -0.0011535429 -0.033455927
-0.018051004 0.01624957 0.00019647104 0.047830433 -0.05992622 -0.024319474 0.012475422 0.0070222765
0.04855311 0.028928272 -0.051753372 -0.057393573 -0.069535166 0.0122633865 0.049198102 0.005167199
0.027433697 -0.015073661 -0.047116715 -0.013447432 -0.04651646 -0.016875328 -0.04670287 -0.018571356
-0.0012229588 0.047582816 -0.030024648 0.0058140345 -0.058347773 0.060047667 0.045535654 -0.022355778
0.0151588265 -0.0017016409 0.045313023 -0.04264723 0.029332219 -0.022871604 -0.059884988 0.050127782
0.018571291 0.049874954 -0.025961144 -0.06037183 0.028204758 0.0124542015 -0.0038985936 -0.034637332
0.0069365595 0.03542835 -0.06337826 -0.036491457 -0.019221226 0.04314732 -0.064234175 -0.05183154
0.009243415 -0.037522115 0.02442118 -0.0014775579 -0.033425782 0.060765937 -0.06747304 0.05521404
0.022573559 -0.049313065 -0.0036679106 0.05585451 -0.015977008 -0.005804396 0.04035472 0.053057678
0.048370775 -0.0067621036 -0.0042217225 0.056298915 0.04578397 -0.03534242 -0.05947387 0.06090482
-0.06805386 0.02762667 0.016915761 -0.05619895 -0.0405313 -0.054333225 0.030551517 -0.024756346
-0.0629676 -0.026367377 -0.014762947 0.05868964 0.03213335 0.05674396 0.046258297 0.0050478675
0.044591162 0.032853875 0.022757191 -0.052313846 0.0056207203 0.09043766 -0.026913255 -0.042517498
-0.008295474 -0.0018347217 0.014720241 -0.011713318 -0.062190194 0.016681848 -0.013057461 0.04863032
-0.020431621 0.047075238 -0.019576171 0.009692589 0.006009395 -0.010045226 -0.06000076 0.0070723146
0.021384878 -0.048941724 -0.052795045 -0.02353086 -0.06791662 0.044879414 -0.0065087792 0.054916315
0.025053272 -0.028455414 0.05006874 -0.01310663 0.039385527 0.049580898 0.040121023 -0.042423192
-0.0050282246 -0.03787094 -0.030788042 0.020833898 -0.059884693 0.053780947 0.016314004 -0.04779442
-0.05660768 -0.0023275923 0.0055114627 0.024817767 0.058882553 -0.059042018 -0.00765701 -0.033865016
0.048639506 0.05153352 -0.027841358 -0.03216097 -0.058244284 -0.06729469 0.046482082 0.04850779
-0.0518493 -0.017291283 -0.043798886 0.05434105 0.01571225 0.0073827575 0.053705618 -0.0016165073
-0.011852145 0.017152514 0.028305206 0.018842874 0.008944226 -0.03862161 -0.02718111 -0.03929538
0.041975554 -0.02815477 -0.04048841 0.020634249 -0.015555192 0.058682986 -0.023742413 -0.017906275
-0.056894626 0.028407643 0.0043823505 0.04270993 0.048920836 -0.035877448 -0.0695294 -0.021858882
-0.06871359 0.030813865 0.012422061 0.008795587 0.043397356 -0.05831754 0.03632486 -0.013424423
00000000: d6d4 4f3d b4b8 263c 3227 debc ae6a 35bd
00000010: b6ae 893c ca6c c33c 539e 633d 7986 ba3b
00000020: 680e 633d 3efe 48bd 49e7 303d 1e00 2e3b
00000030: 3a4d e23a 5593 333d 47eb 50bd 1164 ab3c
00000040: d0ff 2b3d 1ac8 46bd e474 61bd 2c7b f83a
00000050: 3668 023d 0c9e 4a3d 8871 0a3d 79b2 523d
00000060: 6172 923c bb71 4cbd 183e 493d 2afd 863b
00000070: c6bc f43b e81e 463c 6b4c 32bd 75b6 1bbd
00000080: 5ca1 b83c ac4c 7cbd 8754 4d3d 492c 443d
00000090: 1903 82bc a536 d73c e209 14bc 6851 54bb
000000a0: 9bf0 efbc a663 a43b 0bf0 9a3c 66c8 6abd
000000b0: 551f 51bd 5a01 cf3b ba3f 53bd 83bf 733d
000000c0: 2357 22bd 3a33 e33c 1d26 12bd 627c 0a3c
000000d0: 87fb 4bbd 972c 4bbd 7a32 97ba 1509 09bd
000000e0: b3df 93bc d11d 853c cb03 4e39 d8e9 433d
000000f0: 3275 75bd a239 c7bc b665 4c3c 201b e63b
00000100: a0df 463d fcfa ec3c 58fb 53bd 8615 6bbd
00000110: 7468 8ebd 5fec 483c f383 493d 9b51 a93b
00000120: a2bc e03c 84f7 76bc 75fd 40bd 9e52 5cbc
00000130: 0b88 3ebd 213e 8abc 824b 3fbd f522 98bc
00000140: b04b a0ba 33e6 423d 40f6 f5bc a883 be3b
00000150: 13fe 6ebd 8bf4 753d 9883 3a3d 7723 b7bc
00000160: ba5c 783c 9809 dfba 269a 393d ddae 2ebd
00000170: 1f4a f03c 3b5d bbbc f649 75bd ca52 4d3d
00000180: d222 983c ae49 4c3d 77ac d4bc 7448 77bd
00000190: aa0d e73c b50c 4c3c 8c7f 7fbb e0df 0dbd
000001a0: 144c e33b 511d 113d 76cc 81bd 1178 15bd
000001b0: d575 9dbc 3fbb 303d 358d 83bd 4f4d 54bd
000001c0: b171 173c cab0 19bd ed0e c83c 9eaa c1ba
000001d0: 79e9 08bd b4e5 783d 4e2f 8abd 1e28 623d
000001e0: 2fec b83c 7ffc 49bd 5461 70bb b3c7 643d
000001f0: 37e2 82bc cd32 bebb fe4a 253d 0253 593d
00000200: 6f20 463d a394 ddbb 6056 8abb b199 663d
00000210: f987 3b3d 37c3 10bd df9a 73bd 5577 793d
00000220: d25f 8bbd 5451 e23c ec92 8a3c df30 66bd
00000230: 2604 26bd 848c 5ebd 2d47 fa3c d2cd cabc
00000240: 28f5 80bd 6600 d8bc 4ae0 71bc 8c64 703d
00000250: 429e 033d 5b6c 683d 5779 3d3d 9568 a53b
00000260: 39a5 363d c991 063d 4a6d ba3c 0b47 56bd
00000270: 052e b83b 6137 b93d 3079 dcbc d426 2ebd
00000280: bde9 07bc 0b7b f0ba 2a2d 713c 37e9 3fbc
00000290: 25bb 7ebd 5fa8 883c f6ee 55bc 9630 473d
000002a0: 3760 a7bc f7d1 403d 355e a0bc aacd 1e3c
000002b0: 75ea c43b bb94 24bc 5bc3 75bd e0be e73b
000002c0: 572f af3c 1e77 48bd 9e3f 58bd cac3 c0bc
000002d0: de17 8bbd 7ad3 373d 9947 d5bb eeef 603d
000002e0: 853c cd3c 541b e9bc e114 4d3d 31bd 56bc
000002f0: b852 213d 5715 4b3d f155 243d f1c3 2dbd
00000300: cec3 a4bb 8f1e 1bbd 3437 fcbc daab aa3c
00000310: a749 75bd 6949 5c3d f2a4 853c 15c4 43bd
00000320: 74dd 67bd 858a 18bb 8099 b43b a14e cb3c
00000330: d52e 713d 0bd6 71bd a8e7 fabb 0bb6 0abd
00000340: 383a 473d d014 533d 8f13 e4bc 39bb 03bd
00000350: 8f91 6ebd ccd1 89bd ff63 3e3d 1bb0 463d
00000360: ee5f 54bd 73a6 8dbc 7666 33bd b994 5e3d
00000370: fab6 803c 0feb f13b 6cfa 5b3d fce0 d3ba
00000380: 802f 42bc 6e83 8c3c 52e0 e73c 5f5c 9a3c
00000390: ce8a 123c b131 1ebd ebaa debc 31f4 20bd
000003a0: 8fee 2b3d d5a4 e6bc 2dd7 25bd 2809 a93c
000003b0: 34db 7ebc 925d 703d 737f c2bc 2eb0 92bc
000003c0: 570a 69bd 25b7 e83c d299 8f3b 9cf0 2e3d
000003d0: 3761 483d 3bf4 12bd 6e65 8ebd 6611 b3bc
000003e0: b6b9 8cbd 5c6d fc3c e685 4b3c 5e1b 103c
000003f0: 6dc1 313d 5fde 6ebd 60c9 143d 1cf2 5bbc

fc2.weight f4 [128, 256]
0.028119346 -0.052977566 -0.010601935 -0.0026735375 0.026618175 -0.0076651797 -0.02079133 -0.01565635
0.029240206 0.02955819 -0.054034878 0.059233356 -0.06319137 -0.016441043 -0.04679463 -0.016987072
0.03298418 0.062102143 0.05604363 0.037084185 0.010773471 0.020518355 -0.022320656 0.031591583
-0.05106213 -0.029405592 0.05497425 -0.051661644 0.038916353 -0.0059534633 0.026896864 -0.046297327
-0.052805636 0.031641223 -0.060040105 -0.029993234 -0.021100491 0.01992083 -0.033136528 -0.052540947
-0.011666895 -0.069184214 0.029767063 0.037159067 0.01904951 -0.00675498 0.019505225 -0.05813902
-0.028114714 0.053684603 -0.02135019 0.016339932 -0.046230283 0.019456826 0.039238237 -0.054530807
0.0128538385 -0.030562874 0.005876946 0.038254034 -0.05627066 -0.027847981 -0.020280521 -0.031068545
-0.041500676 -0.016358055 -0.052710697 -0.02889891 0.00050290837 -0.043787185 0.017292382 -0.00241475
-0.008896917 -0.01752016 -0.046953436 0.056109414 0.046960138 -0.051913843 0.012282289 -0.0012425913
-0.029770603 0.025377357 -0.035260655 -0.0060008913 0.048482895 -0.052187607 0.046144553 0.025559273
-0.016457431 -0.011614519 -0.060788497 -0.028312542 0.049534995 0.025190996 -0.07786241 -0.019183131
-0.063982874 0.03806278 -0.04289364 -0.06282255 0.040959556 -0.041992765 -0.0619618 -0.041496366
-0.0060770246 0.03409442 -0.03848258 0.0123176 0.0076439837 0.023743888 0.0011605725 -0.114996195
-0.040612392 0.02228079 -0.06814984 0.0446892 -0.07971793 -0.029603474 0.02205845 0.0052506914
0.022051098 0.001552896 0.00026347025 -0.027557675 0.019659214 0.09976671 0.059462048 -0.049405653
-0.02926112 0.05888407 0.0149814105 -0.00809741 0.013301686 -0.041456845 0.0377196 0.02660003
0.013699539 -0.061848257 -0.050927565 0.007855304 -0.056221485 0.044558786 -0.03306753 -0.027134584
0.055711843 -0.053573836 -0.012868678 0.020156942 0.03930033 0.0023904527 0.006430775 0.006631055
-0.0003259043 -0.0072693285 0.03412631 0.017416133 0.030868247 0.06970106 -0.011944922 -0.022846162
0.1060447 -0.054052807 -0.056324154 -0.01811735 -0.027611487 -0.02410534 0.01495874 -0.04667827
-0.018274337 0.013970248 0.057661705 0.0046572965 0.008702338 -0.07344203 -0.06478006 0.03310837
0.048493095 -0.022624016 0.057674162 0.0059096524 0.016517486 -0.03204445 -0.061460786 -0.02547168
-0.032156073 -0.039495006 -0.039891407 -0.005421214 0.043840617 0.045483284 -0.012647983 0.04267213
-0.002758188 -0.028085543 -0.054413512 0.030424511 0.0037135559 0.018089209 0.017842285 0.018259674
0.019071167 -0.0027859868 -0.062292226 0.046276987 -0.011358149 0.02858553 0.0143804345 -0.0127855735
-0.010464587 0.025312202 0.038653746 -0.002707995 -0.021396741 0.04446017 -0.03537585 0.030620605
0.03498738 0.030030057 -0.0780417 -0.06179404 -0.026704818 -0.009179314 0.010900895 -0.014615694
0.039721563 0.012336625 0.0134487655 0.0016255528 0.088422395 -0.03380322 -0.045424666 -0.03208691
0.033814214 0.0019313224 0.03689304 0.03861624 -0.019283522 -0.04757537 0.023750572 -0.0203797
0.04657235 0.07087029 0.063705474 -0.02253053 -0.1018893 -0.041177645 0.02746263 -0.045801476
0.045635886 0.01191918 -0.014737985 0.048677605 0.016344033 0.020386513 -0.017077288 0.0040264283
00000000: 8b5a e63c 01ff 58bd bdb3 2dbc 8436 2fbb
00000010: 5c0e da3c 302c fbbb 9452 aabc bf41 80bc
00000020: 2889 ef3c 0424 f23c ad53 5dbd ad9e 723d
00000030: 7a6a 81bd 5eaf 86bc baab 3fbd 7928 8bbc
00000040: 6b1a 073d d15e 7e3d 018e 653d 96e5 173d
00000050: 3683 303c 1c16 a83c cfd9 b6bc 2d66 013d
00000060: 8626 51bd ffe3 f0bc ae2c 613d 299b 53bd
00000070: c166 1f3d 4515 c3bb d056 dc3c 44a2 3dbd
00000080: b94a 58bd 3a9a 013d 9dec 75bd 5fb4 f5bc
00000090: f0da acbc 0231 a33c 2bba 07bd 2d35 57bd
000000a0: 8126 3fbc 74b0 8dbd 0eda f33c 1b34 183d
000000b0: b80d 9c3c e158 ddbb 6cc9 9f3c 2e23 6ebd
000000c0: d450 e6bc 63e4 5b3d 98e6 aebc 52db 853c
000000d0: f75b 3dbd ec63 9f3c 46b8 203d b25b 5fbd
000000e0: e898 523c fe5e fabc 6593 c03b 43b0 1c3d
000000f0: 107c 66bd 7321 e4bc 5623 a6bc 7683 febc
00000100: 9dfc 29bd 5401 86bc 2ce7 57bd 68bd ecbc
00000110: 9cd5 033a 315a 33bd c1a8 8d3c c840 1ebb
00000120: 60c4 11bc 7086 8fbc 3f52 40bd fcd2 653d
00000130: 4659 403d 9ca3 54bd a73b 493c 72de a2ba
00000140: 7be1 f3bc 2de4 cf3c 7a6d 10bd 20a3 c4bb
00000150: 0096 463d acc2 55bd 1202 3d3d ae61 d13c
00000160: bcd1 86bc d34a 3ebc 5cfd 78bd b4ef e7bc
00000170: 35e5 4a3d 595d ce3c 5476 9fbd f125 9dbc
00000180: 7409 83bd b8e7 1b3d 3eb1 2fbd 1ca9 80bd
00000190: 35c5 273d 9b00 2cbd a8cb 7dbd 18f8 29bd
000001a0: c721 c7bb 97a6 0b3d e99f 1dbd c2cf 493c
000001b0: 627a fa3b 8b82 c23c 5a1e 983a 2083 ebbd
000001c0: 2e59 26bd 3486 b63c 2592 8bbd 060c 373d
000001d0: 2743 a3bd fc82 f2bc ecb3 b43c fe0d ac3b
000001e0: 81a4 b43c 8b8a cb3a 6122 8a39 a2c0 e1bc
000001f0: 5c0c a13c 7d52 cc3d 7a8e 733d 955d 4abd
00000200: 04b5 efbc 6c30 713d 9774 753c 00ab 04bc
00000210: 51ef 593c a7ce 29bd de7f 1a3d 4ee8 d93c
00000220: 0874 603c 9954 7dbd 6c99 50bd 88b3 003c
00000230: 8048 66bd 4683 363d d171 07bd 5949 debc
00000240: 1a32 643d 3d70 5bbd 26d7 52bc 2c20 a53c
00000250: 62f9 203d 24a9 1c3b 40b9 d23b 5249 d93b
00000260: 22de aab9 8c33 eebb 08c8 0b3d 47ac 8e3c
00000270: 68df fc3c 6ebf 8e3d a2b4 43bc e027 bbbc
00000280: f72d d93d 7a66 5dbd 28b4 66bd d66a 94bc
00000290: 7c31 e2bc 9078 c5bc 8115 753c b731 3fbd
000002a0: 10b4 95bc 78e3 643c ae2e 6c3d 3c9c 983b
000002b0: 4094 0e3c c668 96bd 68ab 84bd a49c 073d
000002c0: b2a0 463d 0056 b9bc be3b 6c3d c2a5 c13b
000002d0: ae4f 873c 0b41 03bd 4ebe 7bbd fca9 d0bc
000002e0: 16b6 03bd 84c5 21bd 2c65 23bd 70a4 b1bb
000002f0: 3892 333d ae4c 3a3d 7c39 4fbc f9c8 2e3d
00000300: b7c2 34bb a713 e6bc b4e0 5ebd d33c f93c
00000310: 215f 733b d22f 943c fc29 923c 5095 953c
00000320: 233b 9c3c 1a95 36bb 2226 7fbd f08c 3d3d
00000330: 8817 3abc 342c ea3c ea9b 6b3c 957a 51bc
00000340: a973 2bbc 895b cf3c 6453 1e3d 9e78 31bb
00000350: 3848 afbc de1b 363d 44e6 10bd 10d8 fa3c
00000360: ed4e 0f3d 9801 f63c 54d4 9fbd bf1b 7dbd
00000370: 10c4 dabc d564 16bc ab99 323c aa76 6fbc
00000380: 14b3 223d 8e1f 4a3c 3658 5c3c 8010 d53a
00000390: cd16 b53d 3f75 0abd 370f 3abd 906d 03bd
000003a0: c680 0a3d 6d24 fd3a 281d 173d 102c 1e3d
000003b0: 7af8 9dbc 64de 42bd 8f90 c23c 54f3 a6bc
000003c0: a6c2 3e3d 7124 913d 0478 823d f291 b8bc
000003d0: 56ab d0bd e4a9 28bd 4ff9 e03c 549a 3bbd
000003e0: b2ec 3a3d aa48 433c 9777 71bc 2b62 473d
000003f0: ece3 853c 9e01 a73c abe5 8bbc 21f0 833b

fc2.bias f4 [128]
-0.03437126 0.047207996 0.035807233 -0.00640597 0.034516104 0.05287918 0.008255377 0.008221325
0.017504752 0.048060577 0.013947852 0.00067069137 0.04247957 -0.014719618 0.05887236 -0.021020176
-0.0488721 -0.053735442 0.028552974 0.047941264 -0.046260096 -0.035501868 0.04502216 0.014297621
0.018989783 0.034282643 -0.036302783 -0.010132179 0.018462142 -0.03924697 0.042950295 0.0031372767
-0.041776225 0.022559801 -0.039129227 0.046585206 0.02952434 -0.045440942 0.021910353 0.043869123
0.052859735 0.03278094 -0.028074466 -0.0067927064 0.08630037 0.06001094 -0.04461965 -0.03038355
-0.03431821 0.06505197 0.015000106 0.019593894 -0.04273219 0.053302437 0.024440091 -0.01512589
-0.051557634 -0.06371264 0.017566519 -0.011912889 -0.044558246 0.03244122 -0.0363156 -0.029924983
0.060430977 -0.021595038 0.038048983 0.0016461584 -0.001327578 -0.057874985 -0.017091047 -0.018143399
-0.031052504 0.10952122 -0.015535125 0.015762607 0.05165809 0.033463158 -0.047241397 0.0075216466
-0.030801978 0.08524827 -0.057598382 0.01829652 -0.059610564 -0.006523758 -0.05187992 -0.031178903
-0.029301157 0.0024934735 -0.016315194 -0.030620568 0.034005836 0.054406952 0.03317605 0.03917712
-0.02903631 -0.042444173 -0.025397805 -0.014738254 0.04534888 0.033555403 -0.053419396 -0.032977216
0.01220341 0.03443252 0.047766943 0.02929385 -0.054762505 0.0023565919 0.016495194 0.008251004
-0.031134216 -0.0049684346 0.04305437 0.059274275 -0.018474529 -0.051158667 -0.036977407 0.06616402
0.019175068 -0.014074959 -0.011577121 0.011945885 -0.014334395 -0.008872443 -0.046654228 0.06579058
00000000: e1c8 0cbd 2c5d 413d 9baa 123d 2ce9 d1bb
00000010: c260 0d3d d797 583d 9041 073c bdb2 063c
00000020: 2066 8f3c 2bdb 443d 8885 643c 56d1 2f3a
00000030: 0fff 2d3d 8d2a 71bc 2524 713d 8132 acbc
00000040: 1c2e 48bd b219 5cbd ede7 e93c 0f5e 443d
00000050: 3a7b 3dbd 686a 11bd 2869 383d 9240 6a3c
00000060: 7690 9b3c f56b 0c3d 3ab2 14bd 7001 26bc
00000070: eb3d 973c 6ec1 20bd a6ec 2f3d c59a 4d3b
00000080: 8c1d 2bbd 55cf b83c f845 20bd 21d0 3e3d
00000090: 07dd f13c 4820 3abd 577d b33c 1cb0 333d
000000a0: 7383 583d 4f45 063d 6cfc e5bc 5a95 debb
000000b0: 40be b03d 08ce 753d 18c3 36bd ece6 f8bc
000000c0: 4091 0cbd f839 853d 01c3 753c 6083 a03c
000000d0: f307 2fbd a853 5a3d 9636 c83c 95d2 77bc
000000e0: 192e 53bd c67b 82bd a9e7 8f3c 472e 43bc
000000f0: b582 36bd 16e1 043d abbf 14bd 3d25 f5bc
00000100: 7986 773d 14e8 b0bc 40d9 1b3d e9c3 d73a
00000110: 2002 aeba 520e 6dbd 8602 8cbc 77a1 94bc
00000120: d261 febc a94c e03d 0987 7ebc 9520 813c
00000130: 6f97 533d aa10 093d 3280 41bd 2578 f63b
00000140: 6e54 fcbc a596 ae3d 48ec 6bbd 95e2 953c
00000150: 352a 74bd 40c5 d5bb 0a80 54bd e66a ffbc
00000160: fb08 f0bc 8b69 233b 71a7 85bc fcd7 fabc
00000170: b449 0b3d d3d9 5e3d 9ce3 073d 3078 203d
00000180: 8edd edbc f1d9 2dbd 0f0f d0bc b878 71bc
00000190: bfbf 393d 6471 093d 4cce 5abd 1e13 07bd
000001a0: d0f0 473c 1d09 0d3d 45a7 433d a8f9 ef3c
000001b0: a64e 60bd 0d71 1a3b ee20 873c 382f 073c
000001c0: 2f0d ffbc 40ce a2bb c759 303d 95c9 723d
000001d0: e557 97bc c08b 51bd 9f75 17bd 0081 873d
000001e0: 0815 9d3c a89a 66bc f7ad 3dbc acb8 433c
000001f0: cfda 6abc b95d 11bc 8118 3fbd 36bd 863d

fc3.weight f4 [64, 128]
0.07391245 -0.05067307 -0.07060206 0.078596614 -0.03400381 0.019903926 0.06394475 0.017474808
-0.07026879 -0.07333789 0.029665848 0.08743598 -0.048677612 0.026112573 0.07885013 0.04294593
-0.07271029 -0.096191965 -0.030520502 -0.045161903 -0.07913395 0.05181032 0.06451672 -0.0148441
-0.013090963 -0.03298221 -0.08538998 0.049459264 -0.017688947 0.031565677 0.03357112 -0.075543135
-0.029044686 0.05316097 0.054233268 -0.081728294 0.068459086 0.021370906 -0.011191051 0.0022081994
0.061622337 -0.027890833 -0.060703594 -0.07993607 0.05188385 0.0013765694 -0.04215727 0.03833808
-0.083954245 0.0054114982 -0.006543449 0.033303123 0.015242426 0.027919866 0.018831272 -0.0057669864
-0.016739339 0.060301334 0.048598066 0.0744913 -0.088335656 0.06275988 0.012031758 0.13758892
0.12644912 0.051077798 0.03490811 0.018744372 0.008796177 0.068583466 0.020248177 0.06605961
-0.056305952 0.04509474 0.101919755 0.044277135 0.035596736 -0.043998115 -0.033739816 0.06273831
-0.06554474 0.12563315 0.027287986 0.027888421 -0.07054621 -0.011150196 -0.07056023 0.004135194
-0.037711747 0.07273932 -0.05155937 -0.013832016 0.07333283 0.023775587 0.07592891 -0.041630805
0.015765952 -0.09499156 -0.06314567 -0.06563371 0.024176193 0.12715168 0.040032294 -0.04127929
-0.031330697 0.011718471 0.06491553 0.073331654 -0.07380378 0.0675648 0.04647896 -0.027086494
0.0070378482 0.04187789 0.047970053 -0.017517364 -0.06901243 0.0097891465 -0.090241104 0.02062986
-0.07115336 0.060180884 0.044545937 -0.019116081 0.04433864 0.012755525 0.04488685 -0.0050365315
0.008749301 0.020957073 0.06556115 0.09138391 0.01574959 -0.047699533 0.04622868 -0.035842117
-0.033797145 -0.01514783 0.073682584 0.02862164 -0.09449631 0.04082338 -0.00580045 -0.04730686
-0.1260839 -0.08548342 0.011047376 -0.038863122 -0.07953999 0.0065899645 0.04698094 -0.14056534
-0.087464415 -0.092084564 0.0072185327 -0.0005505537 0.048896786 0.049513076 0.07074526 0.0010909501
-0.1129652 0.061534267 -0.025187613 -0.054465037 0.08623526 -0.057756074 0.036628705 0.03987096
-0.12390741 0.01908866 -0.06413834 -0.06554048 0.11305271 -0.0029823384 0.023205135 -0.0449093
0.028097397 -0.020302556 0.09027492 -0.099688984 -0.062282734 0.16413794 -0.017819192 -0.063415475
0.031998854 0.07579828 -0.018995289 0.024283981 -0.008746596 -0.09300454 0.06700865 -0.033682182
-0.0661095 0.10175852 0.0067431373 -0.05432694 -0.13063288 0.07453082 0.06559088 0.054655768
0.064422354 0.035888802 0.0675411 0.07477812 0.009459371 -0.08558052 -0.08711101 -0.033599913
-0.0824411 0.058274336 -0.056139916 -0.065168165 -0.096387185 -0.08939111 -0.013375966 0.08506436
0.031223051 0.03004536 -0.022440309 -0.07561365 -0.111028776 0.0012167111 -0.082117066 0.0037334943
-0.028646043 -0.16056623 -0.029262345 0.057525612 -0.052985642 -0.117413595 -0.0093615 -0.0014932144
-0.019076245 0.11198228 0.00044457547 -0.045321465 -0.1262224 0.038086135 0.090496 -0.070569314
-0.053594783 0.05685217 0.1954515 -0.04779328 0.07443734 0.062197708 -0.08815127 0.058535114
0.060694847 0.04585659 -0.066483766 0.11237508 0.028347678 0.035500437 -0.040246964 -0.043194786
00000000: 695f 973d 918e 4fbd d097 90bd 43f7 a03d
00000010: 9447 0bbd 8f0d a33c 77f5 823d 5427 8f3c
00000020: 15e9 8fbd 2d32 96bd cb05 f33c a311 b33d
00000030: 2d62 47bd 09ea d53c 2d7c a13d 12e8 2f3d
00000040: 22e9 94bd 4b00 c5bd 2206 fabc b0fb 38bd
00000050: fb10 a2bd 0f37 543d 5821 843d ab34 73bc
00000060: 7a7b 56bc 5b18 07bd f1e0 aebd cc95 4a3d
00000070: 69e8 90bc 034b 013d df81 093d 5cb6 9abd
00000080: 1fef edbc 51bf 593d b423 5e3d 2a61 a7bd
00000090: 4734 8c3d 0a12 af3c ac5a 37bc 70b7 103b
000000a0: b467 7c3d 517b e4bc 55a4 78bd 86b5 a3bd
000000b0: 2984 543d 016e b43a 1aad 2cbd 6408 1d3d
000000c0: 34f0 abbd f052 b13b 6e6a d6bb db68 083d
000000d0: 5ebb 793c 34b8 e43c 0a44 9a3c fdf8 bcbb
000000e0: f020 89bc 88fe 763d c40e 473d e58e 983d
000000f0: 53e9 b4bd 4188 803d da20 453c 1ce4 0c3e
00000100: e17b 013e f436 513d cefb 0e3d cc8d 993c
00000110: d71d 103c 7d75 8c3d 81df a53c 434a 873d
00000120: 12a1 66bd 43b5 383d 4ebb d03d f15b 353d
00000130: e2cd 113d 5e37 34bd c332 0abd f17c 803d
00000140: 523c 86bd faa5 003e 0e8b df3c 4276 e43c
00000150: 887a 90bd 50af 36bc e281 90bd 8580 873b
00000160: a277 1abd 5af8 943d eb2f 53bd ae9f 62bc
00000170: 862f 963d 05c5 c23c 9e80 9b3d 1085 2abd
00000180: 9927 813c ef8a c2bd 8452 81bd f76a 86bd
00000190: 270d c63c 0d34 023e e7f8 233d 7914 29bd
000001a0: 9e54 00bd d4fe 3f3c 6ff2 843d e82e 963d
000001b0: 7026 97bd 6a5f 8a3d b960 3e3d 7fe4 ddbc
000001c0: c09d e63b 2688 2b3d 3f7c 443d 9380 8fbc
000001d0: 6456 8dbd a862 203c 54d0 b8bd f4ff a83c
000001e0: dab8 91bd 3b80 763d cd75 363d 5499 9cbc
000001f0: 6f9c 353d 8dfc 503c 46db 373d 7d09 a5bb
00000200: 3a59 0f3c 2bae ab3c ed44 863d 7d27 bb3d
00000210: 4905 813c 9660 43bd 495a 3d3d 2fcf 12bd
00000220: e06e 0abd 9b2e 78bc e5e6 963d ee77 ea3c
00000230: 4887 c1bd 6b36 273d b411 bebb d7c4 41bd
00000240: 231c 01be ee11 afbd 0e00 353c f02e 1fbd
00000250: dde5 a2bd a1f0 d73b 166f 403d 5cf0 0fbe
00000260: 8b20 b3bd d596 bcbd 7189 ec3b 0953 10ba
00000270: ff47 483d 39ce 4a3d e4e2 903d 36fe 8e3a
00000280: 4c5a e7bd 5b0b 7c3d 4156 cebc bb16 5fbd
00000290: 1d9c b03d a291 6cbd fb07 163d bb4f 233d
000002a0: 2bc3 fdbd d25f 9c3c f65a 83bd 163a 86bd
000002b0: 2e88 e73d 5673 43bb b218 be3c d0f2 37bd
000002c0: 832c e63c 8c51 a6bc 0fe2 b83d bd29 ccbd
000002d0: 2e1c 7fbd c713 283e 8ef9 91bc f9df 81bd
000002e0: 3b11 033d 213c 9b3d 029c 9bbc 33ef c63c
000002f0: e24d 0fbc 2a79 bebd d53b 893d 54f6 09bd
00000300: 6b64 87bd c566 d03d 89f5 dc3b ed85 5ebd
00000310: a0c4 05be 9da3 983d 8354 863d bade 5f3d
00000320: deef 833d 2300 133d fd52 8a3d 4525 993d
00000330: 7afb 1a3c d744 afbd 4267 b2bd 10a0 09bd
00000340: e1d6 a8bd 12b1 6e3d f8f2 65bd e376 85bd
00000350: a566 c5bd b012 b7bd de26 5bbc 3936 ae3d
00000360: 7cc7 ff3c b021 f63c bdd4 b7bc 54db 9abd
00000370: 0e63 e3bd 0d7a 9f3a fe2c a8bd a4ad 743b
00000380: 1bab eabc 796b 24be 96b7 efbc fa9f 6b3d
00000390: 7907 59bd 8a76 f0bd fa60 19bc f6b7 c3ba
000003a0: c945 9cbc f756 e53d e915 e939 00a3 39bd
000003b0: 7240 01be 3500 1c3d f855 b93d a586 90bd
000003c0: 3486 5bbd d2dd 683d 7024 483e e3c2 43bd
000003d0: 9b72 983d 06c3 7e3d a788 b4bd 84c2 6f3d
000003e0: 299b 783d 1fd4 3b3d a428 88bd e824 e63d
000003f0: 6439 e83c e868 113d 00da 24bd 04ed 30bd

fc3.bias f4 [64]
-0.013734607 0.052266456 -0.04115865 -0.015848935 0.0720964 -0.06761372 -0.026096156 0.034741722
0.09091286 0.045847405 -0.048987325 0.042027913 -0.039969 0.0018931183 -0.054621276 0.048227992
-0.06582482 0.082179196 0.032572825 -0.006916481 0.03544279 -0.10206577 0.059692387 -0.07238885
0.023499293 0.03898562 0.06670043 0.021449205 0.061807342 0.06675737 0.057754327 -0.04182223
-0.0756834 0.060525518 -0.0724881 -0.04671981 -0.08461451 -0.081566505 -0.0016497922 -0.0911265
-0.019255603 0.018726654 -0.0871121 -0.034438442 0.049671363 0.09217354 -0.03197802 -0.045812953
0.05844127 0.074130535 0.09379284 0.059874978 0.07195022 0.062125567 0.05942365 0.091969304
0.090040214 -0.061976235 -0.07096384 -0.028010257 -0.036796425 0.025313167 0.00019308577 0.06458154
00000000: 1e07 61bc 5a15 563d f995 28bd a0d5 81bc
00000010: 47a7 933d 1079 8abd 9bc7 d5bc 564d 0e3d
00000020: 8630 ba3d 7dca 3b3d efa6 48bd 7625 2c3d
00000030: 89b6 23bd 8222 f83a 8fba 5fbd b78a 453d
00000040: 2acf 86bd 914d a83d 156b 053d a6a3 e2bb
00000050: 752c 113d dc07 d1bd 0180 743d 9b40 94bd
00000060: 9781 c03c 63af 1f3d 3c9a 883d 3eb6 af3c
00000070: b229 7d3d 17b8 883d cd8f 6c3d c94d 2bbd
00000080: e6ff 9abd 9be9 773d a474 94bd 465d 3fbd
00000090: 5f4a adbd 570c a7bd d73d d8ba 88a0 babd
000000a0: edbd 9dbc a468 993c d467 b2bd 530f 0dbd
000000b0: 3374 4b3d 7bc5 bc3d 62fb 02bd 5da6 3bbd
000000c0: 1d60 6f3d c0d1 973d 7616 c03d 773f 753d
000000d0: a35a 933d 6177 7e3d 3766 733d 675a bc3d
000000e0: 0167 b83d cbda 7dbd 7d55 91bd c475 e5bc
000000f0: d9b7 16bd 8f5d cf3c 1177 4a39 5443 843d

fc4.weight f4 [32, 64]
-0.023244591 -0.17129312 -0.05134801 0.04721301 -0.058862858 -0.012772382 0.07257152 -0.10899742
0.07208349 0.064032204 -0.048510667 -0.14453907 0.03349791 -0.003558051 -0.035276752 0.1488881
0.05065872 0.13674542 0.060331035 -0.048934113 -0.10149562 0.066319935 -0.05031071 0.0412189
0.13851643 0.13493623 -0.06938285 -0.066638984 -0.065137416 0.13885215 -0.06512567 0.13380568
-0.11289653 0.0138570545 -0.020103827 -0.10614042 0.08532245 -0.06709914 -0.07546726 -0.02652193
0.02305844 0.055247977 0.04413299 0.017310731 -0.0689231 0.067047715 0.021762641 0.123138115
0.020811113 0.036928713 0.10073724 0.0013198055 -0.0782536 -0.03331827 -0.017270118 0.09907376
-0.10850397 -0.043789357 -0.050275158 -0.072355434 -0.029859183 -0.011828742 0.03226447 -0.011932782
0.13619263 0.095467 0.064037815 0.00605855 0.056278713 -0.098544195 0.1374045 0.1431742
0.22449642 -0.06151701 -0.041507475 0.015008925 -0.037674397 -0.12496014 -0.07742681 0.091852285
-0.1726845 0.055037465 -0.109990396 0.009457049 0.034371518 -0.018462501 0.042651698 0.09278494
0.031047095 0.024990128 -0.092244305 -0.04453861 -0.015168625 0.10914883 0.044865623 -0.10255968
0.011784613 -0.016657338 0.05083351 -0.114167914 0.047589015 -0.100599684 -0.047502227 -0.121703185
-0.07717715 -0.056043018 0.112930685 0.044253085 0.062704824 -0.121534824 -0.025926938 -0.0014169988
0.1248441 -0.08233832 0.028472312 0.084109016 -0.025576562 0.0037475722 -0.07276495 0.07658257
0.10441325 -0.122238085 -0.003084796 0.04678947 -0.055286538 0.098863296 -0.0024466885 0.010862179
-0.04496605 0.0014529164 0.003139439 0.033313606 -0.10693463 0.056250647 -0.11157271 -0.024744382
-0.03600927 0.0050336034 -0.050928842 -0.15521728 -0.03186618 -0.0039222287 0.03362219 0.040835917
-0.07944698 0.104570955 -0.11759977 -0.00977523 -0.02127178 0.007990828 0.05768237 -0.08359058
0.03318739 0.034240667 -0.047562547 0.03489635 -0.043451477 -0.06214316 0.056980517 0.054025788
0.031488672 0.060714584 0.041040987 -0.027844235 0.014317109 -0.06479077 0.022547241 0.01340446
0.08834768 0.055057716 -0.016994482 -0.026921168 -0.04165338 0.11314473 0.010563357 0.02945463
0.016289363 0.057210665 0.00052198116 0.048286736 0.031377822 -0.10284605 0.07856697 -0.062147006
-0.014121441 -0.06170124 -0.10657581 -0.11172643 -0.032658298 0.10044762 0.07589889 -0.039493214
0.048431773 -0.1929941 0.022487845 -0.028080525 0.0027769397 0.015689911 0.11081365 -0.08867022
-0.061051555 0.039681014 -0.024978248 -0.14385147 -0.021343889 0.08246791 0.0039591673 0.011434674
0.108822756 0.12723085 0.01908643 0.060445953 -0.07856518 0.08697305 0.0269745 0.057916727
-0.02654737 0.015302194 -0.07875659 0.112510614 -0.037570637 0.051643528 -0.050381977 0.043253653
-0.038480043 -0.06386571 0.08389416 -0.0037931353 0.053366117 -0.09308824 -0.046259884 -0.04059086
-0.058558192 0.06963905 0.041454006 0.015178692 -0.08545701 0.105105266 0.04306284 0.11092515
-0.028475927 0.034736805 0.008484163 -0.086443916 0.044718053 -0.000661071 0.05431095 0.12705256
-0.07428108 0.048856318 0.10280029 0.022506824 -0.08644721 -0.034405954 0.06291973 0.0954964
00000000: 716b bebc 7767 2fbe 4a52 52bd 6e62 413d
00000010: 2e1a 71bd 4143 51bc 61a0 943d 0a3a dfbd
00000020: 82a0 933d 5123 833d 1fb3 46bd 0d02 14be
00000030: 1b35 093d 312e 69bb 5b7e 10bd 1f76 183e
00000040: 857f 4f3d fe06 0c3e ad1d 773d 236f 48bd
00000050: f0dc cfbd bfd2 873d 9a12 4ebd 26d5 283d
00000060: 40d7 0d3e b92c 0a3e 9818 8ebd 057a 88bd
00000070: c466 85bd 422f 0e3e 9b60 85bd 5b04 093e
00000080: 4c36 e7bd b308 633c c8b0 a4bc 2660 d9bd
00000090: 89bd ae3d 466b 89bd 948e 9abd 8544 d9bc
000000a0: 0ee5 bc3c b44b 623d cbc4 343d 3ccf 8d3c
000000b0: 8e27 8dbd 5050 893d 9147 b23c d62f fc3d
000000c0: 117c aa3c 9042 173d 534f ce3d 53fd ac3a
000000d0: 6c43 a0bd bd78 08bd 107a 8dbc 2fe7 ca3d
000000e0: 5437 debd 785c 33bd 53ed 4dbd 162f 94bd
000000f0: 3f9b f4bc 57cd 41bc c027 043d b781 43bc
00000100: 1576 0b3e 3484 c33d 4226 833d cd86 c63b
00000110: 8284 663d 8ad1 c9bd c4b3 0c3e 429c 123e
00000120: 64e2 653e 43f9 7bbd be03 2abd ffe7 753c
00000130: 7850 1abd 1aeb ffbd f391 9ebd 0d1d bc3d
00000140: 35d4 30be f76e 613d a542 e1bd bdf1 1a3c
00000150: 26c9 0c3d ac3e 97bc 8cb3 2e3d 0806 be3d
00000160: 7a56 fe3c 19b8 cc3c 95ea bcbd 1e6e 36bd
00000170: d385 78bc 6c89 df3d 04c5 373d cf0a d2bd
00000180: 4014 413c f874 88bc cc36 503d ded0 e9bd
00000190: b3ec 423d 3507 cebd b291 42bd 853f f9bd
000001a0: 0e0f 9ebd 5d8d 65bd 3448 e73d b942 353d
000001b0: 636b 803d 40e7 f8bd bb64 d4bc 97ba b9ba
000001c0: 43ae ff3d fea0 a8bd c43e e93c 5941 ac3d
000001d0: f085 d1bc d499 753b ca05 95bd 53d7 9c3d
000001e0: 9dd6 d53d f657 fabd 4a2a 4abb 51a6 3f3d
000001f0: 2374 62bd d778 ca3d 9f58 20bb 48f7 313c
00000200: 522e 38bd c96f be3a 0cbf 4d3b d973 083d
00000210: 8b00 dbbd 1467 663d 3c80 e4bd bbb4 cabc
00000220: 757e 13bd edf0 a43b c39a 50bd 47f1 1ebe
00000230: 1d86 02bd 0a86 80bb 6cb7 093d 9043 273d
00000240: 19b5 a2bd 4c29 d63d 26d8 f0bd 4928 20bc
00000250: 2842 aebc f6eb 023c 5944 6c3d 8a31 abbd
00000260: 80ef 073d f13f 0c3d f2d0 42bd 7aef 0e3d
00000270: 2dfa 31bd d389 7ebd 6764 693d 254a 5d3d
00000280: 44fa 003d dbaf 783d 981a 283d 9819 e4bc
00000290: 4f92 6a3c 06b1 84bd feb4 b83c 619e 5b3c
000002a0: a1ef b43d 3384 613d 0338 8bbc c889 dcbc
000002b0: bc9c 2abd 6db8 e73d ee11 2d3c d64a f13c
000002c0: 4571 853c bb55 6a3d 90d5 083a 50c8 453d
000002d0: 0886 003d f3a0 d2bd b8e7 a03d dc8d 7ebd
000002e0: 9e5d 67bc 70ba 7cbd 6b44 dabd d4d0 e4bd
000002f0: b5c4 05bd 7bb7 cd3d e170 9b3d a3c3 21bd
00000300: 6560 463d 3fa0 45be 6e38 b83c 2109 e6bc
00000310: 51fd 353b 2188 803c 44f2 e23d bb98 b5bd
00000320: 3211 7abd 8f88 223d 2f9f ccbc cd4d 13be
00000330: 61d9 aebc f0e4 a83d e7bb 813b 8058 3b3c
00000340: 77de de3d ce48 023e 255b 9c3c 2d96 773d
00000350: c8e6 a0bd ed1e b23d a0f9 dc3c 173a 6d3d
00000360: df79 d9bc 0eb6 7a3c 234b a1bd f76b e63d
00000370: abe3 19bd 2a88 533d 555d 4ebd be2a 313d
00000380: 409d 1dbd 06cc 82bd b4d0 ab3d 4096 78bb
00000390: 6e96 5a3d 0ca5 bebd 017b 3dbd 9a42 26bd
000003a0: b7da 6fbd eb9e 8e3d adcb 293d 0cb0 783c
000003b0: 1604 afbd 6e41 d73d a962 303d ba2c e33d
000003c0: 5946 e9bc 2e48 0e3d 2901 0b3c 8209 b1bd
000003d0: 472a 373d b94b 2dba 2975 5e3d 111a 023e
000003e0: ae20 98bd 901d 483d f588 d23d 3b60 b83c
000003f0: 3c0b b1bd 42ed 0cbd 0fdc 803d 9e93 c33d

fc4.bias f4 [32]
0.12606977 0.06911821 0.11755964 0.092890784 -0.07174262 -0.019498007 -0.12535667 -0.0145970145
0.10650148 0.0613375 0.06980172 0.023257332 -0.004384226 0.10310145 0.12064506 -0.12600784
-0.097525544 0.09281342 0.0009281483 0.00089801004 -0.117323555 0.009112835 0.06440094 0.006119606
-0.104009844 0.02744983 0.0058976207 0.09600802 0.08772933 -0.10244456 -0.11547246 -0.106948994
00000000: 6f18 013e d98d 8d3d 1cc3 f03d 863d be3d
00000010: cbed 92bd 49ba 9fbc 805d 00be 5128 6fbc
00000020: 731d da3d 083d 7b3d 34f4 8e3d 2986 be3c
00000030: 8ea9 8fbb da26 d33d c214 f73d 3308 01be
00000040: 79bb c7bd f614 be3d fa4e 733a 6f68 6b3a
00000050: 5547 f0bd 004e 153c a4e4 833d fa86 c83b
00000060: 1d03 d5bd 77de e03c d440 c13b da9f c43d
00000070: 6fab b33d 74ce d1bd d37c ecbd 1308 dbbd

fc5.weight f4 [16, 32]
-0.025500268 -0.05287406 -0.10787409 0.020612327 0.01966727 0.022552446 -0.10410824 -0.028559458
0.01459811 0.1295894 -0.12508766 0.06291112 -0.16005835 -0.14233516 -0.12685587 -0.11129103
-0.050992798 0.08252398 -0.059410166 -0.0053720823 0.07186618 0.084611356 0.066098325 -0.11633802
-0.14818911 -0.22616932 0.076490656 -0.1149305 -0.122202024 0.17020991 0.124514885 -0.0022081144
0.14939924 -0.10218874 0.03329241 -0.18561184 -0.15266989 -0.10038667 -0.1447483 -0.007506585
0.028396126 0.005503618 -0.06770451 0.14578274 0.10093708 -0.11237721 0.103355326 -0.01580507
-0.12873437 0.12812209 0.08229073 -0.07226525 0.083193146 -0.164938 0.069053486 0.031130673
-0.12899548 0.075085305 -0.1327834 -0.01659197 0.018409062 0.049608544 -0.15826167 -0.06896402
0.12136407 0.10317388 0.08230273 0.16734327 -0.020002 0.11182815 0.09456801 0.04856116
-0.12379931 0.121256754 -0.1272539 0.058168303 -0.010743498 0.09852999 -0.054869045 0.104945935
-0.075587496 0.0110586025 0.09728208 -0.122370996 0.09442562 0.13184482 0.20806052 0.0061799814
-0.13207854 0.07633095 -0.13425598 -0.1465087 -0.0056209113 0.14819714 -0.046600297 0.12873863
0.13423346 0.16743162 0.12874664 0.16007245 -0.034353994 0.069333285 -0.0446696 0.113562815
0.08966575 0.10479114 -0.05221863 -0.16796704 0.008823492 -0.15984017 0.07764846 0.17222509
0.11837918 -0.12963602 0.13472563 -0.10848884 0.058567427 -0.052580427 -0.031342734 0.0622321
-0.07437379 0.06425904 0.13672443 -0.05955179 -0.0400647 0.11498333 -0.13518113 0.090733066
-0.058330372 0.06766356 -0.11400246 0.07994534 -0.059264876 -0.09717497 -0.10297105 -0.035569284
-0.16652258 -0.043210045 -0.12882133 -0.113103405 -0.14864351 -0.11115344 -0.09279314 0.16763133
0.11029183 -0.11030892 -0.14856455 -0.091603726 0.02304733 -0.1349823 -0.13015422 0.1170619
-0.012225726 -0.15880193 0.16937143 -0.09478849 -0.110769816 0.05176282 0.07198279 0.16841625
-0.070956625 0.14526697 0.16507134 0.11883975 -0.08033779 0.054994494 0.24406649 0.11617808
-0.1572872 0.14962438 -0.026399601 -0.0582459 0.21199672 -0.079239935 0.21943346 -0.12608908
-0.097209826 -0.076097906 0.152368 -0.15361391 -0.041022494 0.15727718 0.0060527795 0.105729446
0.116828814 0.15782604 0.2332867 0.14658718 -0.107621334 0.041925482 0.15065718 0.10353723
-0.072324604 -0.15022147 0.028396629 -0.14171313 0.17437257 0.05244366 -0.032463945 0.113714784
0.16714428 -0.12337263 -0.14966822 -0.17371571 -0.046627607 -0.15647997 -0.112110235 0.16975085
-0.06464774 -0.019724471 -0.11173157 -0.06783082 -0.0023160956 0.019574007 0.018725824 -0.022791961
-0.10849372 0.06943023 -0.01285228 0.15637276 0.039877344 0.13459688 -0.006094392 0.00012492326
-0.12752686 0.07391276 -0.1132418 0.061241705 -0.10629168 0.10173743 0.005882903 0.16287845
-0.12958902 -0.02398431 -0.16210027 0.08088985 0.13135684 -0.08045307 0.025363969 -0.07358874
-0.004003522 0.0678044 -0.11014826 0.15104578 0.13831605 0.032763463 0.006696861 0.008051472
-0.04113753 -0.0318893 0.15329233 -0.11664804 -0.048290554 0.05163055 -0.036150027 -0.04872229
00000000: f0e5 d0bc 7892 58bd 17ed dcbd 2fdb a83c
00000010: 411d a13c e8bf b83c b336 d5bd 86f5 e9bc
00000020: e92c 6f3c 15b3 043e fb16 00be 8cd7 803d
00000030: 56e6 23be 4fc0 11be 81e6 01be 8dec e3bd
00000040: d3dd 50bd 5502 a93d 1358 73bd 4b08 b0bb
00000050: 932e 933d b848 ad3d 8f5e 873d a142 eebd
00000060: e3be 17be ee98 67be 22a7 9c3d af60 ebbd
00000070: 0e45 fabd 824b 2e3e a901 ff3d 03b6 10bb
00000080: 1dfc 183e 5548 d1bd 9f5d 083d 0811 3ebe
00000090: 7f55 1cbe 8797 cdbd e638 14be cdf9 f5bb
000000a0: fe9e e83c b257 b43b aaa8 8abd 1248 153e
000000b0: 1ab8 ce3d 0626 e6bd f5ab d33d a279 81bc
000000c0: f1d2 03be 7032 033e 0b88 a83d ceff 93bd
000000d0: 2b61 aa3d 82e5 28be ea6b 8d3d c105 ff3c
000000e0: 6417 04be 53c6 993d 5ff8 07be e2eb 87bc
000000f0: 9ace 963c 5432 4b3d 590f 22be 023d 8dbd
00000100: ba8d f83d d44c d33d 558e a83d 095c 2b3e
00000110: 3cdb a3bc 2806 e53d dfac c13d 11e8 463d
00000120: 7e8a fdbd 7655 f83d d94e 02be e341 6e3d
00000130: 7f05 30bc 17ca c93d 5dbe 60bd e5ed d63d
00000140: 9ecd 9abd 242f 353c d43b c73d a59d fabd
00000150: 3862 c13d 5402 073e d10d 553e 7181 ca3b
00000160: 993f 07be 6753 9c3d 667a 09be 6006 16be
00000170: 9f2f b8bb fec0 173e f4df 3ebd 0fd4 033e
00000180: 7f74 093e 3273 2b3e 29d6 033e 08ea 233e
00000190: c6b6 0cbd 9cfe 8d3d 78f7 36bd 9f93 e83d
000001a0: ada2 b73d bd9c d63d 34e3 55bd 8dff 2bbe
000001b0: 6890 103c 24ad 23be 2806 9f3d c65b 303e
000001c0: c970 f23d 4ebf 04be 84f5 093e 662f debd
000001d0: 66e4 6f3d 935e 57bd 3d61 00bd 16e7 7e3d
000001e0: 4951 98bd 3e9a 833d 7d01 0c3e 94ec 73bd
000001f0: e21a 24bd 617c eb3d ec6c 0abe 42d2 b93d
00000200: d4eb 6ebd 3193 8a3d 1f7a e9bd 62ba a33d
00000210: babf 72bd ac03 c7bd 7ce2 d2bd 19b1 11bd
00000220: e584 2abe 04fd 30bd bde9 03be c2a2 e7bd
00000230: 0136 18be 6aa4 e3bd 540a bebd 8ca7 2b3e
00000240: afe0 e13d a5e9 e1bd 4e21 18be bc9a bbbd
00000250: c1cd bc3c cd38 0abe 2647 05be 26be ef3d
00000260: 694e 48bc f99c 22be b46f 2d3e 7820 c2bd
00000270: 49db e2bd 4005 543d b76b 933d 4f75 2c3e
00000280: b551 91bd ddc0 143e 7608 293e 4162 f33d
00000290: 2488 a4bd e841 613d 91ec 793e c6ee ed3d
000002a0: e50f 21be 2237 193e fa43 d8bc 4193 6ebd
000002b0: ab15 593e 8c48 a2bd 2ab3 603e 7f1d 01be
000002c0: f215 c7bd 38d9 9bbd 5b06 1c3e f74c 1dbe
000002d0: 3407 28bd 450d 213e 6556 c63b ae88 d83d
000002e0: f243 ef3d 269d 213e b5e2 6e3e f31a 163e
000002f0: 9368 dcbd 0eba 2b3d e045 1a3e 540b d43d
00000300: ec1e 94bd a8d3 19be 0ca0 e83c 3f1d 11be
00000310: b98e 323e 2acf 563d eaf8 04bd 4ce3 e83d
00000320: df27 2b3e caaa fcbd a042 19be 88e2 31be
00000330: 97fc 3ebd 493c 20be 0d9a e5bd 2bd3 2d3e
00000340: 0966 84bd 3795 a1bc 85d3 e4bd e3ea 8abd
00000350: a3c9 17bb ab59 a03c e666 993c 35b6 babc
00000360: f531 debd 7031 8e3d 5f92 52bc 2e20 203e
00000370: 6d56 233d c4d3 093e 77b3 c7bb d5fd 0239
00000380: 6796 02be 935f 973d 51eb e7bd 95d8 7a3d
00000390: 74af d9bd b75b d03d 5ec5 c03b 9cc9 263e
000003a0: fcb2 04be be7a c4bc 9dfd 25be 94a9 a53d
000003b0: 6882 063e 94c4 a4bd 19c8 cf3c b1b5 96bd
000003c0: fa2f 83bb 09dd 8a3d 6995 e1bd bfab 1a3e
000003d0: b9a2 0d3e fb32 063d 5771 db3b 52ea 033c
000003e0: d47f 28bd 5b9e 02bd aaf8 1c3e 2be5 eebd
000003f0: 51cc 45bd 8e7a 533d 0d12 14bd 0691 47bd

fc5.bias f4 [16]
0.1264213 -0.11550797 0.10588093 0.124946475 -0.12520385 0.013673255 -0.09161677 -0.08031709
0.027688935 0.12190305 0.046160787 -0.12253983 -0.03129021 0.15766275 -0.118926466 0.14296605
00000000: 9674 013e 718f ecbd 1ad8 d83d f0e3 ff3d
00000010: 7035 00be ca05 603c 93a1 bbbd 497d a4bd
00000020: e8d3 e23c 4ea8 f93d 1813 3d3d 2af6 fabd
00000030: 2a2a 00bd 5872 213e b88f f3bd b165 123e

fc6.weight f4 [8, 16]
-0.01977621 0.09300865 0.18571396 -0.17737335 -0.063942075 0.21453777 -0.18743345 -0.15878373
0.17289215 0.18626738 -0.15329203 -0.04916551 0.0796866 -0.016897945 -0.23613046 -0.056167044
-0.16222128 -0.08970809 -0.22347404 -0.14644752 0.07094911 -0.1323108 0.083369374 -0.13865507
-0.23039208 -0.2609048 -0.021439403 -0.24462682 0.17921013 0.03141521 -0.24722621 -0.06145992
0.12774834 0.05346346 0.23346151 0.1310434 -0.08311409 -0.17263648 -0.24350005 -0.012601704
0.06916448 0.24213023 0.0028443797 0.1334679 -0.016526483 0.15252268 0.014055473 -0.0050472133
-0.072087586 -0.035618216 0.106860615 0.048873477 -0.114445835 0.03830371 -0.032141864 -0.10498919
0.20727873 -0.0063673086 -0.14398229 0.2943437 0.16060825 0.06438402 -0.07537985 -0.12300985
-0.09136337 0.079291664 0.042402532 -0.1728449 0.18900111 -0.11022188 -0.08351207 -0.05951324
-0.075477794 0.18318205 -0.11914637 -0.07307291 0.01734149 0.04150583 -0.15698572 -0.13181901
-0.14716 0.2076369 0.04481718 0.18558641 -0.10807976 -0.09284545 0.16099736 -0.020478446
0.0074490146 -0.031765748 -0.19990943 0.233369 0.19562195 -0.013912882 0.10636308 0.14961977
-0.020687126 -0.075485736 0.16295408 0.12071924 0.06420228 0.31180397 0.16993612 0.18124415
-0.14128897 0.059786733 0.17738178 0.13771082 0.09702424 -0.1760026 0.007869483 0.0031844976
0.06464931 0.14707762 -0.00617908 0.06415615 0.11847398 0.2215626 0.01429531 -0.15841207
-0.19533691 -0.06933751 -0.055608127 -0.11826865 0.25435486 0.14201868 -0.14206444 0.05794119
00000000: b801 a2bc 527b be3d cd2b 3e3e 5ca1 35be
00000010: 10f4 82bd caaf 5b3e 8eee 3fbe 3498 22be
00000020: a40a 313e e0bc 3e3e 96f8 1cbe c661 49bd
00000030: ba32 a33d 8f6d 8abc 2fcc 71be 6a0f 66bd
00000040: 561d 26be e0b8 b7bd 61d6 64be 57f6 15be
00000050: c44d 913d 7b7c 07be 90bd aa3d 98fb 0dbe
00000060: e7eb 6bbe 5095 85be b0a1 afbc 747f 7abe
00000070: dc82 373e 3cad 003d de28 7dbe 66bd 7bbd
00000080: 76d0 023e 80fc 5a3d 8910 6f3e 3e30 063e
00000090: b837 aabd 9ec7 30be 1458 79be 6177 4ebc
000000a0: 1ba6 8d3d fdf0 773e c668 3a3b cfab 083e
000000b0: 8c62 87bc e82e 1c3e ed48 663c 1863 a5bb
000000c0: a8a2 93bd 68e4 11bd bdd9 da3d 8e2f 483d
000000d0: 9462 eabd 5ae4 1c3d 30a7 03bd 9304 d7bd
000000e0: e040 543e dba4 d0bb 1870 13be 38b4 963e
000000f0: 7d76 243e c5db 833d c060 9abd 97ec fbbd
00000100: b81c bbbd ab63 a23d 47ae 2d3d 41fe 30be
00000110: 8289 413e 02bc e1bd 6008 abbd 28c4 73bd
00000120: 1a94 9abd 1394 3b3e 0303 f4bd 40a7 95bd
00000130: be0f 8e3c 0402 2a3d ddc0 20be 90fb 06be
00000140: 1cb1 16be c49e 543e 3892 373d 5d0a 3e3e
00000150: ec58 ddbd c125 bebd 7edc 243e 6ac2 a7bc
00000160: dd16 f43b cd1c 02bd 0fb5 4cbe 48f8 6e3e
00000170: 1f51 483e dbf2 63bc e3d4 d93d ed35 193e
00000180: 0c78 a9bc 4498 9abd 6fdd 263e a63b f73d
00000190: 7c7c 833d c5a4 9f3e bc03 2e3e 1198 393e
000001a0: 0eae 10be efe2 743d 92a3 353e 1104 0d3e
000001b0: a5b4 c63d 073a 34be 01ef 003c 01b3 503b
000001c0: dc66 843d 849b 163e e179 cabb 4d64 833d
000001d0: 7ca2 f23d 4ee1 623e e036 6a3c c636 22be
000001e0: 6606 48be d300 8ebd 59c5 63bd d536 f2bd
000001f0: cd3a 823e 586d 113e 5779 11be be53 6d3d

fc6.bias f4 [8]
0.08279259 0.031517565 -0.030642943 -0.09717418 0.009282627 -0.023804396 0.015488066 -0.11898563
00000000: 298f a93d 9018 013d e906 fbbc 4203 c7bd
00000010: 2916 183c 7001 c3bc a8c1 7d3c bdae f3bd

fc7.weight f4 [4, 8]
-0.28208384 -0.08598927 0.03531474 0.050538242 0.22592399 0.19873808 -0.112128325 0.030068493
-0.11543506 -0.2946088 0.112501726 -0.13213637 -0.08354005 0.108975515 -0.28968048 -0.24179512
0.19787608 0.074527636 0.19323218 -0.2246838 -0.2054472 0.31350425 0.04792249 -0.1214151
0.031421073 0.16397744 0.21285744 0.34400085 0.12606171 -0.044933416 0.0058015375 -0.3309623
00000000: 4b6d 90be 241b b0bd 30a6 103d 3001 4f3d
00000010: 9e58 673e ff81 4b3e 89a3 e5bd 3352 f63c
00000020: 3769 ecbd f7d6 96be 4e67 e63d c24e 07be
00000030: 0c17 abbd 8e2e df3d 0051 94be 2499 77be
00000040: 07a0 4a3e f2a1 983d a8de 453e 8313 66be
00000050: c060 52be a183 a03e 5f4a 443d 7ba8 f8bd
00000060: 62b3 003d b4e9 273e 4df7 593e e120 b03e
00000070: 5216 013e 1a0c 38bd d31a be3b e473 a9be

fc7.bias f4 [4]
0.009941838 0.2198873 -0.122378476 0.06965086
00000000: 17e3 223c 232a 613e 91a1 fabd 1ca5 8e3d

fc8.weight f4 [1, 4]
-0.2821508 0.09755654 0.026470674 0.39846215
00000000: 1276 90be b9cb c73d 07d9 d83c 3b03 cc3e
