MLops_JAAA/models/model.pth (torch, 434046 bytes, 15 tensors)

fc1.weight f4 [256, 247]
000000 05 ea 04 3d e4 9f 41 bd a8 51 ce bc 8e 18 a6 3d
       0.03244974 -0.047271624 -0.025185421 0.08110152
000010 41 69 84 3b 17 db a2 3b dd b8 c1 3c 53 fd 89 3d
       0.0040408676 0.004969965 0.02364772 0.06737771
000020 c0 30 3a bd 93 78 a5 3d be 2b 3f bb 01 07 53 3d
       -0.045456648 0.08079638 -0.002917036 0.05152035
000030 29 76 f8 bc ac f7 53 3d d6 81 cc 3d 66 a9 f6 3c
       -0.03032978 0.05174987 0.09985702 0.030110072
000040 ac 03 18 bc 53 a8 38 3d e8 c7 2b 3d c0 eb c7 3d
       -0.009278219 0.0450824 0.041938692 0.097617626
000050 dc 49 0d 3d b7 c0 b6 3d 82 37 54 bb 60 91 c3 3d
       0.034494266 0.08923476 -0.0032381718 0.095492125
000060 0a 78 ea 3a 8c b8 30 3d eb ee 82 3d 38 8f 1b 3d
       0.0017888558 0.043144748 0.06393226 0.03797838
000070 47 32 6e 3d 0d 7c a1 3c db 8d c5 3c 6d 11 4f 3d
       0.058153417 0.019712472 0.024115494 0.050553728
000080 e1 9f 6b 3c 74 13 e7 bb f0 6b b6 3c 27 06 dc 3c
       0.01438138 -0.0070518795 0.022268265 0.026858402
000090 31 3b dc 3c 6f f9 79 bd e4 d1 7a bd 49 31 dd bc
       0.026883693 -0.061028894 -0.061235324 -0.02700104
0000a0 6f b7 74 bd 3b d5 51 3d 20 58 29 3d 49 b5 25 bd
       -0.05974525 0.051228743 0.04134381 -0.04045609
0000b0 dc eb 99 3c f9 8d 1c bd 62 79 26 3c b3 50 ce bc
       0.018789224 -0.038221333 0.010160776 -0.025184965
0000c0 30 74 6c 3c 12 72 19 3d 01 a9 a0 3c eb 9f c1 bc
       0.014431998 0.0374623 0.019611837 -0.023635825
0000d0 99 f9 48 bd d6 a8 8e bd 33 8b 16 3d 8e 7e ae bc
       -0.04906616 -0.06965797 0.036753844 -0.02130058
0000e0 19 54 3c ba e7 4d 84 3d fc 9a 0a bd 7c 58 e0 bb
       -0.00071841624 0.06460171 -0.03383921 -0.0068464857
0000f0 56 56 98 3d e7 47 e6 3c 4b bc 8b 3c c1 d0 0b bd
       0.07438342 0.028110458 0.017057559 -0.03413463
000100 84 50 27 3d 48 91 8e 3b 3f f6 2f 3c b1 4e 09 3d
       0.04084827 0.004350815 0.010739862 0.03352231
000110 42 6d 28 3d f9 02 02 bd 28 0d 73 3c d9 2d a1 3d
       0.04111982 -0.031741116 0.01483468 0.07870073
000120 14 53 91 3c 23 c9 4a 3d 8d a2 05 bb 7e ad 2e 3c
       0.01773981 0.049508225 -0.0020391077 0.010661481
000130 66 56 85 3d 7d 91 3e 3b 6d cb 48 3d 2b a2 53 bd
       0.0651062 0.0029078417 0.049022127 -0.051668327
000140 a5 c6 70 bb f2 a4 63 3d fc 57 8b 3d fd 67 c5 3d
       -0.0036739495 0.055577226 0.06803891 0.09638975
000150 0d 45 dc 3a ff d7 41 bc ee 52 62 3d eb b4 b2 3d
       0.0016805247 -0.011831283 0.05525487 0.087259136
000160 f0 64 4c bc 60 32 b2 35 df 19 fa 3c e0 f2 a9 ba
       -0.012475237 1.3276695e-06 0.030529914 -0.0012966059
000170 67 74 fd bc a5 d6 a4 bd 7f 39 0a bd e4 d6 da bb
       -0.030939294 -0.08048753 -0.03374624 -0.006678449
000180 21 86 d9 3c 7f 19 11 bd 52 f4 7a 3c 0c f9 08 3c
       0.026553215 -0.035424706 0.01531704 0.008360159
000190 34 10 83 bd d6 46 3c bd c2 5a 01 3d 71 14 c4 3d
       -0.06399575 -0.045965992 0.031580694 0.095742114
0001a0 7c 81 5c bc 3d 7b 1c bd f1 ed 28 3c 31 e0 a2 3d
       -0.013458606 -0.038203467 0.010310636 0.07952917
0001b0 29 69 a6 bc ab b0 94 bd 3d 3a fb bb 98 ed 24 bd
       -0.020313816 -0.07260259 -0.0076668547 -0.04026565
0001c0 c7 19 6a 3b 6d 51 8d bb da 65 95 bc 57 6b 9f bb
       0.003572093 -0.004312685 -0.018237043 -0.004865091
0001d0 fe 52 3d 3d 4b f7 78 3d f1 f7 cd 3d 3d 73 e7 bc
       0.046221726 0.060782712 0.10057057 -0.028253192
0001e0 5d bf 95 3d ec f5 33 3d f5 49 84 3d d2 42 c6 bc
       0.0731189 0.0439357 0.06459419 -0.024201784
0001f0 67 47 a6 3c 9d 46 e8 3c 79 95 49 bd 01 b1 91 3d
       0.02029772 0.028353984 -0.049214814 0.07113839
000200 3f 5d 20 3c b1 b1 29 bd 50 ae ba 3c 1a 3a 0a bd
       0.009787857 -0.041429225 0.022788197 -0.033746816
000210 ae ce 16 3c 46 b6 aa bd 7a 9d 90 bd 17 6d 98 3c
       0.00920455 -0.08335547 -0.07061286 0.018606706
000220 24 58 64 bc 3d a0 74 bc ac aa 31 3d 82 73 85 3d
       -0.01393703 -0.014930782 0.043375656 0.06516172
000230 fa dd fa 3c 66 34 82 3c 46 64 07 bc 10 93 c8 3d
       0.030623425 0.015894126 -0.008263653 0.09793675
000240 cd e7 80 bc 9f d3 69 3d 5d c8 fb bb b0 e3 95 3d
       -0.015735531 0.057086583 -0.0076837973 0.073188186
000250 db 35 9e 3b 54 27 00 bd 4b c2 99 bd 82 3f 8e 3d
       0.0048281974 -0.031287506 -0.075077616 0.06945707
000260 3f b9 47 3c e0 cd 42 bc 22 40 c8 bc c5 72 86 3d
       0.012190162 -0.011889905 -0.024444643 0.06564859
000270 f1 af 9a bc 39 b7 31 bd 7e af 23 3d 57 66 3f 3d
       -0.018882724 -0.043387625 0.039962284 0.04672846
000280 ac ff 0b 3c cf 4d a8 bd 4a 3e 34 bd 59 7d c7 3c
       0.008544844 -0.08217966 -0.044004716 0.024351763
000290 28 ba 21 bd 82 d4 17 3d 7b a5 02 bd ae 79 90 3c
       -0.039484173 0.037067898 -0.031896096 0.017636146
0002a0 ce 40 81 3c 95 e9 b0 3d 43 d4 9d 3d a6 ec 05 3e
       0.015777972 0.08638302 0.07706501 0.13078555
0002b0 20 07 f0 bd 9e cb 9b bd db 4c bd bc 43 f7 3c bd
       -0.11720109 -0.07607196 -0.023107937 -0.046134245
0002c0 ad 8c a3 3d 0d 98 28 3d 6b 25 1f 3c fa cc f5 3c
       0.07985816 0.041160632 0.009713511 0.030004967
0002d0 0e e1 84 3d 48 fd 7a 3c 7c 07 3a 3d 59 db 4a 3d
       0.06488238 0.015319176 0.045417294 0.049525592
0002e0 b0 e8 a0 3d 30 6c ff 3d 69 50 5c 3d 60 0c b0 3c
       0.078568816 0.12471807 0.053787623 0.021490276
0002f0 ae fd c9 bc 2b 8e 8f bd ec 8d 06 3d 3a 6e 85 3d
       -0.024657097 -0.07009538 0.03285019 0.06515165
000300 40 61 4c bc b4 89 fe 3b cc 35 a6 3b 69 6d b1 bb
       -0.012474358 0.0077678803 0.005072331 -0.005414654
000310 d0 f1 77 bc 7e 38 91 3c dd 25 56 bd 75 70 c1 3d
       -0.015133336 0.017727133 -0.052282203 0.094452776
000320 ce 21 be 3c 6d be 3b bd e5 ac 07 bc fd ca a2 3a
       0.023209479 -0.0458359 -0.008280967 0.0012420114
000330 c5 83 3f bd 93 0f f1 3b 98 97 ec bc 68 3c 6f bd
       -0.046756525 0.007356593 -0.02888088 -0.058407217
000340 a1 b3 ee 3c 7c 3e 0a bd a0 fd 87 bd 55 a7 47 3d
       0.029138388 -0.033750996 -0.06640172 0.048743565
000350 e1 32 b0 bc 03 58 15 bd 1a 88 b0 3d d1 3a d5 3c
       -0.021508636 -0.036460888 0.08619709 0.026029022
000360 dc 2d aa bd 4d 97 70 3d ee 96 1d bb 8e a8 ce bd
       -0.08309528 0.05873804 -0.002404626 -0.10090743
000370 5d 66 c1 3d 5d a3 66 3d 25 a2 c4 bd d1 8c 76 3d
       0.09443352 0.05630814 -0.09601239 0.060192887
000380 65 68 87 bb 70 78 76 bd 86 b5 61 3d 32 56 a7 bc
       -0.004132318 -0.060173452 0.055104755 -0.020426843
000390 cf 6c 04 bd 14 a9 cc 3d b7 7b 9a 3c 96 31 80 bd
       -0.03233033 0.099931866 0.01885782 -0.06259458
0003a0 8a 50 a5 3c 19 8e 2d bd 4a fb 6d bd 07 03 a9 3c
       0.020180006 -0.042371843 -0.058100976 0.020631326
0003b0 b8 31 4d 3d 3a a1 dc bd eb fd 8d bc 1c 16 09 bd
       0.050096244 -0.10772939 -0.017332992 -0.03346835
0003c0 4d 07 6b bd 3e 0e 0e 3e 5e 5c 97 bc 90 0c ae bd
       -0.05738001 0.1387262 -0.018476661 -0.0849849
0003d0 48 79 a9 bd f9 32 e4 bd 10 53 90 3d 65 91 56 bd
       -0.08275086 -0.11142535 0.07047093 -0.052384753
0003e0 dc 4f 8d bd 06 27 ed 3c b9 0c d8 3c 31 74 51 3d
       -0.068999976 0.028949272 0.026373254 0.0511362
0003f0 3a 92 42 3d 4b 07 98 bc b4 a8 69 bc bc b4 1c 3b
       0.047502734 -0.018558165 -0.014261413 0.0023911437

fc1.bias f4 [256]
000000 67 b7 36 bd 87 0c ed bc 9c 4d df 3a 66 56 4f 3b
       -0.0446085 -0.028936638 0.0017036679 0.003163719
000010 e2 6b 57 bd b1 3b 3d bd 04 6a 82 3b 3a 40 07 3d
       -0.05259312 -0.046199504 0.003979923 0.033020236
000020 90 f5 13 bc 27 d2 65 3c ef fe 59 3d bc bc 3f bd
       -0.009030715 0.014027155 0.05322164 -0.04681085
000030 ec c7 7c bd f1 5f 91 3c 4f ef 9b 3c ce ee 24 bc
       -0.061714098 0.017745944 0.01903501 -0.010066701
000040 7a 25 10 3d be 65 bb 3b b7 44 ca ba 77 65 c0 bc
       0.03519199 0.0057189157 -0.0015431856 -0.023485882
000050 c3 dc 0e 3d fb 60 6b bd 96 09 40 bd 34 31 31 3d
       0.034878504 -0.057465535 -0.04688414 0.043259814
000060 30 c0 07 3d 07 02 64 bd 30 c6 58 bb 9b 19 ae 3c
       0.03314227 -0.055665996 -0.0033077113 0.021252444
000070 92 29 4b 3d 5b 28 84 bd 89 c2 66 3c 35 7d 17 3b
       0.04960019 -0.0645301 0.014084467 0.00231154
000080 79 6c 0d 3b 47 9d 6c bc 95 8c 53 3d 7b 0f 13 3d
       0.0021579547 -0.014441795 0.05164774 0.035903435
000090 86 3a 21 bd 87 2c 0c 3d 21 7b 6b bd 6d d2 b5 3c
       -0.039362453 0.034222152 -0.05749047 0.022195065
0000a0 11 0d 2d 3c ef fa 23 bd 96 21 cf 3c 51 ba 11 bd
       0.010562197 -0.04003423 0.02528457 -0.035578076
0000b0 a8 56 a9 bb a7 b9 04 bd bd a3 49 bc ef 06 1a bc
       -0.005167801 -0.032403614 -0.012307105 -0.009401067
0000c0 fc ec 8b bc fa ab 68 bb e6 5d 4c 3d 0d a3 5f 3d
       -0.017080776 -0.0035502897 0.049894236 0.054598857
0000d0 6c 32 90 bb 6a c7 59 bc 42 91 d0 bc c2 20 80 bd
       -0.004400542 -0.013292173 -0.02545989 -0.06256248
0000e0 d2 5a ed 3c 9a 5f 97 3d a7 7e 33 bd 16 27 0d bd
       0.02897397 0.073912814 -0.043821957 -0.034461103
0000f0 25 c9 2a 3d c5 49 17 bd f8 ad 3a 3d 13 c1 ab bc
       0.041695733 -0.036935586 0.045576066 -0.020966088
000100 48 89 12 3d a5 b5 0e 3d 32 d3 50 3d 8f 48 fa 3c
       0.035775453 0.0348412 0.05098266 0.030552177
000110 cb 36 7d 3d 5f 61 6f bd a9 96 32 bd 27 16 ce 3c
       0.061819833 -0.05844247 -0.043600712 0.025157047
000120 ab ff 0b bd c9 4f 2b 3d da 9c 62 bd e9 e6 f2 bc
       -0.03417937 0.041824136 -0.055325367 -0.029651122
000130 9f 47 48 3d 1d 38 43 bd 61 f7 42 bd 29 6b 0d bb
       0.04889643 -0.047660936 -0.0475992 -0.0021578765
000140 bf 96 9e bc cc 52 04 3c 0f 76 32 3d 38 58 10 bd
       -0.01935899 0.008076381 0.04356962 -0.035240382
000150 50 4a 63 3c d5 64 fe 3c d8 c9 cc 3d 8d 75 26 bc
       0.013872698 0.03105394 0.09999436 -0.010159862
000160 0b 3f b9 3b 8c ba 54 3d 67 b6 1f bd 96 56 79 3c
       0.0056532673 0.051935717 -0.03899231 0.015218398
000170 d2 04 6b bd a1 4a 72 ba bf 71 15 bd 94 e8 41 bd
       -0.057377644 -0.0009242688 -0.03648543 -0.047340944
000180 9b 90 be 3c 8a 0b 4e 3d db 40 c4 3c cf 03 64 bb
       0.023262313 0.050303973 0.023956707 -0.003479231
000190 e4 58 3c 3d cd 65 fb 3c e1 41 9c 3d 25 33 ef bc
       0.04598321 0.03068819 0.07629753 -0.029199192
0001a0 68 b0 fd bc 40 0f 36 bd 94 73 0c 3d 4e ed 13 bb
       -0.030967906 -0.044448137 0.03428991 -0.0022571865
0001b0 21 d2 3c 3d 20 a9 07 3d ac 82 ea b8 e9 cc 35 bd
       0.046098832 0.033120275 -0.00011182329 -0.04438487
0001c0 e7 97 82 bd 7d 81 87 3c 0d 66 9f 3c d6 3e eb 3c
       -0.06376629 0.016541237 0.019457841 0.028716486
0001d0 6e 00 24 3d 50 1a be 3d 00 3c 4e bc 34 2a 3c bd
       0.040039472 0.092823625 -0.012587547 -0.045938686
0001e0 7e 86 7e bb 41 11 7a bb 93 6c da bc f2 2d 22 bd
       -0.0038837488 -0.0038157257 -0.0266631 -0.039594598
0001f0 74 c0 37 bd ec 20 48 3d 64 63 13 3c 24 16 60 bc
       -0.044861272 0.04885952 0.008995865 -0.013677154
000200 ea c0 8a bd 84 b3 7d bc 4e 96 a3 3b 08 19 7b bd
       -0.06775077 -0.015484694 0.004992283 -0.06130317
000210 9b 1d 04 bd 1a bc 7b 3d 81 b0 5e 3d 68 e7 17 bd
       -0.032254796 0.061458685 0.054367546 -0.03708592
000220 ad b1 3d 3d 15 76 c4 3a 66 f8 4d bd 5d 52 20 3c
       0.046312023 0.0014988804 -0.05028572 0.009785262
000230 16 f7 da bc d3 3b 56 bd c1 59 be bc 33 dd 39 3b
       -0.026729148 -0.052303147 -0.023236157 0.0028360605
000240 2a c5 2d bd f7 67 36 3d c9 ad 65 3d 6a 62 31 3d
       -0.04242436 0.044532742 0.056073938 0.043306746
000250 45 7c d7 3c 14 ca ea bc d7 9d 16 3b 94 f3 a2 3c
       0.026304374 -0.028660811 0.0022982263 0.019891538
000260 9a c7 2f 3d 85 0e d6 3c 33 38 42 bd 5e 80 6e 3c
       0.042914964 0.02612997 -0.047416877 0.014556972
000270 49 09 2f 3d a9 ce c9 3c 2f a0 82 3c 40 9e 65 bd
       0.042733464 0.024634676 0.015945522 -0.056059122
000280 9c 9d 76 bc 32 9d ea bb cb fa 7a 3c 02 e1 25 ba
       -0.015052225 -0.0071598524 0.015318583 -0.0006327779
000290 e9 52 85 3d 51 93 02 bd 78 f6 92 bc d0 7d 2f bd
       0.065099545 -0.031878773 -0.017939791 -0.042844594
0002a0 91 e8 52 3c 26 31 22 bd c4 a6 97 bc ba ae 3f 3b
       0.012872831 -0.039597653 -0.018512137 0.0029248432
0002b0 77 d9 b8 3c 2c 3b a2 3c fa 2d 54 3d 16 94 26 3d
       0.022564633 0.019803606 0.05180166 0.04066857
0002c0 57 8d 43 bc a5 05 30 3d 8f 3e 36 bd 89 38 0a bd
       -0.0119355535 0.042974133 -0.044493254 -0.033745322
0002d0 26 f6 5b 3c 73 d4 31 3d 8f c4 4c 3d 41 21 c8 3c
       0.013425386 0.043415498 0.04999214 0.02442992
0002e0 fe 39 4a 3d 3e 69 c4 3a a0 64 52 bd ad bd 54 3d
       0.049371712 0.0014984978 -0.051365495 0.0519387
0002f0 fd c5 63 bd e4 3b 97 3c 9e fd a9 3b e8 7d e5 3c
       -0.05560874 0.018461175 0.005187704 0.028014138
000300 b3 86 9d 3c aa de fa 3c 22 67 b8 3c d7 6c 22 3d
       0.019229269 0.030623753 0.022510115 0.03965458
000310 b5 b8 ad 3c 88 93 35 3b fb 77 10 3d 7e 23 8c bc
       0.02120624 0.0027706344 0.035270672 -0.017106768
000320 a3 e6 4d bd 8d 88 31 bd 06 12 48 bd 15 ca 45 3d
       -0.05026878 -0.043343116 -0.048845313 0.048288424
000330 e4 5c 86 bc f0 40 4e 3d 49 0d fb 3c 4a 69 7c 3d
       -0.016401716 0.050354898 0.030645983 0.06162385
000340 16 8b 1b 3d 86 3e 0a 3d 66 50 bf 3d 3a 84 dd bc
       0.03797444 0.033751033 0.09341507 -0.02704059
000350 77 7d 1c 3d 78 e3 8a bd 27 78 81 bd af bf 00 3d
       0.03820559 -0.067816675 -0.06321745 0.031432804
000360 d4 de ce bc b9 27 49 3d f6 e1 a3 3c 22 0d 3a bd
       -0.025252737 0.049110148 0.020005208 -0.04542268
000370 95 1a 87 bd 46 ba a1 3c 4a 73 84 bd 3c 34 11 3d
       -0.06596867 0.019742142 -0.06467302 0.035450205
000380 a5 11 85 3d 39 4b b4 bc e0 56 f0 bb bd 2c 3b bd
       0.06497506 -0.022008525 -0.007334575 -0.045696963
000390 89 b7 a0 3c 2d 39 de bc 0f 19 06 3d 34 09 cf bc
       0.019618766 -0.027126873 0.03273874 -0.025272943
0003a0 f3 0a 69 bb 46 49 4a 3a 8d 38 af 3a c9 0d da 3c
       -0.0035559505 0.0007716607 0.0013368294 0.026617901
0003b0 a4 13 3e 3c b1 f7 c7 3c 7c 55 0d 3d 1c 07 39 bd
       0.011601362 0.0244101 0.034505352 -0.045172796
0003c0 55 53 c4 3d 1d 18 5f 3d 5e c6 cb bc dd f3 41 3c
       0.09586207 0.054466356 -0.024874862 0.011837927
0003d0 e2 ca a9 bc af f1 61 bd 70 40 94 bc 22 44 8f bd
       -0.020726625 -0.055162128 -0.018097132 -0.06995417
0003e0 b4 e4 21 3d 27 63 63 3b d0 86 1b bd 9f 13 14 bd
       0.03952475 0.003469655 -0.037970364 -0.036151525
0003f0 4b 76 4f 3c 2f 37 2a bd 75 ad 10 3d f9 40 2e 3d
       0.012662481 -0.041556533 0.03532167 0.04254243

fc2.weight f4 [128, 256]
000000 90 1d eb 3c 5d ba 69 bd 50 b0 0e 3d 30 d1 01 bc
       0.02870062 -0.057062495 0.034836113 -0.007923409
000010 a5 ff 6d bd d8 55 10 bd 33 4b b0 3c 14 fb 66 bd
       -0.05810513 -0.035238117 0.021520233 -0.05639179
000020 6f c7 33 bd fe 3e 5f 3d 3a 09 84 3c 86 99 06 3d
       -0.043891367 0.054503433 0.01611768 0.032861255
000030 62 af 62 bd c9 2a 7b bd d4 34 36 bd cb 48 e4 3c
       -0.05534304 -0.0613201 -0.044483975 0.027866742
000040 90 76 cd 3b e4 32 d2 bc 50 4f 43 3c c1 c7 91 bc
       0.0062702373 -0.025659032 0.011920765 -0.017795445
000050 9e dd 5c bd d8 da 6e 3c 98 8c 41 bd ec 27 c2 bb
       -0.053922288 0.014578544 -0.04725322 -0.005925169
000060 58 fe 21 bd 16 8c 17 bd f5 21 16 3d 85 40 9d bb
       -0.0395492 -0.03699883 0.036653478 -0.004798951
000070 b2 e8 67 bd 8b 13 ff 3a 81 65 23 bc a1 c8 de bc
       -0.0566184 0.001946078 -0.009972931 -0.027195277
000080 b8 39 82 bd 63 68 64 bd e0 f0 dc 3b 26 a0 1b 3d
       -0.06358665 -0.055763613 0.0067425817 0.037994526
000090 b5 ce 8c 3b 55 20 32 bd 26 9c 41 bd d6 ca 40 3d
       0.0042971023 -0.043487865 -0.047268055 0.04706844
0000a0 70 7d 95 bb 96 65 3c bc 9b 2f 9b 3c 08 ee b2 bc
       -0.0045620725 -0.011498829 0.018943598 -0.021842018
0000b0 b4 61 89 bc 07 82 c7 3c d8 d4 f1 3c 57 d6 51 bd
       -0.016770221 0.024353994 0.029520437 -0.0512298
0000c0 0a e3 ed 3c e2 c3 2b 3d 31 b0 8a 3c 26 87 25 3d
       0.029038925 0.041934855 0.016929718 0.04041209
0000d0 8d b4 8f bc c5 7c 45 3d 30 bf fb 3a 96 e7 5f bd
       -0.017542148 0.048214693 0.0019206759 -0.054664217
0000e0 80 6e 19 3d 60 00 fd bc c8 19 b3 bc 58 f1 ca bc
       0.037458897 -0.030883968 -0.02186288 -0.024773285
0000f0 aa ad 76 bd e0 1a 9f bb c8 f8 67 3d 91 3e 7a bd
       -0.060224213 -0.0048554987 0.05663374 -0.061094824
000100 07 98 34 bd 2e fa 25 bd 3c 37 55 bb b2 4a 18 bd
       -0.044090297 -0.040521793 -0.0032534143 -0.03718061
000110 94 e8 61 3d f8 a1 12 3d e0 be 28 3d 17 ec fe 3b
       0.055153444 0.035798997 0.041197658 0.007779609
000120 d7 86 13 3a a4 84 2f bd f4 9b de bc 4e 60 00 3d
       0.00056276977 -0.042851105 -0.027173974 0.031341843
000130 b8 67 fb 3c e6 b9 13 bd c8 61 55 3d 80 af 29 3b
       0.030689105 -0.03606596 0.052095205 0.002589196
000140 84 74 dc bc 10 cc 19 3d 6c cf 90 3c df 68 e1 3c
       -0.026911028 0.037548125 0.017677031 0.027515827
000150 83 ef 31 bd bf 3d 66 bd 8e ef 90 3c e8 6b 6b 3c
       -0.043441307 -0.05621123 0.017692354 0.014368989
000160 9a 9b a8 3c 84 0d 60 bd dc 5d ea 3c bc 63 3b bd
       0.02058201 -0.05470039 0.028609209 -0.04574941
000170 20 bd 86 bb f0 93 f2 bc 3d 94 5b 3b f9 c3 6b bd
       -0.004111901 -0.029611558 0.0033505105 -0.05755994
000180 0e 58 9f bc 47 c1 d1 bc 5a ed 46 3d 76 0a 1d bd
       -0.019451167 -0.025604857 0.0485662 -0.038340054
000190 74 c2 53 3d 37 86 70 bd e6 96 30 3d 80 bf d4 3a
       0.051699117 -0.058721747 0.043112658 0.0016231388
0001a0 d0 4c 64 bc e8 82 1a bc a3 a9 d2 3c c2 8e 93 3c
       -0.013934329 -0.009430625 0.025715655 0.018012408
0001b0 60 1c 3e 3c 34 d8 19 bd ec d8 37 3d 38 9a 19 3c
       0.011603445 -0.037559703 0.044884607 0.0093751475
0001c0 de be 3e 3d e7 70 07 bd 93 4a 3c bd 6e 16 49 bc
       0.046568744 -0.033066656 -0.045969557 -0.012273414
0001d0 dc c8 7e 3d 9f c8 52 3d cf 8b 82 3c 9a 4b 92 bc
       0.062203273 0.05146086 0.015935807 -0.017858315
0001e0 10 21 8d 3c 52 1e e0 bb 4d 45 28 3d 94 d2 a7 3c
       0.01722768 -0.006839552 0.041081715 0.020486154
0001f0 5a 48 46 bd f8 50 5f bd c0 21 86 bc 8a fd a6 bc
       -0.048408844 -0.054520577 -0.016373515 -0.020384569
000200 83 44 cb 3c 4c 36 bf bc 90 c2 b2 3b d4 e4 39 3d
       0.024812942 -0.02334132 0.0054553226 0.045384243
000210 5e 05 3d bd 3a cb 44 bd 70 6c 55 bd 55 28 16 3d
       -0.046147697 -0.048045374 -0.052105367 0.036659557
000220 40 96 f0 3c 93 bd c1 bb dc 65 aa 3c dd 55 8e ba
       0.02936852 -0.0059124916 0.020800523 -0.001085933
000230 7c 78 9f 3c 3f 37 0b bd 18 3b 2e bd 00 a8 fb ba
       0.019466631 -0.033988234 -0.042536825 -0.0019199848
000240 f0 0c 40 bd bd 57 44 3d 35 1b 98 3c ea ef 08 3d
       -0.04688734 0.047935236 0.01856766 0.033431925
000250 d2 00 3f bd 73 c5 45 bd 68 49 6b bc 9c b4 a7 3c
       -0.04663164 -0.048284005 -0.014360763 0.020471863
000260 00 43 dd 3c fa 45 0c bd f2 68 4a bd 8d 00 63 bc
       0.027009487 -0.034246422 -0.04941649 -0.013855112
000270 43 c8 94 3c e2 75 7f bd 3e 21 f5 3c 0c 95 f3 bc
       0.018161898 -0.06236828 0.029923078 -0.029734157
000280 5e 5c 3e 3d a8 37 2d bd 19 00 ce bc 5e f2 2f 3d
       0.046474807 -0.042289406 -0.025146531 0.04295575
000290 0c ef 07 bd a8 3a c7 bc b3 e9 81 bc f8 bf 25 bd
       -0.033186957 -0.024319962 -0.015858507 -0.04046628
0002a0 ae 5c 48 3d 4f 30 68 bd 08 58 be 3c 97 e2 22 bd
       0.04891651 -0.056686696 0.023235336 -0.039766874
0002b0 74 0b 72 bd 2f c8 70 bd fe 52 70 3d b7 29 3d 37
       -0.059092954 -0.05878466 0.058672898 1.127499e-05
0002c0 77 30 72 bd 2f 5c fb bb 1e 1a 6a bd a9 c4 31 bd
       -0.05912825 -0.0076709013 -0.057153814 -0.04340044
0002d0 00 a8 09 39 2e 68 7f bb 9e 73 0d 3d 00 78 a4 3c
       0.00013127923 -0.0038972008 0.03453409 0.020076752
0002e0 bb 34 89 bd 4a a0 13 bd 01 bd ee 3a a4 89 44 bd
       -0.06699511 -0.036041535 0.0018214287 -0.047982827
0002f0 78 3e 49 3d 43 1c ab 3c a2 17 0e 3d b8 1e 9d 3c
       0.04913184 0.0208875 0.034690507 0.019179687
000300 50 dc 04 bd 6e 04 37 3d 78 da 64 bc 93 42 0d 3c
       -0.03243667 0.04468196 -0.013968103 0.00862183
000310 0e 97 78 bc b8 a9 15 bc 25 a1 54 bd 05 70 28 bd
       -0.015172733 -0.009134702 -0.051911492 -0.041122455
000320 fe f8 6f bd a8 00 4b bd d9 37 ba 3c 99 39 e8 3c
       -0.058587067 -0.049561173 0.022731708 0.028347777
000330 ae 5f 11 bd 26 cb 47 3d ea e8 29 3c 73 4c 72 3c
       -0.035491638 0.04877772 0.010370472 0.014788735
000340 ef 68 02 bc 50 0c b9 bb a1 c7 0e 3d 60 f2 f9 bc
       -0.007959588 -0.0056472197 0.03485835 -0.030511081
000350 34 7e bd bc 2e 9c 26 3d b2 1f 11 bd 48 93 81 bc
       -0.023131467 0.04067629 -0.035430618 -0.0158173
000360 6a 43 15 bd b7 56 27 bd 26 2d 8e 3c 50 86 49 3d
       -0.036441244 -0.040854182 0.017355513 0.049200356
000370 15 b2 01 3d ea a1 40 3d 62 4f 7f bd a6 e3 72 3d
       0.031663973 0.047029413 -0.062331565 0.059299134
000380 f2 ce 59 3d 0e 40 23 3d 18 cb d3 bc 54 35 06 3d
       0.053175874 0.03985601 -0.025853679 0.0327657
000390 f8 b9 7d 3c 20 cc 5f 3b a9 a9 f3 bc c6 a5 23 bd
       0.015486233 0.0034148768 -0.029743986 -0.039953016
0003a0 40 89 0d bd f2 c7 23 bd be fe 2e bd 94 ee 8c 3c
       -0.03455472 -0.039985605 -0.04272341 0.017203607
0003b0 dc 81 6e bd dc 3b 7b bd f7 22 3a 3d 0c 85 15 3d
       -0.058229312 -0.061336383 0.0454435 0.036503837
0003c0 72 b4 5a 3d 02 4b 35 3d 70 0b 0f bc 0e f6 7d bd
       0.053394742 0.044260986 -0.008730754 -0.062002234
0003d0 96 45 f3 bc 00 e3 f8 bc 3b e8 59 3d ca e7 7d 3d
       -0.029696267 -0.03038168 0.053199988 0.06198863
0003e0 38 44 7f 3d 70 1e e0 3b 1e a1 14 bc a4 74 10 bd
       0.062320918 0.006839566 -0.009071616 -0.035267487
0003f0 5c 3c 60 bd a5 3a 2e 3d f7 7f 83 bd 14 98 da 3c
       -0.054745063 0.042536397 -0.06420892 0.026683845

fc2.bias f4 [128]
000000 00 24 1b bd 9e e1 b3 3d 5e 17 4e bd 9b 7b e4 3c
       -0.03787613 0.087832674 -0.050315253 0.02789097
000010 04 65 4a bd a4 42 36 3d 94 7c 67 3a 11 96 4c 3d
       -0.049412742 0.044497147 0.0008830514 0.049947802
000020 7a 16 77 3d 48 c9 cc 3c 4f 1a c1 ba d6 95 ac bb
       0.06032417 0.024998322 -0.0014732572 -0.0052668853
000030 d1 51 10 bd d8 98 41 bd ce d9 23 bd a8 2f 6a bd
       -0.035234276 -0.047264904 -0.040002637 -0.057174355
000040 c1 24 4a 3d 39 00 0a 3d 9f a9 ea ba 3d 76 3c 3d
       0.049351458 0.03369162 -0.0017903334 0.0460112
000050 cf 3e 1e 3d 07 cd 3d 3a 16 88 73 3c cb 78 4e 3d
       0.038634118 0.0007240329 0.014863988 0.050408166
000060 ab 92 62 3d bb 59 91 3c 1e 52 42 bd 64 33 71 bd
       0.055315655 0.017742982 -0.047441594 -0.0588869
000070 13 de be ba 3c d8 63 bd 4a 37 2c bc 4b c7 ca 3a
       -0.0014562033 -0.05562614 -0.010511229 0.0015470771
000080 27 77 70 bd 91 e7 cd 3a a5 41 dd 3c 3f 77 40 bd
       -0.058707383 0.0015709271 0.02700884 -0.046988722
000090 51 ca 08 bb 9c 54 a8 bb 40 21 e3 bc 32 d8 19 bd
       -0.0020872543 -0.0051370393 -0.027725816 -0.037559696
0000a0 72 99 23 3c 47 63 51 bd 9d a3 7b 3d 0c f9 a1 bb
       0.009985315 -0.05112007 0.06143533 -0.004943019
0000b0 a3 b8 25 3d 20 1f 43 bb cf 94 83 3c 79 96 a2 bc
       0.040459286 -0.002977319 0.016062168 -0.019847142
0000c0 6d 8a c9 bc 3a 99 45 bd 90 71 0c bd 4c ca 54 bd
       -0.02460214 -0.04824183 -0.03428799 -0.051950738
0000d0 c7 e5 f6 bc 79 50 84 3d fe 90 70 3a 73 06 10 bd
       -0.030138863 0.064606614 0.0009176879 -0.0351624
0000e0 28 c9 9f bc f4 36 f7 3b 55 88 37 3d 5d fd 47 bd
       -0.019505098 0.0075443927 0.04480775 -0.04882561
0000f0 05 fa 8b bc 5f f2 31 bd d3 77 5e bd 14 26 8c bc
       -0.017086992 -0.043444034 -0.054313492 -0.017108
000100 98 66 8d 3d 65 d9 4d 3d f5 86 63 3d 2c 45 9e 3d
       0.06904334 0.05025615 0.055548627 0.07728037
000110 a8 63 88 bd 2c 04 2f bc 27 f9 53 bc df 02 70 3d
       -0.06659633 -0.010682147 -0.0129378205 0.058596488
000120 22 45 88 bd 5c fe 6e bc e3 26 c6 bc dc f6 f4 3c
       -0.06653811 -0.014587011 -0.024188465 0.029902868
000130 e4 f6 33 bd 65 0a c9 bc 56 e9 9e 3c f4 4c d3 bc
       -0.043936625 -0.02454109 0.019398373 -0.02579353
000140 2e 96 a7 3c 54 04 b6 3c 00 eb 85 bd 5d 51 54 3d
       0.020457353 0.02221886 -0.06538963 0.051835407
000150 93 d9 74 bd 2d 83 58 3d 62 fe 7e bd 8e 9e 9e bc
       -0.059777807 0.052859474 -0.062254317 -0.019362714
000160 03 11 a1 bb ba 55 51 3d 3c 57 23 bd 3b c3 92 3c
       -0.004915358 0.051107146 -0.039878115 0.017915359
000170 ba 89 a9 ba d4 c2 72 bd 08 15 8a bd d9 d1 65 3b
       -0.0012934722 -0.059267834 -0.06742293 0.0035067706
000180 18 1d a1 bc c9 fe 47 3d e4 21 53 3c be f6 04 bd
       -0.019667193 0.048826966 0.012886498 -0.032461874
000190 01 95 2b bc a5 6c 11 bd 22 42 5b 3d f1 aa 21 3d
       -0.010472537 -0.035504002 0.053529866 0.039469663
0001a0 36 cd 35 3d ef 25 46 bd fd 9c 5d bd fa 7b 82 bd
       0.044385158 -0.04837602 -0.054104794 -0.06371303
0001b0 32 f7 4a bd 28 12 c7 3c cf 19 6b 3c 5d 55 cc bc
       -0.04955215 0.02430065 0.014349415 -0.024943048
0001c0 aa 55 5a 3d 12 40 3c bd cb 7c b6 bb b6 03 24 bd
       0.053304352 -0.04595954 -0.0055690757 -0.0400426
0001d0 54 c5 2c bd 0e 32 8e bc ca 61 55 3d da 2c a3 3c
       -0.042180374 -0.017357852 0.052095212 0.019918848
0001e0 51 8d e9 3c 1c c3 1c bd 6d 21 38 bc a5 1a 12 3d
       0.028509768 -0.03827201 -0.011238438 0.03566994
0001f0 24 7c f3 3c 5e d7 0e 3c 6d c9 00 3d 08 c4 6a 3c
       0.02972228 0.00871834 0.031442095 0.014328964

fc3.weight f4 [64, 128]
000000 02 6a ee 3c 3d b9 c0 39 91 5b 2e ba 7a 3f 80 bc
       0.029103283 0.00036759107 -0.00066512177 -0.015655268
000010 18 7f 4c 3d 5c 0e 62 3b 24 46 b0 bd 47 a3 ab bd
       0.049925894 0.0034493422 -0.08607128 -0.08380752
000020 04 c2 72 3d d9 74 6b 3d 4c fb 2b bd 6c 5a 3b 3d
       0.05926706 0.05748448 -0.041987702 0.04574053
000030 86 50 8f bd e8 39 76 3d 09 6d 52 3d 0c da a3 3d
       -0.069977805 0.060113817 0.051373515 0.080005735
000040 2c b4 f7 bc 9f f2 e4 3c 91 9e 0c bd 5b e2 fd bb
       -0.03023728 0.027947722 -0.03433091 -0.007747931
000050 ed 2c a4 3d e3 f6 98 3c 15 03 1a 3d a5 86 a9 bd
       0.080163814 0.018672412 0.037600596 -0.082776345
000060 32 fa d4 bc 76 4a 8b bc e0 f6 77 3d 37 86 99 bd
       -0.025998209 -0.01700328 0.060538173 -0.074963026
000070 f9 71 38 bd ba f4 82 bd ad 37 95 bb 54 cf 3b 3d
       -0.045030568 -0.06394334 -0.004553756 0.04585202
000080 3b 4a f3 3c 1b b0 c2 bc 9d 2a a2 bc 0d f5 25 3d
       0.029698482 -0.023765614 -0.01979571 0.0405169
000090 27 56 75 3c 3f 56 a7 3d ea 27 01 3d d5 3c 2d bd
       0.014974154 0.08170747 0.031532206 -0.042294342
0000a0 82 47 62 3d b1 d6 64 3c 92 79 0f bc 49 cc 52 3d
       0.055243976 0.013967202 -0.008757012 0.051464353
0000b0 6b fe 8f bd c3 5d eb 3c bd 38 8f 3d 7e b7 90 bc
       -0.07030948 0.028731233 0.06993244 -0.01766562
0000c0 43 e6 e1 3c 6a c8 19 3d e9 75 4f bd 51 c3 95 3d
       0.027575618 0.037544645 -0.050649557 0.07312644
0000d0 03 19 18 bb b1 e3 fb 3c f9 c9 cd 3c 0a 81 fe 3c
       -0.0023208268 0.03074822 0.025120722 0.03106739
0000e0 d9 06 29 bd 4b e8 9e bb bf 3a 0f 3d 1e b0 c0 bc
       -0.041266296 -0.004849469 0.034968134 -0.02352148
0000f0 2b c7 55 bd cb 20 89 3d 36 cd 03 bd fa d4 0e 3d
       -0.052191895 0.06695708 -0.032178126 0.03487108
000100 1d d5 40 3c bd d0 5b 3d 38 9e 88 bd 3c c8 50 bc
       0.01176956 0.053665865 -0.06670803 -0.012743052
000110 1a ea 39 ba 71 46 02 3d 14 49 4d 3d c3 d1 d8 bc
       -0.0007092074 0.03180546 0.05011852 -0.02646721
000120 d7 75 53 bc 50 7b 83 bd 4d e1 7b bd 95 7d 2c 3c
       -0.012906513 -0.06420004 -0.06149416 0.010527988
000130 42 8b 72 3c 4b 35 64 3d 2f 8b 87 bd a1 aa 95 3d
       0.014803709 0.055714887 -0.06618344 0.073079355
000140 26 85 e6 3c 8d 1f 2d bc 5d 41 a1 3d df a8 5a bd
       0.028139662 -0.010566604 0.07873795 -0.053383704
000150 ea ec 8d bc 91 20 57 3d 07 41 99 bd f5 7f 86 bd
       -0.017324883 0.052521292 -0.07483106 -0.065673746
000160 fc 48 4f bc ce 7c 39 bd 95 30 58 bc 29 18 9e 3d
       -0.012651678 -0.04528504 -0.013195177 0.07719452
000170 41 57 4f bd d2 93 6b 3d 70 86 b4 bc 04 9e b4 3d
       -0.05062032 0.05751402 -0.022036761 0.088192016
000180 09 a5 b6 bd e6 08 48 bd 60 fd 92 3c 00 a3 e5 3b
       -0.08918197 -0.04883661 0.017943084 0.0070079565
000190 cc 95 b7 bd 21 d2 99 bd c2 14 fb bc d5 6d aa bd
       -0.08964118 -0.07510782 -0.030649547 -0.0832173
0001a0 8b 52 99 bd c3 ec a9 bd 71 83 44 3d 0b 06 af bd
       -0.07486447 -0.08297112 0.047976915 -0.085460745
0001b0 81 7a a8 3d f6 b5 91 3c 70 d3 86 bd d8 ee a6 bd
       0.08226491 0.017786961 -0.06583297 -0.081510246
0001c0 69 fa 6f bd a4 a5 96 3d f9 0b 30 bd 20 36 1d 3c
       -0.05858842 0.07355812 -0.042980168 0.009595424
0001d0 b2 ad ae bd 4c 26 5c bd 98 6d 94 3d d5 46 37 3b
       -0.085292235 -0.05374746 0.07247466 0.0027965803
0001e0 be d9 3e 3d 47 51 71 bd c2 b0 b9 3c 65 c3 e2 bc
       0.046594374 -0.058915403 0.022667293 -0.027681062
0001f0 0b 17 e8 3c 99 12 71 bc 00 82 43 3d 4b 75 a8 bc
       0.0283313 -0.014713907 0.0477314 -0.020563742
000200 47 6c 93 bd b5 60 c1 bc 80 4e 46 3d d9 fd b7 bc
       -0.07198387 -0.023605684 0.048414707 -0.022459911
000210 3b 68 0b bd c4 9f f6 bc de 5e 73 3d 2b b2 58 bc
       -0.03403495 -0.030105479 0.059416644 -0.013226072
000220 c6 48 8b bd b0 d6 a3 bd 88 d6 65 3c a5 45 de bc
       -0.0680099 -0.07999933 0.014028199 -0.027132818
000230 3a 33 77 3d 37 48 13 3c 4d 42 8d 3d d7 68 89 bd
       0.060351588 0.008989385 0.068974115 -0.0670945
000240 59 7f 86 3d c5 a3 a7 3c a3 81 41 bd 96 cf 92 3d
       0.065672584 0.020463834 -0.04724277 0.071685
000250 cf 29 94 bd 17 32 75 bc af e9 b1 bc da fa 1f 3d
       -0.07234537 -0.014965556 -0.021717874 0.03905759
000260 40 28 a0 3d e9 1f 24 bc f4 a7 84 bc 53 c6 45 bd
       0.07820177 -0.010017374 -0.016193368 -0.04828484
000270 4c 9a 19 bc 23 20 88 bd c6 4b 02 3c 13 a2 c1 3c
       -0.009375166 -0.066467546 0.007952636 0.023636853
000280 40 0e 2d bd 59 bf 55 3d 1b 95 3c 3d 7e 3f e7 bc
       -0.042249918 0.052184436 0.046040636 -0.028228518
000290 2b f9 fc bc 56 83 87 bd 17 a8 64 3d aa b6 8a 3d
       -0.030880531 -0.06616847 0.055824365 0.06773122
0002a0 7e 07 63 bc c4 8b 04 bd 20 fd 25 3d b3 7b af bd
       -0.013856767 -0.032359853 0.040524602 -0.08568516
0002b0 31 d2 30 3d 7c ed ac 3d 20 ed ca bc 3c b2 a5 3c
       0.043169204 0.08443734 -0.024771273 0.02022659
0002c0 f4 e4 ef 3c 97 8e 9e 3d 3f 25 a1 3d 56 b0 4b bd
       0.029283978 0.077420406 0.07868432 -0.049728714
0002d0 43 40 3d 3d 89 49 bd bc bd bf 9b 3c 5c 59 03 3d
       0.046203863 -0.023106353 0.019012326 0.03206764
0002e0 4f 69 93 3d bc 03 a1 3d b4 8f 7b bd 0c ac 89 3d
       0.071978204 0.078620404 -0.061416343 0.067222685
0002f0 d0 23 04 bc ee 11 38 3c 57 3c 14 bd 2d dc 9d 3d
       -0.008065179 0.0112347435 -0.036190357 0.07708011
000300 fd 29 97 bd 2c 65 7d bd 89 bf 0a bd 21 be 90 3d
       -0.073810555 -0.061864063 -0.03387407 0.07067514
000310 94 24 88 3d a7 1c 12 bd 0e f4 09 bb 46 0b 96 bd
       0.06647602 -0.035671856 -0.002105001 -0.07326369
000320 95 ad 2d 3d e9 f8 95 bd 74 5f e9 3b db a8 33 bd
       0.04240187 -0.073228665 0.0071219746 -0.043862205
000330 39 0f 77 3d f4 f8 53 bd f2 50 02 bc 65 67 af 3d
       0.06031725 -0.051751092 -0.007953869 0.08564643
000340 b8 5d 5e 3d bb 0c 3d bd 5a 6a be bb 6b 7f a7 bd
       0.054288596 -0.04615472 -0.005811018 -0.081786
000350 7a 86 12 3d f8 e7 91 3d 6f 00 93 3d e9 74 31 bc
       0.035772778 0.07124323 0.07177817 -0.010831096
000360 29 c8 95 3d ec a5 b3 3d ba 83 a3 bc eb 85 90 3d
       0.07313568 0.087718815 -0.019960273 0.07056793
000370 a3 f8 2b 3d d1 4f 97 3c f5 bd 85 3c 2f 01 19 bd
       0.041985165 0.018470677 0.01632593 -0.037354644
000380 af 91 7b bc c9 25 9d 3a f3 43 11 bd b9 93 6b bd
       -0.015354558 0.001198941 -0.035465192 -0.057513926
000390 d1 b2 4b bd 56 fe 1e bd 0a 58 94 bc 36 13 66 3d
       -0.04973108 -0.038816772 -0.018108387 0.056170665
0003a0 b2 22 32 bd 04 45 9a 3d b5 fb 7a bd 43 af a0 3d
       -0.04349012 0.07532695 -0.061275203 0.078459285
0003b0 ff a0 d7 39 9f 2b a1 3d 61 f4 e6 ba 85 e3 02 bd
       0.00041127947 0.07869648 -0.0017620438 -0.03195526
0003c0 0b 55 91 3d fa 2e f4 3c 68 7a a0 bd e5 ef 66 bd
       0.07096299 0.029807556 -0.07835847 -0.056381125
0003d0 51 72 66 bc 23 25 f3 3c e1 a7 c4 3c 74 71 aa bd
       -0.014065341 0.029680794 0.024005832 -0.08322421
0003e0 7e 0e 3d bb cf 98 90 3d 30 54 46 3d 51 db f6 3c
       -0.002884775 0.07060396 0.04842013 0.030133875
0003f0 0d 1a ad bd 37 80 9f 3d 1c 3e 75 bc 34 ba 87 3d
       -0.084522344 0.07788127 -0.014968421 0.06627312

fc3.bias f4 [64]
000000 c5 fb 7c bc 1c e2 a3 bd 0c 05 8e 3d 2e f3 a0 3c
       -0.015440886 -0.08002111 0.06934556 0.019647207
000010 b2 0b 91 3d 2b 27 15 3d 15 77 4d 3d 55 a5 e3 3c
       0.07082309 0.036414307 0.050162394 0.027788797
000020 2d 2c 8b 3c 03 6b 68 bc 96 a2 6f 3d 2f fe 81 bd
       0.016988838 -0.01418567 0.058504663 -0.0634731
000030 1e 9d 1d bb 13 34 7c 3d fe 48 98 bd ba 4f a5 bc
       -0.0024049948 0.0615731 -0.07435797 -0.020179618
000040 9b 4c 56 3d 43 ae 93 bc 06 1d 3a 3d 95 12 b5 3d
       0.05231915 -0.01802743 0.045437835 0.08841435
000050 1d c3 20 3d a6 b9 b6 bd 39 65 91 bd 41 57 3f bc
       0.039248575 -0.089221284 -0.07099385 -0.011678518
000060 9d 94 46 bc 74 c6 47 bd e3 5d 4f bc 5c f5 c7 bc
       -0.012120393 -0.048773244 -0.012656662 -0.024408989
000070 fe 91 9a 3d 3b b3 34 bb a0 83 a1 bc 0f de 6e 3d
       0.07547377 -0.002757265 -0.019716084 0.05831724
000080 72 ac b7 3c cf 32 aa bd a6 b3 2d bd 4d f7 b8 bd
       0.022421096 -0.08310472 -0.042407654 -0.09031544
000090 6b 58 17 bd 32 41 a7 bc 18 ba 2d bc 3d 7c b6 3c
       -0.036949556 -0.02041683 -0.01060345 0.022276038
0000a0 57 6d 40 bd 6b 59 60 bb 55 b0 3b bd 0e ba 29 3d
       -0.046979275 -0.0034232985 -0.04582246 0.0414372
0000b0 c0 8d ac 3d e4 13 b2 bd 7a 7b e5 bb 86 d3 d0 ba
       0.08425474 -0.086952 -0.007003245 -0.001593218
0000c0 87 76 70 bd 57 3d b1 bc d5 b6 97 bc d0 e2 ae 3d
       -0.058706786 -0.021635694 -0.018519798 0.08539355
0000d0 7d 01 a4 3d 92 4d 54 bc 52 ff 80 3d 77 7d cb 3d
       0.08008096 -0.012957947 0.062986985 0.0993604
0000e0 ef e3 d4 3c 40 d2 be bc 24 47 70 bd 93 27 7b bd
       0.025987593 -0.023293614 -0.058661595 -0.061317038
0000f0 4f 8e 90 bb ee fd 0e bc 0b a9 be bd 6f 95 fd 3c
       -0.0044114958 -0.008727534 -0.09309586 0.030955045

fc4.weight f4 [32, 64]
000000 c9 9d 87 bd b6 aa 06 bd 79 eb 1b bd 18 cf c0 3d
       -0.06621892 -0.032877646 -0.03806636 0.094145
000010 1f 96 e4 bd 7f 40 ed bd 6d 0a a4 bd 23 a8 50 3c
       -0.11161446 -0.11584567 -0.08009801 0.012735399
000020 47 57 ac 3c c7 02 13 bd db 7f fa bd 00 ef 2b bd
       0.02103771 -0.03589132 -0.12231418 -0.041975975
000030 19 5c 8d bd 5c d7 5b bc 64 0c 9f 3d e7 af ec ba
       -0.06902332 -0.013418045 0.07766035 -0.0018057794
000040 12 0b 34 3d 6e 23 95 bd 4f 60 58 bd 8e 00 87 3d
       0.04395587 -0.07282148 -0.052826222 0.06591903
000050 42 e1 cb bc 0b 7f a7 3d 8b 79 59 3d ea 53 da 3c
       -0.024887685 0.081785284 0.053094428 0.026651341
000060 bf 8e b4 3c 12 79 c4 3d ee 9d 00 bd c1 bb 95 3d
       0.022040723 0.09593405 -0.031400613 0.07311202
000070 a5 f7 44 bc 16 88 af 3d 59 3b 39 3c a2 f1 20 bb
       -0.012021934 0.08570878 0.0113056535 -0.0024558087
000080 cb 62 bd 3d 50 f9 e1 3c 7c d6 88 bd 4b 96 d4 3d
       0.09247359 0.027584702 -0.06681535 0.103802286
000090 e0 65 fd bc 98 d9 a0 bd 68 00 aa 3d b4 0d b7 bb
       -0.030932367 -0.07854003 0.08300859 -0.0055863503
0000a0 94 fc 68 3b 08 ee 0c be 56 fb de 3d c7 c3 7f bd
       0.003555094 -0.13762677 0.10887782 -0.062442567
0000b0 73 a6 05 be 7e 5d e2 3d c5 b5 16 bd 22 13 ae bd
       -0.13051777 0.110529885 -0.036794443 -0.08499743
0000c0 19 df d8 bd d0 80 48 3d 82 c1 c7 3d 89 25 0e 3d
       -0.105894275 0.04895097 0.097537056 0.034703765
0000d0 e8 d8 87 3d 3d ee 87 bd f5 00 e9 bd 12 c0 cf 3d
       0.066331685 -0.06637237 -0.11377136 0.101440564
0000e0 de 67 d2 3d 47 bf a4 3d 53 06 52 bd 0f a7 d1 bd
       0.10273717 0.08044296 -0.051275562 -0.10236942
0000f0 f7 bb 2d 3b 65 3a ff bc 1c 69 aa 3c 70 b8 48 bd
       0.002650974 -0.031155774 0.020802073 -0.04900402
000100 d4 78 18 3d fc c7 99 bd 98 5d c7 bd a6 97 eb bd
       0.037224606 -0.07508847 -0.097346485 -0.11503534
000110 76 92 99 3d e2 15 e3 bd 1b 09 8f 3d 6f 51 8b bb
       0.07498638 -0.11088158 0.069841586 -0.004251651
000120 00 7b 87 bc 7a f1 fa bd 0a b2 9c 3d 5c 12 97 3d
       -0.016538143 -0.12253089 0.07651146 0.07376549
000130 33 20 ea bd 3e e6 64 3d 66 c7 e7 3d 72 f2 94 bd
       -0.11431923 0.05588364 0.11317329 -0.07272805
000140 86 44 a9 bd 00 2d 38 bd 94 ca 1f bd 7b 8d f0 3c
       -0.08265023 -0.04496479 -0.039011553 0.029364338
000150 fa 3f 89 bd 82 16 e9 bd e0 55 9b 3b 1c f9 96 3d
       -0.06701656 -0.11381246 0.0047404617 0.073717326
000160 ee f7 c3 bd 96 26 8e bd c8 7e 42 3d b0 12 62 3c
       -0.09568773 -0.069409534 0.04748419 0.013798401
000170 8a f7 de 3d 0e 68 bc 3d 08 49 c7 bd 78 2d bd bc
       0.10887058 0.09199534 -0.097307265 -0.02309297
000180 6e 56 a6 bd 5c 6f 07 3d e8 17 b9 3c ba 46 c0 bd
       -0.08121954 0.033065185 0.022594407 -0.0938849
000190 63 6b 19 3d 88 08 98 bc bc d5 e9 3d bb 98 b0 3d
       0.037455928 -0.018558756 0.1141772 0.08622881
0001a0 5d 75 a0 bd e8 d4 9c 3c 88 1e ad bc ae fd b5 bd
       -0.07834885 0.01914449 -0.021132722 -0.08886276
0001b0 b8 2f 83 3c e0 30 02 3d a0 00 f9 bb 79 21 8f 3c
       0.016013965 0.031784892 -0.0075989515 0.017472016
0001c0 80 f1 2e 3d 58 4c 92 3d 08 f0 d1 3c e7 ad db bc
       0.04271078 0.07143468 0.025627151 -0.026816322
0001d0 80 8c 29 3c 4a d1 b9 bd 88 4d 6e bd a0 ca ed bd
       0.010348439 -0.09073122 -0.05817941 -0.11610913
0001e0 a2 a0 a5 bd 7a 8e e3 3d 64 e8 75 3d 1c 8a b2 bd
       -0.08087279 0.111111596 0.060036078 -0.087177485
0001f0 1a b6 db 3d 78 ba d5 bc 12 8a b4 bd a0 1f d0 3d
       0.107280925 -0.026089892 -0.08815397 0.10162282
000200 a0 3c c0 bc 38 2d 8f 3d da 42 97 bd fa 1f 9a bd
       -0.023466408 0.06991047 -0.07385798 -0.0752563
000210 c0 a0 13 be e0 13 5f bc ac 15 af bd 04 58 d8 bd
       -0.1441679 -0.013615578 -0.085490555 -0.10563663
000220 7c 35 f6 bd d4 89 20 3d ba c2 d1 3d 52 68 1f 3c
       -0.1202192 0.039193943 0.10242219 0.009729462
000230 10 c2 22 bc 3e 6b e7 bd a4 9b 98 3d 98 9a 50 bd
       -0.009933963 -0.11299752 0.07451561 -0.050928682
000240 90 a7 a1 3c ea ac 0a 3d 80 02 21 bb d8 8c ad bc
       0.01973322 0.03385631 -0.002456814 -0.021185324
000250 d8 89 86 bd 00 87 38 3d 63 9c 40 bb 32 45 e5 bd
       -0.0656926 0.04505062 -0.0029390089 -0.111948386
000260 95 ef f0 bd db 4c cc 3d 3b 9e ab bd f1 19 ad 3d
       -0.11764447 0.099755965 -0.083797894 0.084522136
000270 40 18 b8 3c 9c c1 90 bd 70 aa 91 3d 6f 64 11 be
       0.0224725 -0.07068178 0.071125865 -0.14198469
000280 0a 5e e5 bc de 6c c4 3d 56 bb ba bd 7a 9e 97 3d
       -0.027998943 0.09591077 -0.09117763 0.07403274
000290 dd bc 92 bb b3 96 c0 bd 75 c3 43 3c 28 7f aa 3d
       -0.0044780807 -0.094037436 0.011948456 0.083250344
0002a0 ac 20 64 3d b0 1f 2e bc 57 c6 f2 bd a3 a8 86 bd
       0.05569522 -0.010627672 -0.118542366 -0.06575134
0002b0 a0 3c 7b bd 5c 32 8c bd 9b ef 3b 3d 3c 3a 70 3d
       -0.061337113 -0.06845543 0.045882802 0.058649287
0002c0 19 e3 98 3d a8 85 33 3d 6b d5 05 be f0 75 cc bd
       0.074651904 0.043828636 -0.13069694 -0.09983432
0002d0 b3 b0 83 3d 03 05 71 bd be 36 50 3d 03 65 a8 3d
       0.06430187 -0.05884267 0.050833456 0.082223915
0002e0 e0 a8 dd bd 18 e4 be 3d 7c b5 9c 3d c8 e5 d8 bc
       -0.10823226 0.09320849 0.07651803 -0.026476756
0002f0 5f 03 93 3d 3a 25 59 3d 74 7a fc bd 00 68 84 ba
       0.07178377 0.053014018 -0.123280436 -0.0010101795
000300 e8 71 07 3d 70 b3 5d 3c 8b 98 0d 3e 58 64 12 bc
       0.033067614 0.013531551 0.13827722 -0.008935057
000310 5c 86 08 be 64 4d ef 3c de de c6 bc f0 40 17 3e
       -0.13332504 0.029211707 -0.024276193 0.14770865
000320 59 8b db 3d f7 a4 07 3e a9 d7 9a bd ab 9a 8a 3c
       0.10719938 0.13246523 -0.07560665 0.016919455
000330 9c 3b 2d 3d 6e 04 9a 3d 7b 9e 45 bc 56 5d 22 bd
       0.042293176 0.07520376 -0.0120617105 -0.039639793
000340 32 9a b5 bc 65 26 ed 3d 30 a2 0e 3d 0e 75 96 3d
       -0.022168253 0.11579589 0.034822643 0.07346545
000350 d3 b3 00 bb df 50 cd 3c 28 06 cb bd f1 dc 0e bd
       -0.0019638434 0.025062976 -0.099132836 -0.034878675
000360 a5 14 eb 3d 94 0e 91 bd ab cc 34 bb 1b 52 2a be
       0.11478547 -0.07082859 -0.0027587812 -0.16632883
000370 df 93 f3 3d 1a b0 a4 3c de 11 81 3d 1c 20 09 bd
       0.118934385 0.020103503 0.06302236 -0.033477888
000380 5f 03 20 3e a8 53 e1 3c 80 f1 ac 3c 04 85 25 3d
       0.15626286 0.02750571 0.02111125 0.040410057
000390 bc c9 11 bd a8 e2 d8 bd 92 f7 0c be 95 41 f6 3d
       -0.03559278 -0.10590106 -0.13766316 0.120242275
0003a0 2d 52 d9 3d d1 8e 96 bd 99 fc 1d bc 8f 0e e0 bd
       0.10611377 -0.07351459 -0.0096427435 -0.10940277
0003b0 2a 78 31 3b 40 2e 80 3b 5a fa a2 3a 3d 83 75 bb
       0.002707968 0.0039117634 0.001243423 -0.0037462257
0003c0 26 57 aa bc 90 91 bd bc bf b6 96 bb 4b a5 d6 3d
       -0.020793509 -0.023140699 -0.0045994218 0.10480746
0003d0 88 48 48 be b6 29 8d bc 81 8b 6a 3d 1c 6a 05 be
       -0.19558918 -0.017231803 0.057261948 -0.13028759
0003e0 17 94 b0 3c c4 2f b2 bd bb 2c 0e be 14 4d d6 3d
       0.02155499 -0.08700517 -0.13884251 0.1046392
0003f0 b8 9e 03 be 2c 5c 42 bd 00 3a 29 bd e2 37 58 bd
       -0.12853515 -0.047451183 -0.04131508 -0.05278767

fc4.bias f4 [32]
000000 e4 59 a5 3a a0 8a 8d bd 1a 4d 82 bd 90 5b 19 3d
       0.001261529 -0.06911206 -0.06362362 0.037440836
000010 dd 25 53 3d 49 a6 75 bb 33 75 30 bd 88 8b 41 3d
       0.05154978 -0.0037483147 -0.04308052 0.047252208
000020 f4 63 a6 bd 13 20 29 bc e5 7b c3 3d 10 1a 4b 3b
       -0.08124533 -0.0103225885 0.095451154 0.0030990876
000030 78 ce 8c 3d e4 67 26 bd e0 73 df bc 33 c8 33 bd
       0.06875318 -0.04062642 -0.027276933 -0.043892097
000040 f2 28 0c bc e3 1c d3 3c d3 54 06 3e b7 c2 0c 3d
       -0.008554684 0.02577061 0.13118295 0.034365382
000050 6e 8b d2 3d 35 5e 16 be 63 57 93 bd f7 5a d3 bd
       0.102805 -0.14684375 -0.07194402 -0.103200845
000060 1e a9 f5 bd 96 ca 78 3d e8 dd 2b bd 96 f1 e1 bc
       -0.11995147 0.060740076 -0.041959673 -0.027581017
000070 30 bf b7 3d 2c 73 10 be 00 5c 78 3d fa de b6 3d
       0.08972013 -0.14106435 0.060634613 0.08929248

fc5.weight f4 [16, 32]
000000 db fd b7 bd 2c b8 9e bd 00 f5 22 bc 77 18 ca bd
       -0.08983966 -0.07749972 -0.009946108 -0.098679475
000010 01 f9 75 3d 78 e2 9a 3d 26 6b 16 3e 00 37 90 3d
       0.06005192 0.07562727 0.14689311 0.070417404
000020 6b 2f af bd 6d 4d 73 3c 1d 62 d6 bd 4e a2 c1 bd
       -0.08553966 0.014850003 -0.104679324 -0.09454785
000030 ea c8 a3 3d 8c 83 41 3b dc 02 c8 3d 0f 61 07 3e
       0.07997306 0.002952787 0.097661704 0.13220619
000040 70 a8 71 bd c8 9d 24 be 75 0a 1c bd 2e e0 ba 3d
       -0.058998525 -0.16075814 -0.03809591 0.0912479
000050 be 41 e2 bc f8 fd 0e 3d ca 73 f6 3d 68 62 0c be
       -0.027619239 0.034910172 0.12033804 -0.13709414
000060 bf bc 1c 3e b6 41 c1 bd ee 65 e2 3d 95 4d a0 3d
       0.15306376 -0.094363615 0.11054598 0.078272976
000070 f6 9d 82 3d cb 1b 12 be 1d d9 e4 3d d3 29 e6 bb
       0.06377785 -0.14268415 0.111742236 -0.007024029
000080 99 50 2e 3c 55 d4 05 be ea 30 79 3d 71 29 6b 3d
       0.010639333 -0.1306928 0.060837664 0.05741257
000090 59 ed 25 3c 51 80 04 bc 8b ea 14 be 80 3a 9a 3d
       0.010127389 -0.008087234 -0.14542596 0.07530689
0000a0 e3 cf c4 3c ef 6e ec 3c 53 a5 46 3d dd e8 93 3b
       0.02402491 0.028861491 0.04849751 0.0045138435
0000b0 87 ca 01 be 47 6b 2a 3e ba ab 8b 3d 8b 0c f2 3d
       -0.12674914 0.16642486 0.068198636 0.11818799
0000c0 66 4b 3b bd e3 e4 80 bd 8b 1a 24 be 4e 06 35 bc
       -0.045726202 -0.06293657 -0.1602575 -0.011048866
0000d0 e8 63 86 3d 93 57 cf 3d dc c5 06 3c 32 f9 7a bc
       0.06562024 0.10124125 0.008225884 -0.015318202
0000e0 9d e3 aa 3d 6f f4 5c bc f9 de 25 be bd d4 b9 3d
       0.08344195 -0.013486012 -0.16198339 0.0907378
0000f0 b7 8b 7c bc b6 8f 04 bc cc ce 18 be b7 10 d8 3d
       -0.01541417 -0.008090904 -0.14922637 0.10550063
000100 1c ef d7 3d ce 88 88 bd 3d b9 9c b9 e5 4a b9 3d
       0.10543653 -0.066667184 -0.00029892652 0.09047488
000110 d6 25 eb 3d 65 aa 32 be 0e 4c aa bc 5c 1c 6a 3d
       0.11481826 -0.17447813 -0.020788219 0.05715595
000120 59 32 ca bd 36 ae a8 3d d4 00 20 3e 0c d6 5b bc
       -0.09872884 0.08236353 0.15625316 -0.013417732
000130 c6 4e 31 3e 84 00 06 3e dd 92 23 3a 73 da 11 be
       0.17315206 0.13086134 0.0006239841 -0.14243488
000140 d9 84 31 3e f1 95 f9 3d 55 ab a4 bb f9 44 0d 3e
       0.17335834 0.12186802 -0.005025307 0.13795842
000150 d4 ab ba 3d 28 4a 8d 3d 89 33 a9 3b 01 df 1c 3e
       0.09114805 0.0689891 0.005163614 0.15319444
000160 47 41 e7 3b d4 ef 12 be d2 91 63 3b 06 5f 2a 3e
       0.007057342 -0.143493 0.0034724367 0.16637811
000170 a6 a0 2b 3d 88 39 05 3b ff 17 bb bd 69 5e 2d bd
       0.041901253 0.002032848 -0.09135436 -0.042326365
000180 0b 46 20 3d bc d5 87 bb b6 69 8b 3d 77 dd ba 3d
       0.0391293 -0.004145352 0.06807272 0.09124272
000190 d0 82 0c be 7a d8 7b bd 91 21 1e be 04 c9 2a 3c
       -0.13721776 -0.061485745 -0.15442492 0.010423902
0001a0 a9 19 01 be 28 2f 33 3e 9e 90 2c 3e 6d de 8f 3c
       -0.12607445 0.17498457 0.16852042 0.017562116
0001b0 23 2b 1a 3e 4d 9e 18 3c 2d 44 a7 3d 20 c3 3b bd
       0.15055518 0.009315086 0.081673004 -0.045840383
0001c0 7a 41 91 bc 74 28 3c 3e b1 01 d6 bd ec 24 5b 3e
       -0.017731417 0.18374807 -0.10449541 0.21400803
0001d0 f8 df b4 bc 94 ef df bd 43 b4 e3 bd 5f 20 cd bd
       -0.022079453 -0.10934368 -0.111183666 -0.1001594
0001e0 7d 11 cc 3c 10 d9 96 bc 14 6c 84 3d b9 1f df bd
       0.024910683 -0.01841405 0.06465927 -0.108947225
0001f0 0c 5c 45 3e 05 2f 26 3e 2b 2b b9 3d 1e c8 48 ba
       0.19273394 0.16228874 0.09041437 -0.00076592143
000200 c6 84 8d 3c a7 8a 32 3d 45 7c 98 bc f2 a7 88 bb
       0.017275225 0.04358926 -0.018613944 -0.0041704113
000210 fe 77 ae bd 56 22 57 3d dc 1b 0f bd 72 37 05 3e
       -0.085189804 0.05252298 -0.03493868 0.13009432
000220 23 c0 ac 3c a2 c4 91 bc da bb b1 bd d1 25 a6 bd
       0.021087712 -0.017793957 -0.08678408 -0.08112682
000230 46 bd 61 3d ea 0b 0d 3e 09 59 38 bd 7d 42 c2 3d
       0.055112146 0.13774076 -0.045006786 0.09485338
000240 62 5a e9 bd fe cd 0d be aa 97 00 be a4 60 91 bd
       -0.11394192 -0.13848111 -0.12557855 -0.07098511
000250 19 1d 87 bd 9a 62 eb 3d 33 a5 39 bd b4 dd e5 3d
       -0.06597347 0.11493416 -0.045323562 0.11223927
000260 e4 7b eb 3d 09 cf 2a be 55 aa 28 3e db 98 2b be
       0.1149824 -0.1668054 0.16471227 -0.16757528
000270 a3 89 c7 bd 89 da 34 be 67 c3 f6 3d 89 3b 8f 3d
       -0.09743049 -0.1766149 0.12048989 0.06993777
000280 0f 87 d4 bd 9a 75 e7 bc a2 3c 0f bd a9 df fe 3d
       -0.10377323 -0.028254319 -0.034969933 0.124450035
000290 79 b3 f8 bd 6b 5a 81 bd c1 b4 1c bd 76 7c 1e 3e
       -0.12143607 -0.06316074 -0.038258318 0.15477166
0002a0 be 98 96 3d 47 4c 42 3c fb b4 30 bd 50 d8 ac 3c
       0.07353352 0.011859006 -0.043141346 0.02109924
0002b0 a1 bf aa bd 92 9c 2a bc c5 ef 32 bd 6d bf 98 3d
       -0.083373316 -0.010413306 -0.043685693 0.074583866
0002c0 62 0d ef 3d 4a 84 1e be e5 0f 00 be 71 4b b0 3b
       0.116724744 -0.15480152 -0.12506063 0.005380087
0002d0 6b 40 07 be f2 38 2c be 8d 66 07 3e a3 1b cb 3d
       -0.13208167 -0.16818598 0.13222714 0.09917381
0002e0 a2 64 41 3d a2 1c 25 3e 91 9f 01 3e f8 4a 25 3e
       0.04721511 0.16124204 0.12658526 0.1614188
0002f0 06 ac 2a be 51 f1 4b 3c 39 93 8d 3d e6 65 31 be
       -0.16667184 0.012447671 0.06912846 -0.17324027
000300 a1 98 51 3d 8d 6f 1c be 7c fd 21 be 3c 3a 77 bd
       0.05117095 -0.15276928 -0.15819353 -0.06035827
000310 9d 16 37 bd 49 6e 18 3d 08 a5 14 3d 61 73 a2 bd
       -0.0446993 0.03721455 0.0362902 -0.07932163
000320 c0 b6 a8 3d fe db 95 3d 3c d1 0e 3d 0f 62 98 bd
       0.08237982 0.07317351 0.03486751 -0.07440578
000330 a6 14 42 3e 2d 3f f0 3c 59 df a6 bd b8 09 3f 3d
       0.18953189 0.029327 -0.08148069 0.046640128
000340 fa 8c ac 3d 63 50 83 bd 4c a8 ab 3d 5e 60 25 3e
       0.08425327 -0.06411817 0.083817095 0.16150042
000350 e3 e1 3a 3e 17 ab 01 be cd 2b 38 3e ae a2 40 3e
       0.18250231 -0.12662922 0.17985459 0.18812057
000360 f4 93 d4 bc 82 4a 3d 3e 45 34 c0 bd d3 bb 2b 3c
       -0.025949456 0.18485454 -0.093849696 0.0104817925
000370 48 b1 a0 bd 14 f0 5d bd 23 81 63 3d 99 e2 67 3d
       -0.07846314 -0.054184034 0.055543076 0.056612585
000380 fd 79 3a 3e a1 dd a9 3d 6a 23 0e 3e e1 3a 15 3e
       0.18210597 0.082942255 0.13880697 0.14573242
000390 97 0b f3 bc 35 5f e2 3d 60 77 db bd a9 b9 f7 3d
       -0.029668612 0.110533156 -0.10716128 0.12095959
0003a0 96 d9 b2 bc 29 42 8f bd 17 a7 61 bd 55 7b 0f 3e
       -0.021832269 -0.06995041 -0.05509099 0.14011891
0003b0 f8 9d ca 3d 90 28 2b 3e 0c f0 9f 3c 82 5f 73 bd
       0.098934114 0.16714692 0.019523643 -0.059417255
0003c0 6c 5b 8e bd c0 95 fd bc 43 11 01 3e 8d 4f 9a 3d
       -0.06951031 -0.030955195 0.12604241 0.07534704
0003d0 09 bd 40 3c 5b e1 70 bd 56 f6 14 3e bd c2 d0 3d
       0.0117638195 -0.058808666 0.14547095 0.101933934
0003e0 0e cb 9b bd c0 36 4c be 63 8d 89 bc 8b d4 4d be
       -0.07607089 -0.1994276 -0.016791051 -0.2010061
0003f0 23 22 06 3e 1d 18 59 bd ab 4a 4d bc 0b c3 5f bc
       0.1309896 -0.05300151 -0.012530009 -0.013657342

fc5.bias f4 [16]
000000 06 1c 9c bd 8e 4a 28 3e b9 5f c9 bd e7 b7 17 3e
       -0.076225325 0.1643469 -0.09832711 0.14816247
000010 bc f4 ae 3b ba 22 cc 3c d6 18 97 bd 17 fc f3 3d
       0.005339233 0.024918903 -0.07377784 0.11913317
000020 61 3e f3 3c cc 16 96 3d 0e a0 36 3e c6 27 26 3d
       0.02969283 0.07328567 0.17834494 0.040565275
000030 1c 8b 15 3e da ac 00 3d 3b f1 ec bd 2a dd a0 3d
       0.14603847 0.031414844 -0.115694486 0.07854684
