MLops_JAAA/models/model.pth (torch, 434046 bytes, 15 tensors)

fc1.weight f4 [256, 247]
0	0x3d50fa0e	0.05101972
1	0xbd52488a	-0.05133871
2	0x3c40c85b	0.0117665185
3	0xbc8c3691	-0.017115863
4	0x3c6f52d2	0.014607148
5	0x3cf98a2f	0.030461399
6	0xbd41f862	-0.047356017
7	0xbd46bc62	-0.0485195
8	0x3cd0a6b6	0.025470119
9	0x3ca4ee1e	0.020133074
10	0xbbe3a240	-0.006946832
11	0xbd5ce760	-0.053931594
12	0xbc869d87	-0.016432537
13	0xbc9c6644	-0.019091733
14	0x3da4e326	0.080511376
15	0xbce30fe7	-0.027717544
16	0x3cff12ac	0.031136833
17	0x3d900447	0.07032066
18	0xbcb8cd7c	-0.02255892
19	0xbc8587ff	-0.0163002
20	0x3cd74ec7	0.026282681
21	0xbc9c8634	-0.019106962
22	0x3c94ef1f	0.018180428
23	0x3c84e9b2	0.016224716
24	0x3bf96974	0.007611448
25	0x3d0ba867	0.034096148
26	0x3d399753	0.04531033
27	0xbd06c533	-0.032902908
28	0xbd1e6bb2	-0.038676925
29	0xbcd2238b	-0.025651714
30	0xbd300c34	-0.042980388
31	0xbb822fb0	-0.00397297
32	0x3cf3ae88	0.029746309
33	0xbd297527	-0.04137149
34	0xbd4634b0	-0.04839009
35	0x3b4d7d81	0.0031355324
36	0xbd9c3374	-0.076270014
37	0xbd868477	-0.065682344
38	0xbc047de1	-0.0080866525
39	0xbdb6846d	-0.08911977
40	0x3c047a13	0.008085745
41	0xbd92efc5	-0.07174639
42	0xbd6de878	-0.058083028
43	0xbc41bf90	-0.011825457
44	0xbd814b17	-0.063131504
45	0xbd494499	-0.049137685
46	0xbb84f976	-0.0040580584
47	0xbcb0f832	-0.021602724
48	0xbde2c002	-0.11071779
49	0x3cc35134	0.023842432
50	0xbd90bd82	-0.07067396
51	0xbbf3e869	-0.007443477
52	0xb9d25656	-0.00040118647
53	0xbcfa722d	-0.030572021
54	0xbd5097db	-0.05092607
55	0x3c64d4d2	0.013966756
56	0x3cb20a12	0.021733318
57	0x3d99ffea	0.07519515
58	0x3d181649	0.037130628
59	0xbd09831d	-0.033572305
60	0x3b254cdd	0.0025222816
61	0xbd31141f	-0.04323208
62	0xbc285a0c	-0.010275375
63	0xbd19317c	-0.037400708
64	0xbcb2675a	-0.021777797
65	0xbd21d1fe	-0.039506905
66	0xb8c7815e	-9.513156e-05
67	0x3d175c1c	0.036953077
68	0xbd1bee47	-0.038069036
69	0x3cf7b612	0.030238185
70	0xbdaf417c	-0.08557412
71	0xbba577e2	-0.0050496915
72	0xbda40e9e	-0.080106005
73	0x3c1250e3	0.008930418
74	0xbd2368bd	-0.039894808
75	0x3cb4592a	0.022015173
76	0xbc88a99b	-0.016682437
77	0xbd331580	-0.043721676
78	0x3c348e6f	0.011020287
79	0x3c71e598	0.014764212
80	0x3cf71693	0.030162131
81	0xbd211934	-0.039330676
82	0xbca35e37	-0.019942386
83	0xbcb1557f	-0.021647213
84	0xbcbca09b	-0.023025801
85	0xbcb8f727	-0.022578789
86	0xbd21e9e2	-0.03952969
87	0x3dd5da6d	0.10442052
88	0x3ccbbc13	0.024869954
89	0x3b192fa0	0.0023374334
90	0x3c8a26e0	0.01686424
91	0xbd2fdaff	-0.04293346
92	0xbc736a9d	-0.014856962
93	0xbd32d0ed	-0.04365628
94	0xbdd19eba	-0.10235353
95	0xbd23cfeb	-0.039993208
96	0x3b5e1e57	0.0033892596
97	0xbd94aabc	-0.072591275
98	0xbd898c58	-0.067162216
99	0xbc1dae40	-0.009624064
100	0x3cc0ac95	0.023519794
101	0x3ba8316c	0.0051328447
102	0x3cb9dd61	0.02268857
103	0x3c8875c5	0.01665772
104	0x3d813468	0.06308824
105	0xbcdf220f	-0.02723792
106	0xbd81ce8a	-0.06338222
107	0xbd448cec	-0.047985956
108	0x3d189849	0.037254605
109	0xbd81e4da	-0.06342478
110	0x3d1313e9	0.03590766
111	0xbd900943	-0.070330165
112	0x3a45c3d4	0.0007544134
113	0x3d4cd592	0.050008364
114	0xbd600c1f	-0.05469906
115	0x3c872244	0.016495831
116	0xbcbd9902	-0.023144249
117	0xbae46442	-0.0017424899
118	0x3d3017d6	0.04299148
119	0x3d02e539	0.031956885
120	0xbced9ee6	-0.029006433
121	0xbb706108	-0.003667893
122	0xbc5dceb0	-0.013538048
123	0x3bea5dad	0.0071522803
124	0xbd11f3a6	-0.035632752
125	0x3ce5dcf0	0.028059453
126	0x3c8c735f	0.017144857
127	0xbd0156d0	-0.03157693
128	0xbd8f276d	-0.06989942
129	0xbd1fc9fc	-0.039010987
130	0x3d393eef	0.045226034
131	0x3ced0463	0.028932756
132	0xbcb7f215	-0.0224543
133	0xbdae0c48	-0.08498436
134	0x3b4e5803	0.0031485565
135	0xbcf0df7a	-0.029403437
136	0xbc5fedd9	-0.013667547
137	0xbd2bab18	-0.041911215
138	0x3daabcdb	0.083368026
139	0x3d24b143	0.040208112
140	0xbd61b887	-0.05510762
141	0xbc84c23a	-0.016205896
142	0x3cf9d6fd	0.030498022
143	0x3d2bd45a	0.04195056
144	0xbd339c31	-0.043850128
145	0x3d0746d0	0.033026516
146	0xbc9f56a7	-0.019450499
147	0xbd85c2a0	-0.065312624
148	0xbd497fca	-0.049194135
149	0xbd614bd7	-0.055003967
150	0x3caa7fc6	0.02081288
151	0x3d2325b7	0.03983089
152	0x3d07c7d5	0.03314956
153	0x3d17ee5f	0.037092563
154	0x3d22d4b1	0.03975362
155	0xbd23a8f6	-0.039956056
156	0x3d20d686	0.039267085
157	0x3c125c49	0.008933135
158	0xbd7af1d0	-0.061265767
159	0x3c394cca	0.011309812
160	0xbd9084a3	-0.070565484
161	0xbd78a1bb	-0.060701113
162	0x3ce86509	0.02836849
163	0x3c478784	0.012178306
164	0x3d672d39	0.056439612
165	0x3d9d8e27	0.07693129
166	0x3d462845	0.048378248
167	0x3ca89a80	0.020581484
168	0x3d2e8bef	0.04261392
169	0x3d09c6e2	0.033636935
170	0x3ce7d67a	0.028300513
171	0x3dd2f290	0.103001714
172	0xbdb18e00	-0.086696625
173	0x3cea69e5	0.028614948
174	0xbd88a336	-0.06671755
175	0xbd467729	-0.048453484
176	0x3d6456a1	0.05574668
177	0x3d98d832	0.07463111
178	0xbd6a711a	-0.05723677
179	0xbdadc69e	-0.08485149
180	0xbc18d314	-0.009327669
181	0xbd8658cc	-0.065599054
182	0xbd8919f3	-0.066944025
183	0xbd9577c8	-0.07298237
184	0x3d40ab3f	0.047038313
185	0x3bb1c23a	0.005424765
186	0xbdb0e7e8	-0.086379826
187	0x3d94ecee	0.07271753
188	0xbb775618	-0.0037740525
189	0xbd94f581	-0.07273389
190	0x3d48f753	0.04906399
191	0x3dab23df	0.08356451
192	0x3ab245e8	0.0013601156
193	0x3d8753e9	0.066078015
194	0xbadada54	-0.0016697147
195	0x3c57ae3f	0.013164102
196	0x3d04b296	0.032396875
197	0xbd3c4c0d	-0.045970965
198	0xbc94e092	-0.01817349
199	0xbc1a2d13	-0.009410161
200	0x3c0d7496	0.008633753
201	0xbd0aa25f	-0.033846255
202	0x3c9dc114	0.019257106
203	0x3d060014	0.03271492
204	0xbcd8f6ea	-0.026484925
205	0xbb868481	-0.004105151
206	0x3d9b115d	0.07571671
207	0xbd303479	-0.04301879
208	0x3d614edb	0.055006843
209	0xbc854baf	-0.01627144
210	0xbc62c6c2	-0.013841333
211	0x3ca076cc	0.019587897
212	0x3d57521b	0.052568536
213	0xbc9d8e21	-0.019232811
214	0xbc25f4b8	-0.010129146
215	0xba571612	-0.0008204888
216	0xbce5ce85	-0.028052578
217	0x3cecc803	0.028903967
218	0x3d8c1e6d	0.06841741
219	0xbd353137	-0.044236388
220	0x3d6dac83	0.058025848
221	0xbbd700a4	-0.0065613557
222	0xbdc65517	-0.09684198
223	0x3d99eaa6	0.07515459
224	0x3c951525	0.018198559
225	0x3bf3cb52	0.007440009
226	0x3ca7e785	0.02049614
227	0xbc20cdc8	-0.009814687
228	0xbdc0d48c	-0.0941554
229	0x3d74d672	0.059774823
230	0x3d874d28	0.06606513
231	0xbb5d0efe	-0.003373086
232	0xbc7d2445	-0.015450542
233	0x3d396f14	0.045271948
234	0xbd8e3aa1	-0.06944776
235	0xbd1786dd	-0.03699385
236	0x3d87ebaa	0.06636746
237	0xbdc1cd32	-0.09462966
238	0xbcc1bb66	-0.023648929
239	0x3d99ed9c	0.075160235
240	0xbd90cd20	-0.070703745
241	0x3ddbcde1	0.10732628
242	0xbd78e250	-0.060762703
243	0xbdaecb82	-0.0853491
244	0xbdabae5b	-0.08382865
245	0xbcf3cf48	-0.029761925
246	0x3d508afe	0.050913803
247	0xbd572520	-0.05252564
248	0xbd43a9d7	-0.047769394
249	0x3c2ddef7	0.010612241
250	0xbc785d7f	-0.01515901
251	0x3d39ed08	0.045392066
252	0x3cca42f3	0.024690127
253	0xbd51380d	-0.051078845
254	0xbbd46608	-0.0064818896
255	0xbcc9cdab	-0.024634203

fc1.bias f4 [256]
0	0xbcbe8d97	-0.023260875
1	0xbd0e880f	-0.034797724
2	0xbd54dce3	-0.051968466
3	0x3c90681e	0.017627772
4	0xbd4a4b83	-0.04938842
5	0xbc81d1d6	-0.015847128
6	0xbc8fc108	-0.0175481
7	0x3c90cab6	0.017674785
8	0x3b9468f0	0.004529111
9	0xbd131a93	-0.035914015
10	0x3d40f8d1	0.04711229
11	0xbc4a125e	-0.012333481
12	0x3cd10e34	0.025519468
13	0xbd952f7f	-0.0728445
14	0xbb9a324c	-0.004705703
15	0x3d101f0f	0.03518587
16	0xbb376b6a	-0.0027987608
17	0xbd488778	-0.048957318
18	0x3b8eb542	0.0043551037
19	0xbd2c45b8	-0.042058676
20	0xbcff136c	-0.03113719
21	0x3c1bec1d	0.009516743
22	0xbcc40be0	-0.023931444
23	0xbd5362e6	-0.05160799
24	0x3d193510	0.03740412
25	0xbd2f1d01	-0.04275227
26	0x3d215e82	0.03939677
27	0x3d37dda6	0.044889115
28	0x3cff0523	0.031130379
29	0x3d0fc44f	0.035099324
30	0x3d36854f	0.044560727
31	0xbc447f0c	-0.011993181
32	0xbd13f802	-0.03612519
33	0x3cbc20e5	0.022964904
34	0x3c347c28	0.011015929
35	0x3d322a3e	0.043497317
36	0xbd95273d	-0.07282875
37	0x3d001c55	0.03127702
38	0xbd7a0bd3	-0.061046433
39	0xbb472f20	-0.003039308
40	0x3c966150	0.01835695
41	0x3d185815	0.037193377
42	0xbd224bc8	-0.039623052
43	0xbc932890	-0.017963678
44	0xbd473132	-0.0486309
45	0xbd87dfd9	-0.066344924
46	0xbc961050	-0.018318325
47	0x3a98784f	0.0011632534
48	0x3d0fe2db	0.035128456
49	0xbc52f304	-0.012875322
50	0xbc24f54f	-0.010068252
51	0x3c32e914	0.010919828
52	0x3d122274	0.03567739
53	0x3d170fcc	0.0368803
54	0x3c373188	0.011181243
55	0xbd0834e2	-0.033253558
56	0x3d4a1bb9	0.049342845
57	0x3ca30c17	0.019903226
58	0xbd291564	-0.041280165
59	0xbd42d9b4	-0.0475709
60	0x3d0c88c6	0.034310125
61	0x3ac451d9	0.0014978006
62	0x3c91bbf4	0.017789818
63	0x3d45714d	0.048203755
64	0x3d5626c4	0.052283064
65	0xbcf57e66	-0.029967498
66	0x3d3fcd5d	0.04682671
67	0x3c5a3f48	0.0133207515
68	0x3d2486da	0.040167667
69	0xbd9b3db1	-0.07580126
70	0xbcaa3afe	-0.020780083
71	0xbc52b216	-0.012859842
72	0x3cb89738	0.022533044
73	0xbc0d8556	-0.008637747
74	0xbcfdee5d	-0.03099745
75	0xbd53beee	-0.051695757
76	0x3d11d6f3	0.035605382
77	0xbcf1ff53	-0.029540693
78	0xbb535ab9	-0.003225012
79	0xbd7f7454	-0.0623668
80	0x3df2c7f8	0.11854547
81	0xbd817678	-0.06321424
82	0xbd579e2a	-0.05264107
83	0xbd892787	-0.06696992
84	0x3c569543	0.01309711
85	0x3c8ed61b	0.017436078
86	0xbac5e4d4	-0.0015098103
87	0xbd2d7c0c	-0.04235463
88	0x3d4a27b8	0.049354285
89	0x3d44c13c	0.048035845
90	0xbd0e159b	-0.034688573
91	0xbcf9a8a1	-0.030475916
92	0xbd46ed5f	-0.04856622
93	0xbd30f723	-0.043204438
94	0xb9c3c33b	-0.00037338756
95	0xbd3ce40d	-0.046115924
96	0xbcd3bda9	-0.025847273
97	0x3caa9d38	0.02082692
98	0xbc14b0a5	-0.009075318
99	0xbd6f4986	-0.058419727
100	0xbc52cbce	-0.012865974
101	0x3bd398dd	0.0064574317
102	0xbcab2af5	-0.020894507
103	0x3d4388fb	0.047738057
104	0x3bfb4c7b	0.0076690293
105	0x3cbc65a5	0.022997687
106	0xbc1f9e90	-0.009742394
107	0x3c6294c8	0.0138294175
108	0xbc2dc786	-0.010606652
109	0x392d3dcf	0.00016521591
110	0xbd69be13	-0.057066035
111	0x3c3b34dc	0.011426177
112	0xbd342a4a	-0.043985642
113	0xbd4f2e83	-0.050581466
114	0x3d17384b	0.03691892
115	0xbc346ff2	-0.011013018
116	0xbbbd3fe7	-0.00577544
117	0xbc830842	-0.015995149
118	0x3c4c37c8	0.012464471
119	0xbd13d7a3	-0.03609432
120	0xbd5ac83d	-0.05341362
121	0xbd5f3867	-0.05449715
122	0xbd6984a3	-0.057011258
123	0x3d60459a	0.054753877
124	0x3bb2c7d0	0.0054559484
125	0xbd864b37	-0.06557315
126	0xbd29ae1e	-0.041425817
127	0xbca215f3	-0.019785857
128	0xbd678f38	-0.05653307
129	0xbcc4b73a	-0.02401315
130	0xbd4f7229	-0.05064598
131	0x3d1d20f1	0.038361493
132	0xbd5854cc	-0.052815244
133	0x3d2b055d	0.04175316
134	0xbbda0947	-0.006653938
135	0xbc812443	-0.015764361
136	0xbc8d139f	-0.01722127
137	0x3c51208b	0.0127641065
138	0xbbeb0111	-0.007171758
139	0x3d1ca1e1	0.038240317
140	0x3d2a38a0	0.041557908
141	0x3cebc3ac	0.028779827
142	0x3cf8f957	0.030392332
143	0x3d0c8252	0.03430397
144	0x3d4c9fab	0.04995696
145	0x3d157e88	0.036497623
146	0x3d7de965	0.06199016
147	0xbbe918af	-0.007113538
148	0xba7f347d	-0.00097352994
149	0xbbdf6f17	-0.006818663
150	0xbd244ae4	-0.040110484
151	0xbd85ec81	-0.0653925
152	0xbbeee868	-0.0072908886
153	0x3d117bf3	0.035518598
154	0xbd70066f	-0.058599886
155	0x3d4a042c	0.049320385
156	0x3d097878	0.033562154
157	0x3cc3da16	0.023907702
158	0x3cbbdfde	0.022933897
159	0x3c6eab52	0.014567213
160	0xbd4a7142	-0.049424417
161	0x3ce8e0f9	0.028427588
162	0xbd5b62df	-0.053561088
163	0xbb97fd5a	-0.004638356
164	0xbc76c165	-0.015060757
165	0x3d469c14	0.04848869
166	0x3d1c37b7	0.03813907
167	0x3d0e420d	0.03473096
168	0xbd1396de	-0.03603255
169	0x3d664964	0.056222335
170	0xbd8a8296	-0.067631885
171	0xbd4521ed	-0.048128057
172	0x3ccc1b3e	0.024915334
173	0x3bcb5c40	0.0062060654
174	0x3d499ffc	0.04922484
175	0xbd48b82c	-0.049003765
176	0xbd7f83bd	-0.062381495
177	0x3c4ac4d8	0.012376033
178	0xbd70e18d	-0.058808852
179	0xbd135d52	-0.03597767
180	0x3c96f5ef	0.018427817
181	0xbd4865e2	-0.048925288
182	0xbc88deb3	-0.016707754
183	0xbd2bbec6	-0.041929983
184	0x3c0752a8	0.008259453
185	0x3d58b081	0.052902702
186	0x3cc240f0	0.023712605
187	0x3d56be31	0.052427474
188	0x3d5ed69f	0.054403897
189	0xbd816781	-0.0631857
190	0xbd6de3b3	-0.05807848
191	0xbcde9fa0	-0.027175725
192	0xbd6b1260	-0.05739057
193	0x3d568886	0.052376293
194	0x3c80274c	0.015643738
195	0x3cc109d9	0.023564266
196	0x3d094da3	0.033521306
197	0x3cf98b40	0.030461907
198	0xbce3fceb	-0.027830562
199	0xbd411974	-0.047143415
200	0x3b1764f8	0.0023100954
201	0x3d65d94e	0.05611544
202	0xbd1a6084	-0.0376897
203	0xbd7f3c1d	-0.062313188
204	0x3c8541f1	0.016266795
205	0x3c398a58	0.011324488
206	0xbc793b48	-0.015211888
207	0xbc1e71b0	-0.00967066
208	0x3d1ef185	0.03880455
209	0xbd65a996	-0.056069933
210	0x3d16e0c2	0.03683544
211	0x3d4b74aa	0.049671806
212	0xbc1410fe	-0.009037254
213	0x3d002380	0.031283855
214	0xbc7e850f	-0.015534653
215	0xbd6afbad	-0.057368923
216	0x3d449301	0.047991756
217	0x3bb44bfd	0.0055022226
218	0x3d7c7628	0.06163612
219	0x3d00e2a1	0.03146613
220	0x3d3ef0a2	0.046616204
221	0xbd91a193	-0.07110896
222	0xbc61130d	-0.013737452
223	0x3d35704c	0.044296548
224	0xbd0c1169	-0.03419629
225	0xbc8fff96	-0.017577928
226	0x3a9a480a	0.0011770737
227	0xbced05e7	-0.028933479
228	0xbd69d174	-0.057084516
229	0xbd476372	-0.048678823
230	0x3d5353ba	0.05159352
231	0x3d67657c	0.056493267
232	0x3d364aa5	0.04450478
233	0x3d6cda1b	0.05782519
234	0x3cbd77f4	0.023128487
235	0x3d299d57	0.041409817
236	0xbcd932cc	-0.02651348
237	0x3c1ebb85	0.009688263
238	0x3ced8410	0.028993636
239	0x3d5a0f85	0.053237457
240	0xbd5beb33	-0.0536911
241	0xbc05d5ae	-0.008168621
242	0x3d237bf6	0.03991314
243	0x3d1cd5a3	0.038289677
244	0xbc39919b	-0.011326219
245	0xbd4e0cd9	-0.05030522
246	0xbd4a20da	-0.049347736
247	0x3d60a462	0.054844268
248	0xbcb4dfa4	-0.022079296
249	0x3c90b2df	0.017663417
250	0x3d59f3ef	0.05321115
251	0xbd67c24f	-0.05658179
252	0xbb56b381	-0.0032760801
253	0x3cc8096b	0.024418553
254	0x3d3c6d7e	0.046002857
255	0xbd5ea71a	-0.05435858

fc2.weight f4 [128, 256]
0	0x3d0728b1	0.03299779
1	0xbbe38c4e	-0.006944216
2	0x3d4e030f	0.050295886
3	0x3d2dd418	0.042438596
4	0x3d076cac	0.033062622
5	0xbd4d2bfd	-0.05009078
6	0x3ccaab66	0.024739932
7	0x3d47b969	0.048760805
8	0xbd3b2941	-0.04569364
9	0x3ca2d022	0.019874636
10	0xbcf3eb52	-0.029775295
11	0x3c892b6a	0.016744334
12	0xbc80b6fb	-0.015712252
13	0x3d0cf311	0.034411494
14	0x3d198efa	0.03748987
15	0x3cfe951b	0.031076958
16	0xbccf9116	-0.025337737
17	0xbc869ad4	-0.01643125
18	0x3d27abe9	0.04093543
19	0x3d472771	0.0486216
20	0xbd2de258	-0.042452186
21	0xbc23aa5c	-0.009989347
22	0x3cd1bc61	0.025602521
23	0xbcc94dff	-0.024573324
24	0x3d1631e4	0.036668673
25	0xbd3da5f6	-0.04630085
26	0x3c9f7a4d	0.019467497
27	0xbac71112	-0.0015187582
28	0x3d2eb1a7	0.04264989
29	0x3d7a0879	0.061043236
30	0xbc925f33	-0.01786766
31	0x3cf03a48	0.029324666
32	0xbd5c6da6	-0.053815506
33	0x3d492a6e	0.04911273
34	0xbc740f70	-0.014896259
35	0xbc9595aa	-0.018259842
36	0xbc8b0986	-0.016972315
37	0x3c2ae1a4	0.0104297735
38	0xbcda1ffc	-0.02662658
39	0xbbd86710	-0.006604083
40	0x3d0857d6	0.033286892
41	0xbceaeb41	-0.02867663
42	0xbd72ec98	-0.059307665
43	0xbcf637ef	-0.030055968
44	0xbcd650af	-0.02616152
45	0xbd2fc58a	-0.042912997
46	0x3d3fc1c2	0.04681564
47	0x3d602dfd	0.054731358
48	0x3d16b5e8	0.036794573
49	0x3d05d665	0.032675166
50	0xbd39ceb4	-0.045363143
51	0x3c74987c	0.014928933
52	0x3d900b0c	0.07033357
53	0x3b86b4fb	0.00411093
54	0x3d2b8af8	0.041880578
55	0xbc827278	-0.015923724
56	0xbd1f5014	-0.038894728
57	0xb904cac2	-0.00012664034
58	0x3c55bef4	0.013046015
59	0x3c970a2e	0.018437471
60	0x3c68cbfa	0.014208788
61	0x3c6de0cb	0.014518927
62	0xbc5a1661	-0.013311
63	0xbd29e722	-0.04148019
64	0xbccd225d	-0.0250408
65	0xbcb6a375	-0.02229474
66	0x3b86f5ed	0.004118672
67	0xbd4d9452	-0.050190277
68	0xbc8b13c7	-0.016977204
69	0xbc5a2559	-0.013314568
70	0x3d6f96c8	0.058493406
71	0x3c93bd96	0.018034738
72	0xbd1ce916	-0.038308226
73	0xbcd2e32c	-0.02574309
74	0x3d08360b	0.033254664
75	0x3d4c45de	0.049871318
76	0xbca06b3f	-0.019582389
77	0x3aa8c5a2	0.0012876282
78	0x3d46646a	0.048435606
79	0x3d4a678f	0.049415167
80	0xba68a246	-0.0008874278
81	0x3d00e276	0.03146597
82	0xbd3e24e3	-0.046421897
83	0xbb9aa996	-0.0047199233
84	0x3d017b56	0.031611763
85	0x3be2b45a	0.0069184722
86	0x3d8cf111	0.06881917
87	0x3d700dab	0.058606785
88	0x398f0a76	0.0002728288
89	0x3d167856	0.036735855
90	0x3d69c6f8	0.057074517
91	0x3d3d10aa	0.04615847
92	0xbc5073c9	-0.012722918
93	0x3dd13ed1	0.102170594
94	0x3d2ba5db	0.04190622
95	0x3d24ed09	0.040265117
96	0xbaa107c1	-0.0012285636
97	0xbc80c145	-0.015717158
98	0xbc10dd6e	-0.008841855
99	0xbd22fb9f	-0.039790746
100	0xbc7bfd47	-0.01538021
101	0x3d3fdce1	0.046841506
102	0xbb8d9890	-0.0043211654
103	0x3d816de7	0.0631979
104	0x3d9bb013	0.07601943
105	0x3d0a2529	0.033726845
106	0x3c0b5530	0.008504197
107	0xbbda6030	-0.0066642985
108	0x3d0791df	0.033098098
109	0x3d3a7d3e	0.045529597
110	0xbd33d4a0	-0.043903947
111	0x3d362b19	0.044474695
112	0xbd130fe1	-0.035903815
113	0xbd01f83b	-0.03173087
114	0xbd0fb0e3	-0.0350808
115	0xbcaf8307	-0.021424783
116	0x3d85e005	0.06536869
117	0xbbbef229	-0.0058272076
118	0xbd28cc8a	-0.04121069
119	0x3cf3c973	0.029759144
120	0xbd2b59d6	-0.04183372
121	0x3d5d1162	0.053971656
122	0x3cb26e79	0.021781193
123	0x3d187876	0.037224256
124	0x3ce29efc	0.0276637
125	0xbcc80c7e	-0.02442002
126	0x3cc5d14d	0.024147654
127	0x3c8ba72b	0.017047485
128	0x3b63f440	0.0034783036
129	0x3cb6058d	0.022219444
130	0x3d6abe05	0.057310123
131	0x3d0c3714	0.034232214
132	0x3d119d05	0.035550136
133	0x3c0e6497	0.008690975
134	0xbd1f3bf4	-0.038875535
135	0xbbb36213	-0.005474338
136	0x3d44c753	0.048041653
137	0x3bd43b04	0.006476762
138	0xbd069e37	-0.03286573
139	0x3d896ab9	0.06709809
140	0x3d1b1bd5	0.03786834
141	0xbd2ad63e	-0.041708224
142	0x3cf6f518	0.030146167
143	0x3d805eec	0.06268105
144	0x3c974081	0.018463375
145	0xbc541469	-0.012944319
146	0x3d3b88bb	0.045784693
147	0x3d503df2	0.050840326
148	0x3d7b936a	0.061419882
149	0x3d3ecf6c	0.04658453
150	0xbce4ebf7	-0.027944548
151	0x3c89ea73	0.016835427
152	0x3d0b5d34	0.034024432
153	0x3ca086e9	0.01959558
154	0x3cbad006	0.022804271
155	0xba908578	-0.0011026105
156	0x3c623760	0.013807148
157	0x3cf4a818	0.02986531
158	0xbd28fe18	-0.041257948
159	0xbd16178e	-0.036643557
160	0x3d030eda	0.031996585
161	0xbd01456e	-0.031560354
162	0xbd40d4d9	-0.047077987
163	0xbc131076	-0.008976093
164	0x3d9cdef3	0.07659712
165	0x3bf49ad5	0.0074647465
166	0x3ceac164	0.028656669
167	0xbd32bc01	-0.043636326
168	0xbc39f1ae	-0.011349125
169	0xbd06b922	-0.0328914
170	0x3d25d70a	0.04048828
171	0x3d3181b8	0.0433366
172	0x3c5d9c91	0.013526098
173	0x3cf208ac	0.02954515
174	0xbc280d47	-0.010257072
175	0x3b46b668	0.0030321125
176	0x3c9bc9d3	0.019017136
177	0x3cb3f94c	0.02196946
178	0x3d080afb	0.033213597
179	0x3d5c40da	0.053772785
180	0x3da337ad	0.07969604
181	0xbd27f46a	-0.041004576
182	0x3d6b6b66	0.05747547
183	0x3d874030	0.0660404
184	0x3c8deaf4	0.017323948
185	0x3d7b6249	0.06137303
186	0x3d4c381b	0.049858194
187	0x3d96bc9d	0.07360194
188	0x3d828697	0.06373327
189	0x3d1fc261	0.039003734
190	0x3d07da69	0.033167277
191	0x3c60b0ac	0.013713997
192	0xbb09088e	-0.002090964
193	0xbd267f6c	-0.040648863
194	0x3d14b32c	0.036303684
195	0x3d8108e4	0.06300524
196	0x3d620904	0.05518438
197	0x3d2b73a2	0.041858323
198	0x3d309e57	0.043119755
199	0x3d67c182	0.056581028
200	0xbc28865f	-0.010285943
201	0x3d8741c6	0.06604342
202	0x3d539ea3	0.05166496
203	0x3ced6b9b	0.028981974
204	0x3de0372b	0.109480225
205	0x3acae1b2	0.0015478639
206	0x3d1ef6fb	0.038809758
207	0x3bfa6f25	0.007642644
208	0xbd39eb98	-0.045390695
209	0x3d451275	0.048113305
210	0x3d6f8394	0.058475092
211	0xbc5c23bc	-0.013436254
212	0x3d56601c	0.05233775
213	0xbc5d3331	-0.0135009745
214	0x3aeb0f2c	0.0017933599
215	0x3d88c745	0.06678633
216	0x3c9599d6	0.018261831
217	0x3d054a3c	0.0325415
218	0xbd3e1ee6	-0.046416186
219	0x3d6a36c3	0.05718113
220	0xbcb834ea	-0.022486169
221	0xbbfa30f3	-0.0076352297
222	0x3d2a7f5d	0.04162537
223	0xbd7fafd4	-0.062423542
224	0x3cb04eba	0.021521915
225	0x3d79439e	0.0608555
226	0xbd85f9fc	-0.06541821
227	0xbca0efc7	-0.019645585
228	0x3d9911ed	0.07474122
229	0xbc27d22f	-0.010242983
230	0x3cab11a1	0.02088243
231	0x3cd11c38	0.025526151
232	0xbc71bc9f	-0.014754443
233	0xbc77bf5e	-0.015121309
234	0x3cb602b0	0.022218078
235	0x3d63a1b0	0.05557412
236	0xbd5aeb42	-0.053447016
237	0x3cd62a0f	0.026143102
238	0xbcc57b50	-0.024106652
239	0xbaa81778	-0.0012824377
240	0x3c943e8f	0.018096237
241	0x3d04d17b	0.03242634
242	0x3d831855	0.06401125
243	0xbceeb76a	-0.029140193
244	0x3bed03a7	0.0072331014
245	0xbd0fd7bd	-0.035117853
246	0xbd11ac4d	-0.03556471
247	0x3d8e2673	0.06940927
248	0xbcd6820c	-0.026185058
249	0xbcaf7afc	-0.021420948
250	0x3c214530	0.009843156
251	0x3c255b06	0.010092502
252	0x3d7ff118	0.062485784
253	0x3d15c8df	0.03656852
254	0x3cfb637c	0.030687086
255	0x3d84f76d	0.06492505

fc2.bias f4 [128]
0	0xbd3c2bb8	-0.04594013
1	0x3b7338e0	0.0037112758
2	0xbd067a6a	-0.032831587
3	0x3be280c5	0.006912323
4	0xbd0de690	-0.03464371
5	0x3d2f02c2	0.04272724
6	0x3d1a348c	0.03764777
7	0xbbd55d58	-0.0065113716
8	0xbd950f26	-0.0727828
9	0xbc7d968e	-0.01547779
10	0x3d466e8e	0.048445277
11	0x3d89a7a4	0.06721428
12	0xbce277f8	-0.027645096
13	0x3d3d63f1	0.04623789
14	0x3be8f0be	0.007108777
15	0x3cc1629f	0.023606597
16	0x3d01b3ca	0.0316656
17	0x3dca4266	0.09875946
18	0x3b5e85be	0.0033954228
19	0x3d4a79a5	0.049432416
20	0xbd1ddae0	-0.038538814
21	0xbbe5075d	-0.006989403
22	0x3d0fe7c6	0.035133146
23	0x3c8cf87f	0.017208336
24	0xbc97e6fc	-0.01854276
25	0xbd40acbb	-0.04703973
26	0xbd5ceba2	-0.053935654
27	0xbd11cf9c	-0.035598382
28	0xbd84f07d	-0.06491182
29	0x3dc95747	0.098311
30	0x3d1e6769	0.03867284
31	0xbd0edd16	-0.034878813
32	0x3d32a309	0.043612514
33	0xbd3c8f24	-0.046034947
34	0xbc5aa554	-0.013345081
35	0x3bc04dea	0.005868663
36	0x3d17506c	0.03694193
37	0xbd726029	-0.059173737
38	0xbc8045e7	-0.015658332
39	0x3d352bcf	0.044231232
40	0x3c05ce2e	0.008166833
41	0x3dd099c8	0.101855814
42	0xbd5c17c5	-0.053733606
43	0x3cf0bc15	0.02938656
44	0x3c8e3ba7	0.017362429
45	0xbcbf8717	-0.023379846
46	0xbc61d3ae	-0.0137833785
47	0xbd10dd24	-0.035367146
48	0xbc29ea25	-0.010370766
49	0xbba5d2c7	-0.005060527
50	0x3d5572e9	0.05211154
51	0x3caa0fa3	0.02075941
52	0xbd19a828	-0.037513882
53	0x3d096c70	0.03355068
54	0x3cc9320f	0.024560003
55	0xbda05db7	-0.07830375
56	0xbd8bf981	-0.068346985
57	0x3deebd15	0.11657158
58	0xbcabff58	-0.02099578
59	0xbd67e626	-0.05661597
60	0xbc71224c	-0.01471765
61	0x3cd9a3d6	0.02656738
62	0x3d04225d	0.032259334
63	0x3cf6450a	0.030062217
64	0x3aba5bff	0.0014218091
65	0xbd129b46	-0.03579261
66	0x3ca1293c	0.019672982
67	0xbc995da1	-0.018721404
68	0x3c313469	0.010815718
69	0xbc4310e9	-0.011905887
70	0xbc16f431	-0.009213493
71	0x3de44541	0.11146022
72	0x3a62c92e	0.0008651194
73	0xbc643b98	-0.013930224
74	0xbc3d7cdb	-0.011565412
75	0x3d9c0c35	0.07619516
76	0x3c1458b0	0.009054348
77	0xbd63e0fd	-0.055634487
78	0x3d4ab220	0.04948628
79	0xbd000877	-0.031258073
80	0x3d29d546	0.04146316
81	0xbce31a08	-0.027722374
82	0xbd4e6f56	-0.050399147
83	0x3c0ed6f9	0.008718246
84	0x3d9a8223	0.07544353
85	0xbb91cf67	-0.004449773
86	0xbce761bf	-0.028244851
87	0xbb510980	-0.0031896532
88	0xbbc36f30	-0.0059641823
89	0xbc5f3496	-0.013623377
90	0x3c07db85	0.008292084
91	0xbc980388	-0.018556371
92	0xbc8ca36c	-0.01716777
93	0xbd5be374	-0.053683713
94	0xbd74dbf4	-0.059780076
95	0x3c98f33f	0.018670676
96	0xbd32951b	-0.04359923
97	0xbcd0d22d	-0.025490845
98	0x3d820543	0.0634866
99	0x3d24786f	0.040153917
100	0xbd8811c4	-0.066440135
101	0x3d3d7247	0.04625156
102	0xbca784cb	-0.020449063
103	0x3d6b8c85	0.057507057
104	0xbb3c6ae0	-0.0028750226
105	0x3b9ba2f4	0.00474965
106	0xbd277e84	-0.04089214
107	0xbd1239a5	-0.035699505
108	0x3b22cd03	0.0024841435
109	0x3d198c79	0.03748748
110	0xbd35ce32	-0.044386096
111	0x3c38b905	0.011274581
112	0xbd5558a1	-0.052086476
113	0xbcf87d1a	-0.03033309
114	0x3dcdc7e9	0.100478955
115	0xbc1748e3	-0.009233686
116	0xbd54aff2	-0.051925607
117	0x3df57729	0.119856186
118	0xbc744a2b	-0.014910261
119	0x3d57f9e9	0.052728567
120	0xbd7ca7ff	-0.06168365
121	0x3aea9aed	0.0017898955
122	0x3bd7a43a	0.0065808566
123	0xbd43e4f1	-0.047825757
124	0xbd5bcbc0	-0.053661108
125	0xbd287db5	-0.04113551
126	0x3d5812db	0.052752357
127	0xbd01739e	-0.0316044

fc3.weight f4 [64, 128]
0	0x3dab89e1	0.08375908
1	0xbca8849c	-0.020571046
2	0x3daf872a	0.085707024
3	0x3d0516b8	0.03249237
4	0xbda75988	-0.081713736
5	0x3d10cda8	0.03535238
6	0x3da9d959	0.08293409
7	0x3d674f3d	0.056472052
8	0xbd5824ea	-0.05276958
9	0x3df27e79	0.11840529
10	0x3c160d8a	0.009158501
11	0x3da27a90	0.07933533
12	0x3d3c0696	0.04590472
13	0xbd30f4b6	-0.043202125
14	0xbceba4a1	-0.028765025
15	0x3d9f93f9	0.077918954
16	0x3d18993d	0.037255514
17	0xbd9c4dda	-0.076320365
18	0xbd06c127	-0.03289905
19	0xbd241760	-0.040061355
20	0x3d908997	0.07057493
21	0xbd4acc4e	-0.049511246
22	0xbcdccebc	-0.026954047
23	0x3ce31902	0.027721886
24	0x3da7ffdb	0.082030974
25	0xbc86dfd8	-0.016464159
26	0xbd9b16e4	-0.075727254
27	0x3decba38	0.11558956
28	0xbbc64052	-0.006050148
29	0xbe1137c0	-0.14181423
30	0x3db10bf4	0.08644858
31	0x3dde9b2c	0.108694404
32	0x3da3b5d3	0.079936646
33	0x3cd2a4a2	0.025713269
34	0xbd1d9921	-0.038476113
35	0x3d80bead	0.062863685
36	0xbd222255	-0.039583523
37	0xbcd79675	-0.02631686
38	0x3d2851d3	0.04109366
39	0xbd340add	-0.043955673
40	0xbcc33fb6	-0.02383409
41	0xbdaa61e5	-0.08319453
42	0x3c32ac05	0.01090527
43	0x3c6ad8dc	0.01433393
44	0xba34a07c	-0.0006890369
45	0x3cf912cb	0.030404469
46	0xbd9a33a5	-0.07529382
47	0x3c85842c	0.016298376
48	0x3cad7582	0.021174196
49	0x3da13337	0.078710966
50	0x3da32837	0.07966655
51	0xbc2c198d	-0.010504139
52	0xbda44cce	-0.08022462
53	0x3d12bba7	0.03582349
54	0x3d1e5f0e	0.03866487
55	0xbd97edad	-0.0741838
56	0x3dc4e0ca	0.096131876
57	0xbd1df13d	-0.03856014
58	0xbd84f0ee	-0.06491266
59	0xbd836b8a	-0.06416996
60	0x3de74cd3	0.1129395
61	0x3cd4a6a5	0.025958369
62	0xbbd213f4	-0.00641107
63	0x3dddfc35	0.1083912
64	0x3d66995d	0.056298602
65	0x3d690d82	0.056897648
66	0x3b5192fe	0.0031978483
67	0xbd90ed91	-0.07076562
68	0x3da9881b	0.08277913
69	0xbd3171a0	-0.043321252
70	0x3d9c5486	0.07633309
71	0xbdde6a8c	-0.10860166
72	0x3d106484	0.03525211
73	0x3d182759	0.0371469
74	0xbc164a6d	-0.009173018
75	0xbdc8f70e	-0.09812747
76	0x3d913e68	0.07091981
77	0x3d4ed351	0.050494496
78	0xbbcd6f12	-0.006269344
79	0x3d0515bc	0.03249143
80	0x3d349d92	0.044095583
81	0xbd045db1	-0.032315914
82	0x3dc32f71	0.09530533
83	0x3cd4d897	0.025982184
84	0xbd3160d6	-0.04330524
85	0x3c45fe31	0.01208453
86	0x3db09aac	0.08623251
87	0xbce5604a	-0.028000016
88	0xbd9178ab	-0.07103094
89	0x3d88186d	0.06645284
90	0x3da8664f	0.08222639
91	0x3d60b5df	0.054860946
92	0x3d8520f1	0.06500424
93	0xbc827178	-0.015923247
94	0x3d750342	0.05981756
95	0x3cb0830a	0.02154686
96	0x3db863bd	0.090033986
97	0x3d88976d	0.06669507
98	0x3d73167a	0.059347607
99	0xbd02be1f	-0.031919595
100	0xbd8e2868	-0.06941301
101	0xbb96ebce	-0.004605747
102	0x3b917609	0.0044391197
103	0x3ac32aa1	0.0014890024
104	0xbddc2b13	-0.10750403
105	0xbc0740cf	-0.008255198
106	0x3d71ae1b	0.05900393
107	0x3d59badd	0.053156722
108	0x3c0bf108	0.008541353
109	0xbd2feb1c	-0.042948827
110	0xbd5215ec	-0.051290438
111	0xbdcf159b	-0.10111543
112	0xbd11e479	-0.03561828
113	0x3dcfdd83	0.10149672
114	0xbbafe8aa	-0.005368312
115	0x3d81711e	0.063204035
116	0x3d729ead	0.059233356
117	0xbda78522	-0.0817969
118	0x3dd63163	0.104586385
119	0x3da5c203	0.080936454
120	0x3def0aa1	0.11671949
121	0x3d88cf20	0.06680131
122	0x3c071302	0.008244278
123	0x3db7f737	0.08982699
124	0xbd628694	-0.055304125
125	0x3d9b6e74	0.07589427
126	0xbdf0b9af	-0.11754166
127	0xbd0c4880	-0.03424883
128	0xbd69a15d	-0.057038654
129	0xbd0b297d	-0.033975113
130	0x3d84a90f	0.06477558
131	0x3c804b39	0.015660869
132	0xbc7ab648	-0.015302248
133	0xbd97a31d	-0.07404158
134	0xbc705d6f	-0.014670714
135	0x3bc5b2a0	0.0060332566
136	0xbd90c16d	-0.07068143
137	0x3bddf1c5	0.006773206
138	0xbd1a57e1	-0.037681464
139	0xbd935d8a	-0.071955755
140	0xbd3ad519	-0.045613382
141	0xbb0fc3f4	-0.0021936866
142	0xbdb20a2e	-0.08693348
143	0xbd748abb	-0.059702616
144	0x3d341237	0.043962684
145	0xbd23a047	-0.039947774
146	0x3ca3dd56	0.020003002
147	0x3d7d9cde	0.06191718
148	0x3d44237c	0.047885403
149	0x3d55de07	0.052213695
150	0xbdb270bf	-0.08712911
151	0xbd8f5ab0	-0.06999719
152	0xbcc62918	-0.024189517
153	0xbd653123	-0.055955064
154	0xbbb58380	-0.0055393577
155	0xbda5e78d	-0.081008054
156	0x3c94100c	0.018074058
157	0xbca15040	-0.019691586
158	0x3d6c8597	0.05774459
159	0xbd3b51e9	-0.045732412
160	0x3d1ef42e	0.038807087
161	0x3d9618d2	0.07328953
162	0xbd1f7cb0	-0.03893727
163	0xbc930c9b	-0.017950347
164	0x3d83550e	0.06412707
165	0x3d5e0c0b	0.054210704
166	0xbcf8429d	-0.030305201
167	0xbdc07500	-0.09397316
168	0xbd2ca884	-0.042152897
169	0xbd926721	-0.071485765
170	0x3d3a7c19	0.045528505
171	0xbdd1486d	-0.10218892
172	0xbd89c6aa	-0.06727345
173	0xbc7b7b94	-0.015349288
174	0xbcfbe924	-0.030750819
175	0xbd3751c5	-0.044755716
176	0x3d9e0b95	0.07717053
177	0x3c5a7950	0.013334587
178	0x3c9f19d1	0.01942149
179	0xbd9564f0	-0.07294643
180	0xb9c1f400	-0.00036993623
181	0x3d7deb1c	0.061991796
182	0x3c9624d8	0.018328115
183	0xbb9c3d6d	-0.0047680647
184	0x3d939aa3	0.07207229
185	0x3b255e61	0.0025233256
186	0xbcf6f12e	-0.0301443
187	0xbd63b94c	-0.055596635
188	0xbcbe9ce7	-0.023268176
189	0x3d70f7f5	0.05883022
190	0x3cdc275e	0.02687424
191	0x3c6051a4	0.01369134
192	0xbcabfc7e	-0.020994421
193	0xbd8f9917	-0.070116214
194	0xbd9d8570	-0.07691467
195	0x3cb25803	0.021770483
196	0xbd050f60	-0.032485366
197	0x3d37749d	0.044788945
198	0x3d2f0dfd	0.04273795
199	0x3da00ee5	0.07815341
200	0xbd6ad6f8	-0.057333916
201	0x3d1b585e	0.03792607
202	0xbd387210	-0.045030653
203	0xbdaefa63	-0.08543851
204	0x3dae583a	0.08512922
205	0x3d4822f6	0.048861466
206	0xbcda0ac5	-0.026616463
207	0x3d36537b	0.044513207
208	0x3d9e107f	0.0771799
209	0x3d958a73	0.07301798
210	0x3d76ea71	0.060282174
211	0xbd2c4acb	-0.042063516
212	0x3d5a91da	0.05336175
213	0x3c1a4b7b	0.00941741
214	0xbd7a41db	-0.06109796
215	0x3ce68b0c	0.028142475
216	0xbda03774	-0.07823077
217	0x3cbafa32	0.02282438
218	0xbc8b9f98	-0.017043874
219	0xbd82d6fb	-0.063886605
220	0x3c94bb36	0.018155675
221	0xbd265368	-0.040606886
222	0xbd97e2f0	-0.07416332
223	0x3d73c3aa	0.05951277
224	0xbd8df6d8	-0.06931847
225	0xbdc0e49a	-0.09418602
226	0xbd142990	-0.03617245
227	0xbda69dda	-0.081355765
228	0x3d5c9169	0.05384961
229	0xbd20eb87	-0.039287116
230	0x3cd41c09	0.025892274
231	0x3d9213dc	0.07132694
232	0xbd75fd67	-0.060056116
233	0xbcd4985f	-0.025951562
234	0x3d57c0af	0.05267399
235	0x3c13e0b5	0.009025742
236	0x3d6e0292	0.05810792
237	0xbd531b6a	-0.051539816
238	0xbd9ea443	-0.07746174
239	0xbdcab9ff	-0.09898757
240	0x3c6bc714	0.014390726
241	0xbd76ae73	-0.06022496
242	0x3c4f9ff5	0.012672414
243	0x3d0f3484	0.034962192
244	0xbcf6ce1f	-0.030127583
245	0x3d59eb48	0.053202897
246	0x3d8e9c2e	0.06963383
247	0x3d746ffc	0.05967711
248	0xbd1f389a	-0.03887234
249	0x3cac387b	0.021023026
250	0xbc68cd8a	-0.014209161
251	0xbd77102b	-0.060318153
252	0x3cdd7e08	0.027037635
253	0x3d0117d9	0.031516884
254	0xbdc25bd5	-0.09490172
255	0xbd2bcd10	-0.04194361

fc3.bias f4 [64]
0	0x3d4af3ee	0.049549036
1	0xbce884b2	-0.028383587
2	0xbd077d38	-0.033078402
3	0x3d9b266f	0.0757569
4	0x3d0c1484	0.034199253
5	0x3db7052c	0.08936533
6	0xbd24bb32	-0.040217586
7	0x3c4fe862	0.012689682
8	0xbd5abff3	-0.053405713
9	0xbd24089a	-0.040047266
10	0x3da411fd	0.080112435
11	0xbaaee646	-0.0013343773
12	0x3d89c9d2	0.06727947
13	0xbdbf8141	-0.09350825
14	0x3dd8b5b8	0.10581535
15	0x3c10b268	0.008831598
16	0x3d47abbe	0.04874777
17	0x3b392741	0.0028252157
18	0x3d0fffca	0.03515605
19	0xbd42edd9	-0.04759011
20	0xbd99afd3	-0.07504239
21	0xbcc4b9d8	-0.024014398
22	0xbda347d1	-0.07972682
23	0x3df094dc	0.11747143
24	0xbc8f5e66	-0.017501067
25	0x3d9e1812	0.07719435
26	0x3ddd6c3f	0.10811662
27	0x3ced85b3	0.028994417
28	0xbc8d73a2	-0.017267052
29	0xbd1a48f5	-0.037667233
30	0x3dae758b	0.08518513
31	0xbbe6823f	-0.0070345695
32	0x3d0a17d2	0.033714123
33	0x3d425d94	0.047452524
34	0xbd9d254e	-0.07673131
35	0xbacce589	-0.0015632372
36	0xbd34737e	-0.044055454
37	0xbd4bc99c	-0.049752817
38	0x3ca5a8c5	0.020222077
39	0x3da3b73b	0.07993933
40	0xbcc584fd	-0.024111265
41	0x3d33a562	0.043858893
42	0x3df0329b	0.11728402
43	0x3dcd1f8c	0.10015783
44	0x3d936792	0.07197489
45	0xbd8e51b4	-0.069491774
46	0x3d5812ba	0.052752234
47	0x3dcade58	0.0990569
48	0x3c28c6e4	0.0103013255
49	0xbd878a62	-0.06618191
50	0xbd9c6953	-0.076372765
51	0x3bb15bf9	0.0054125753
52	0xbdb7c342	-0.08972789
53	0xbd2dfce0	-0.04247749
54	0x3d636239	0.055513594
55	0xbe0d50c4	-0.13800341
56	0xbd73f088	-0.05955556
57	0x3dc6770b	0.096906744
58	0x3d58fe55	0.052976925
59	0x3c8b9eed	0.017043555
60	0xbd1a5403	-0.037677776
61	0x3bab4754	0.005227009
62	0x3d68a425	0.056797165
63	0xbcec9002	-0.028877262

fc4.weight f4 [32, 64]
0	0x3d303d9a	0.043027498
1	0x3d2c05e4	0.041997805
2	0x3dcf0958	0.10109204
3	0x3c079256	0.008274635
4	0x3d601f38	0.054717273
5	0xbdb61d37	-0.08892291
6	0xbd991363	-0.07474401
7	0xbd8288c2	-0.06373741
8	0xbdd88ae4	-0.10573366
9	0x38f8bfad	0.00011861264
10	0x3db33f96	0.087523624
11	0xbd200c63	-0.039074313
12	0xbd42a990	-0.04752499
13	0x3c6a1cbb	0.014289076
14	0x3cca0d8e	0.024664667
15	0x3df171ea	0.117893055
16	0x3defbc46	0.11705832
17	0xbcff5000	-0.031166077
18	0x3dc789ef	0.097431056
19	0x3dbd9aea	0.09258063
20	0xbd9db5bf	-0.07700681
21	0xbd12f0a4	-0.035874024
22	0xbdb4c7f3	-0.088272
23	0x3dcb3809	0.09922797
24	0x3d272129	0.04080311
25	0x3c747c2e	0.014922185
26	0x3e18cebb	0.14922611
27	0x3df03899	0.11729545
28	0xbd558870	-0.05213207
29	0xbc29faa0	-0.010374695
30	0xbd977967	-0.073962025
31	0xbd5951e9	-0.05305663
32	0xbd959cc6	-0.07305293
33	0xbc7272ff	-0.014797925
34	0x3bcfca00	0.006341219
35	0xbdfc9824	-0.12333706
36	0xbc904100	-0.01760912
37	0xbd39fc74	-0.045406774
38	0xba01a7c3	-0.0004945958
39	0x3e195246	0.14972791
40	0xbdfe6e30	-0.1242336
41	0xbd39ac96	-0.045330606
42	0x3c72c4d5	0.014817436
43	0x3d422634	0.047399715
44	0x3d54fe70	0.052000463
45	0x3e0764e2	0.13222077
46	0x3deb0c98	0.114770114
47	0x3c8401c7	0.016114129
48	0x3d69d95c	0.057092056
49	0xbd946496	-0.07245748
50	0x3c01be40	0.007918894
51	0x3c684a33	0.014177847
52	0xbd53baf8	-0.05169198
53	0xbd373202	-0.044725426
54	0xbd5fd777	-0.054648843
55	0xbd96d82f	-0.073654525
56	0xbca12130	-0.019669145
57	0x3d8507fa	0.06495662
58	0xbd9b93ba	-0.07596536
59	0x3d88221e	0.06647132
60	0xbd7a7701	-0.061148647
61	0xbd42b3c1	-0.047534708
62	0xbd90705b	-0.0705268
63	0x3d8adbe4	0.06780222
64	0xbd881248	-0.06644112
65	0x3db5808c	0.08862409
66	0xbccc4c60	-0.024938762
67	0x3d8d3625	0.06895093
68	0x3d12de80	0.035856724
69	0xbd91b92c	-0.07115397
70	0xbc4ef5a9	-0.012631812
71	0xbde01076	-0.1094064
72	0xbdd3bd24	-0.1033881
73	0xbdadd140	-0.08487177
74	0xbdde25cf	-0.10847055
75	0xbc1c6479	-0.009545439
76	0x3d60507a	0.05476425
77	0xbd4dbcd8	-0.050228924
78	0xbdece25e	-0.115666136
79	0xbda7eb2a	-0.08199151
80	0xbdb4d830	-0.08830297
81	0xbd8b0637	-0.06788295
82	0x3d933d8e	0.07189475
83	0x3d4d34d7	0.05009922
84	0x3dc8e524	0.0980933
85	0x3ddb612e	0.10711895
86	0xbdc34cf2	-0.095361605
87	0xbd352e38	-0.04423353
88	0x3dd94513	0.10608878
89	0x3dac6ae4	0.08418825
90	0xbdf7e41a	-0.12104054
91	0x3dced96c	0.10100064
92	0xbdf46400	-0.11933136
93	0x3d8ae35f	0.06781649
94	0xbdd9fee9	-0.106443234
95	0x3c5a3fd8	0.013320886
96	0x3cc1ebd8	0.02367203
97	0xbdffa1f3	-0.12482061
98	0xbd89a6a4	-0.06721237
99	0x3dba1388	0.090857565
100	0xbda0e6b6	-0.078565046
101	0xbbb7e8a0	-0.005612448
102	0x3ccecea0	0.02524501
103	0xbd96bba2	-0.07360007
104	0x3d03e0c4	0.032196775
105	0xbd34eb07	-0.044169452
106	0xbdcc82a6	-0.09985857
107	0xbd1e4dd4	-0.03864844
108	0x3dec2c6c	0.1153191
109	0x3d8865ef	0.06660067
110	0xbd1207fa	-0.03565214
111	0x3d52ac1b	0.051433664
112	0x3bfcbf13	0.0077132075
113	0xbd9d9146	-0.07693724
114	0xbc08fba0	-0.008360773
115	0xbc80499b	-0.015660098
116	0x3d5d216c	0.05398695
117	0x3dac64c2	0.084176555
118	0xbd4e4869	-0.050362024
119	0xbc9e9b70	-0.019361228
120	0x3df303a6	0.1186593
121	0x3dc3b40a	0.09555824
122	0x3d15fcc9	0.036618028
123	0x3c1f3e99	0.009719514
124	0x3d846c62	0.06465985
125	0x3df43128	0.11923438
126	0x3ddeb854	0.108750015
127	0xbd4fad3a	-0.05070231
128	0x3db4cb16	0.08827798
129	0xbc9221f3	-0.017838454
130	0xbdfc63cf	-0.123237245
131	0xbdadfd41	-0.0849557
132	0xbc3b9140	-0.0114482045
133	0xbe2e54fe	-0.1702461
134	0x3dab76be	0.08372258
135	0x3c67c08b	0.014145027
136	0xbd2c7cb0	-0.0421111
137	0x3dc95174	0.09829989
138	0xbd94e629	-0.07270462
139	0x3c346638	0.011010699
140	0xbd5eae7e	-0.054365627
141	0x3dcec3ca	0.100959376
142	0xbd04edf0	-0.032453477
143	0xbd0f03b8	-0.034915656
144	0xbdda455d	-0.10657761
145	0xbc505785	-0.012716179
146	0x3dc06d28	0.0939582
147	0x3d42eca6	0.047588967
148	0xbc9dc1f5	-0.019257525
149	0xbd9cb1f8	-0.07651132
150	0x3ce16220	0.02751261
151	0xbc21f584	-0.009885196
152	0x3dac797c	0.08421609
153	0x3ce0a3de	0.027421888
154	0xbe4135ac	-0.1886813
155	0xbd0ec7c1	-0.03485847
156	0x3d6a554e	0.05721026
157	0x3d31e90a	0.043435134
158	0x3d8eb2dd	0.06967709
159	0xba11f634	-0.0005567998
160	0x3d1c7c2d	0.03820436
161	0xbdac5e7e	-0.084164605
162	0xbd066ef8	-0.03282067
163	0xbdcdb80a	-0.10044868
164	0xbda220af	-0.0791639
165	0xbddba1a8	-0.10724193
166	0xbdd3f500	-0.103494644
167	0xbe267e27	-0.16259061
168	0x3d29d3c4	0.04146172
169	0x3dfa1fb2	0.12213077
170	0xbdd29a30	-0.10283315
171	0xbd171003	-0.036880504
172	0x3d2c74c7	0.042103555
173	0xbcdaeb55	-0.026723543
174	0xbd92d223	-0.07168987
175	0x3dc34bfc	0.09535977
176	0xbc777ca9	-0.015105405
177	0x3ca71f88	0.020400777
178	0xbd44c508	-0.048039466
179	0x3d3686bc	0.044562086
180	0x3d04cb51	0.03242046
181	0xbca1b410	-0.01973918
182	0x3da29dca	0.07940252
183	0xbb80b381	-0.0039276485
184	0x3d8bb761	0.06822086
185	0xbd263718	-0.040579885
186	0xbc4010f2	-0.01172279
187	0x3c151ae7	0.009100652
188	0x3d562f07	0.052290943
189	0x3d7a13d1	0.061054055
190	0x3d4c574d	0.049887944
191	0x3d88bf75	0.066771425
192	0xbcc07f24	-0.023498125
193	0xb9c23799	-0.00037043987
194	0x3d9a8e9d	0.075467326
195	0xbd76d4e5	-0.060261626
196	0x3d4b1744	0.049582735
197	0xbe074cf1	-0.13212945
198	0x3dcebbfd	0.1009445
199	0xbde6e979	-0.11275
200	0x3db98ec0	0.090604305
201	0xbbb44c0a	-0.0055022286
202	0xbdaa463c	-0.083141774
203	0xbdc565ed	-0.096385814
204	0xbd42e404	-0.047580734
205	0x3dd779dc	0.1052129
206	0xbd3f216f	-0.046662744
207	0xbd80a0ca	-0.06280668
208	0xbe026d90	-0.12737107
209	0xbdf05205	-0.11734394
210	0x3d8604da	0.06543894
211	0xbda985fa	-0.08277507
212	0x3dd42ea3	0.10360458
213	0x3ddc3b6a	0.1075352
214	0xbddbf482	-0.107399955
215	0xbe07b34a	-0.13251987
216	0xbd5ffe45	-0.05468585
217	0xbd31b106	-0.043381713
218	0xbdd9a66a	-0.10627444
219	0x3d4d31e2	0.0500964
220	0x3daa981c	0.08329794
221	0xbdef3004	-0.1167908
222	0x3d4691f6	0.048479043
223	0x3d12f3d9	0.035877082
224	0xbddbf7fe	-0.1074066
225	0x3db6c47a	0.08924194
226	0x3cff86fb	0.031192293
227	0x3dbdfa7b	0.09276291
228	0xbdad0b0c	-0.08449373
229	0x3df6e218	0.12054843
230	0x3cdc60a2	0.026901547
231	0x3d0cf716	0.034415327
232	0xbce4bda6	-0.027922463
233	0xbda43861	-0.08018566
234	0xbd0a9976	-0.033837758
235	0xbd213239	-0.039354537
236	0xbe052432	-0.13002089
237	0xbda5f95f	-0.081042044
238	0xbccfc016	-0.025360148
239	0xbcad74fb	-0.021173945
240	0xbd76861d	-0.060186494
241	0xbdf2a9ce	-0.11848794
242	0x3da8915d	0.08230851
243	0xbe018292	-0.12647465
244	0xbdab6154	-0.08368173
245	0xbd469e69	-0.048490915
246	0xbd67ccbb	-0.05659173
247	0x3dcf9f70	0.10137832
248	0xbcd9e1e3	-0.026596969
249	0x3da7c495	0.08191792
250	0xbb817cf3	-0.0039516627
251	0xbda6e0b5	-0.08148328
252	0xbc5ec923	-0.013597759
253	0x3cceb2d1	0.02523175
254	0xbd9df3de	-0.077125296
255	0x3c53d424	0.012928996

fc4.bias f4 [32]
0	0xbd99ee55	-0.07516161
1	0xbd94c1a8	-0.072634995
2	0x3c98d7bb	0.018657556
3	0x3d0c2d4c	0.034222886
4	0xbd982466	-0.074288175
5	0x3d350dc2	0.044202574
6	0x3d74b857	0.059746113
7	0xbd7d67fa	-0.061866738
8	0xbdadcaf6	-0.08485977
9	0x3df4dc71	0.11956108
10	0x3dc9f4b9	0.0986113
11	0x3d8cf81f	0.06883263
12	0x3c50a4b9	0.012734585
13	0xbd8b5918	-0.06804103
14	0x3d394aa7	0.04523721
15	0x3d1bf84d	0.038078595
16	0x3d43eeaa	0.04783503
17	0xbbb86415	-0.005627165
18	0xbdb7b9fe	-0.08971022
19	0xbd0709e4	-0.032968417
20	0xbb80900f	-0.003923423
21	0x3dd078d0	0.10179293
22	0x3b933fbf	0.004493683
23	0x3d96af81	0.073576935
24	0xbc30ddbf	-0.010795056
25	0xbcc1417e	-0.0235908
26	0x3b61ee62	0.0034474363
27	0xbd6d6297	-0.05795535
28	0x3ce9edcb	0.028555771
29	0xbdbb96af	-0.091596
30	0x3d5c897f	0.053842064
31	0xbd2187b0	-0.039436042

fc5.weight f4 [16, 32]
0	0x3cab96b7	0.02094589
1	0xbd97df1b	-0.07415601
2	0xbe396270	-0.18103957
3	0xbd19b26d	-0.037523676
4	0xbd9175d8	-0.07102555
5	0x3d99ce0d	0.07510004
6	0x3e718489	0.23585714
7	0xbd7b8969	-0.06141034
8	0x3cf108ac	0.02942308
9	0x3d32ee13	0.043684077
10	0x3decfa48	0.11571175
11	0x3e0a2047	0.13488875
12	0x3d568739	0.052375052
13	0x3ac60c9e	0.0015109961
14	0x3e3f12f1	0.1865957
15	0xbe05cd1a	-0.13066521
16	0xbd021761	-0.031760577
17	0x3e1a8830	0.15091014
18	0x3dcebfa1	0.10095144
19	0x3e25028d	0.16114254
20	0x3e03ed65	0.12883528
21	0x3d8f9f87	0.07012849
22	0x3e2618fb	0.16220467
23	0xbe3e9671	-0.18612076
24	0x3d0ca62c	0.03433816
25	0xbdbe415e	-0.092898116
26	0x3e1d1030	0.15338206
27	0xbe42fcae	-0.19041702
28	0x3e2a4bdc	0.166305
29	0xbd33098a	-0.04371027
30	0x3e5f3960	0.2179923
31	0x3dd9179e	0.10600208
32	0x3e1ef599	0.15523376
33	0xbd0d124b	-0.034441274
34	0xbe11ed4e	-0.14250681
35	0x3d8a784a	0.067612246
36	0x3ca59250	0.020211369
37	0xbe4ccc47	-0.199998
38	0xbd9b846b	-0.07593616
39	0xbe2dbdf3	-0.16966991
40	0x3db63168	0.08896142
41	0x3d847713	0.06468024
42	0x3e14655d	0.14491792
43	0x3e32796d	0.17429133
44	0xbc38a9b8	-0.011270933
45	0xbe3d1ba1	-0.18467571
46	0x3df81c27	0.12114745
47	0xbd23857e	-0.03992223
48	0xbdc2f7d2	-0.09519924
49	0x3cd65949	0.026165621
50	0xbe2d9167	-0.16949998
51	0x3e1a868f	0.15090393
52	0x3d5a124d	0.05324011
53	0xbd9fc127	-0.07800513
54	0xbdac66da	-0.08418055
55	0xbd295fd3	-0.04135115
56	0x3db76714	0.089552075
57	0x3d448a61	0.04798353
58	0x3cf11bd7	0.02943222
59	0xbdcc811f	-0.099855654
60	0x3cf00c13	0.029302632
61	0xbde3eb3c	-0.11128852
62	0x3dc41616	0.09574525
63	0x3d0837e0	0.03325641
64	0xbd7f1a03	-0.062280666
65	0xbd15bda2	-0.0365578
66	0x3dbee873	0.0932168
67	0x3e0bf3dd	0.13667245
68	0x3e187503	0.14888386
69	0xbd7d3da7	-0.061826374
70	0x3b948152	0.0045320177
71	0x3ca5ca41	0.020238044
72	0xbe15128c	-0.14557856
73	0x3e447836	0.19186482
74	0xbe01fe01	-0.12694551
75	0x3decdf5d	0.11566041
76	0x3ddcb1b6	0.10776083
77	0x3dc217e7	0.09477215
78	0xbd1b7173	-0.03794999
79	0xbd3dbd1c	-0.046322927
80	0xbda3cceb	-0.079980694
81	0xbd6d208d	-0.05789237
82	0xbdccf0aa	-0.100068405
83	0xbe1cacee	-0.15300342
84	0x3c93966b	0.01801606
85	0x3c51f81b	0.012815501
86	0x381ba5eb	3.7109403e-05
87	0xbe126720	-0.14297152
88	0xbddc96e4	-0.107709676
89	0x3dabcc14	0.08388534
90	0x3e33100e	0.17486593
91	0xbde6f4fd	-0.112771966
92	0x3e2d818c	0.1694395
93	0xbdd12cbf	-0.10213613
94	0xbd925675	-0.071453966
95	0x3d457b04	0.04821302
96	0x3e01d733	0.12679748
97	0xbe04afbf	-0.12957667
98	0xbe1be537	-0.15224157
99	0x3d2849a0	0.04108584
100	0xbdc4573d	-0.09586952
101	0x3d7205c8	0.059087545
102	0xbd97b4f7	-0.07407563
103	0xbb55c400	-0.0032618046
104	0xbe333e23	-0.17504172
105	0x3d27cfe4	0.040969744
106	0x3e2f5ce3	0.17125277
107	0x3d2af4a8	0.04173723
108	0xbd06a740	-0.032874346
109	0x3df65b4a	0.12029131
110	0x3d1483d4	0.036258534
111	0xbdcf5230	-0.10123098
112	0x3dac5a6a	0.084156826
113	0x3d3968b4	0.04526587
114	0x3e15bc95	0.1462272
115	0x3d28bfe4	0.041198626
116	0x3e2f346f	0.17109846
117	0x3c3fc0c0	0.01170367
118	0x3db54d42	0.088526264
119	0x3df5c016	0.11999528
120	0xbde8cd50	-0.11367285
121	0xbe31ecb0	-0.17375445
122	0x3e23e8c3	0.1600676
123	0xbcb38368	-0.021913245
124	0xbdcdf672	-0.10056771
125	0x3dfb0932	0.12257613
126	0xbd132fcc	-0.035934255
127	0xbe2befab	-0.16790645
128	0x3d153d10	0.036435187
129	0x3e089e3d	0.13341613
130	0x3dc94b46	0.098288104
131	0x3e097fb1	0.13427617
132	0xbe1383c6	-0.14405736
133	0x3dc6ce81	0.09707356
134	0x38b1e4fc	8.482669e-05
135	0xbe0b7844	-0.13620096
136	0x3d947b88	0.07250124
137	0xbc901ba1	-0.0175913
138	0x3e0b38b5	0.13595851
139	0xbdd85e38	-0.10564846
140	0xbcc3b3c9	-0.02388944
141	0x3e21e692	0.15810612
142	0x3c9d0107	0.019165529
143	0xbd68aa20	-0.05680287
144	0x3e229539	0.15877236
145	0x3c59c358	0.0132912025
146	0x3d605905	0.054772396
147	0x3d9256c2	0.07145454
148	0x3d187b8f	0.03722721
149	0x3d5643b8	0.052310675
150	0x3dd20cf4	0.10256377
151	0xbe390715	-0.18069108
152	0x3e0f31cd	0.13983841
153	0xbe22bec1	-0.1589308
154	0xbe2b16d2	-0.16707924
155	0x3da58659	0.080822654
156	0xbcd46971	-0.025929185
157	0x3d8d109e	0.06887935
158	0xbe27b31b	-0.16376917
159	0xbde67719	-0.11253185
160	0xbc161861	-0.009161086
161	0x3e1b0ec1	0.15142347
162	0x3daabf21	0.08337236
163	0x3dc25d22	0.0949042
164	0x3d4d5870	0.05013317
165	0xbdeeb097	-0.116547756
166	0xbcefaf23	-0.029258316
167	0x3e072f19	0.1320156
168	0xbda6886a	-0.08131488
169	0x3d633243	0.055467855
170	0x3e05207e	0.13000676
171	0xbd172441	-0.03689981
172	0xbe0f34aa	-0.13984933
173	0xbe266d4d	-0.16252632
174	0x3e154814	0.14578277
175	0xbdd22fb3	-0.10263004
176	0xbe33f032	-0.17572096
177	0xbdc82d2e	-0.09774242
178	0xbd9c8163	-0.07641866
179	0xbdabc3b3	-0.08386936
180	0x3e2ccf96	0.16876063
181	0xbe27d5aa	-0.163901
182	0xbd874261	-0.06604458
183	0xbd8152e6	-0.0631464
184	0xbe3632a5	-0.17792757
185	0x3e1b8aea	0.1518971
186	0x3d8759ee	0.066089496
187	0xbcc10608	-0.023562446
188	0x3df3b0dc	0.118989676
189	0x3d1c08c4	0.038094297
190	0xbe21a32d	-0.15784903
191	0xbb8519c0	-0.0040619075
192	0xbd9743f6	-0.073860094
193	0x3d0a08a4	0.033699647
194	0xbe179042	-0.14801124
195	0xbe282fbf	-0.16424464
196	0x3d28f100	0.04124546
197	0xbc2a74a0	-0.010403782
198	0xbd05e148	-0.032685548
199	0xbd259d3c	-0.040433154
200	0xbdd09366	-0.10184364
201	0x3c491c30	0.012274787
202	0xbe0ed6d2	-0.13949135
203	0xbd2f156c	-0.04274504
204	0x3d4413c8	0.047870427
205	0xbddbc006	-0.10729985
206	0xbd8fb8e9	-0.07017691
207	0x3d364494	0.044498995
208	0xbbe752a0	-0.00705941
209	0x3debd2ce	0.11514817
210	0xbdb91ece	-0.09039079
211	0x3b33af00	0.002741754
212	0xbd1fb264	-0.038988486
213	0xbd48929c	-0.048967943
214	0x3d87d27c	0.066319436
215	0xbdcfc9c4	-0.101459056
216	0xbc386c60	-0.011256307
217	0xbe2cde25	-0.16881616
218	0x3d34d46c	0.044147894
219	0x3ded08ae	0.11573921
220	0x3d3c03b8	0.045901984
221	0x3da14e5e	0.078762755
222	0xbe0fe318	-0.14051473
223	0xbe188547	-0.14894591
224	0xbe333e17	-0.17504154
225	0xbde486ff	-0.11158561
226	0xbc70be8a	-0.014693866
227	0xbd067178	-0.032823056
228	0x3d1f0d6c	0.03883116
229	0x3e1f77a9	0.1557299
230	0x3dfb236a	0.12262614
231	0xbd44bfa8	-0.04803434
232	0x3d9635ac	0.07334456
233	0x3d7c3e00	0.061582565
234	0xbe092dc6	-0.13396367
235	0xbd4e78b0	-0.050408065
236	0x3d649b4e	0.055812173
237	0xbdd8a4cd	-0.10578308
238	0xbd4e7204	-0.050401703
239	0x3e17a701	0.148098
240	0x3dc400ae	0.09570442
241	0x3db6708b	0.089081846
242	0xbe331c44	-0.17491251
243	0x3d4ced18	0.050030798
244	0xbe16862e	-0.14699623
245	0x3dd35f5e	0.10320924
246	0x3e0935bb	0.13399403
247	0xbda625d4	-0.08112684
248	0x3dce7ace	0.10082017
249	0x3c8ff30c	0.017571948
250	0xbe2e0f5f	-0.16998051
251	0xbd8f3444	-0.06992391
252	0xbd6e1e16	-0.05813416
253	0xbe0903a4	-0.13380295
254	0xbe1235dd	-0.1427836
255	0x3e25a9ab	0.16178004

fc5.bias f4 [16]
0	0x3df26923	0.118364595
1	0xbd206ab5	-0.039164264
2	0x3cc3e045	0.023910651
3	0xbe183d8f	-0.14867233
4	0x3dcbd7b2	0.0995325
5	0xbdd23833	-0.102646254
6	0xbc2e1760	-0.01062569
7	0xbe27f2ba	-0.16401187
8	0xbde1ebd7	-0.11031311
9	0xbd37b79c	-0.044852838
10	0x3d7991e3	0.060930144
11	0xbe432b04	-0.19059378
12	0xbdbaac81	-0.09114934
13	0x3e09550e	0.13411352
14	0x3d2bff15	0.041991312
15	0xbcf34bf8	-0.02969931
